<?xml version="1.0"?>
<net name="main_graph" version="11">
	<layers>
		<layer id="8" name="tgt" type="Parameter" version="opset1">
			<data shape="?,?" element_type="i64" />
			<rt_info>
				<attribute name="old_api_map_element_type" version="0" value="i32" />
			</rt_info>
			<output>
				<port id="0" precision="I64" names="tgt">
					<dim>-1</dim>
					<dim>-1</dim>
				</port>
			</output>
		</layer>
		<layer id="7" name="tgt_mask" type="Parameter" version="opset1">
			<data shape="?,?,?" element_type="boolean" />
			<output>
				<port id="0" precision="BOOL" names="tgt_mask">
					<dim>-1</dim>
					<dim>-1</dim>
					<dim>-1</dim>
				</port>
			</output>
		</layer>
		<layer id="6" name="memory" type="Parameter" version="opset1">
			<data shape="?,?,768" element_type="f32" />
			<output>
				<port id="0" precision="FP32" names="memory">
					<dim>-1</dim>
					<dim>-1</dim>
					<dim>768</dim>
				</port>
			</output>
		</layer>
		<layer id="5" name="cache_in_0" type="Parameter" version="opset1">
			<data shape="?,?,768" element_type="f32" />
			<output>
				<port id="0" precision="FP32" names="cache_in_0">
					<dim>-1</dim>
					<dim>-1</dim>
					<dim>768</dim>
				</port>
			</output>
		</layer>
		<layer id="4" name="cache_in_1" type="Parameter" version="opset1">
			<data shape="?,?,768" element_type="f32" />
			<output>
				<port id="0" precision="FP32" names="cache_in_1">
					<dim>-1</dim>
					<dim>-1</dim>
					<dim>768</dim>
				</port>
			</output>
		</layer>
		<layer id="3" name="cache_in_2" type="Parameter" version="opset1">
			<data shape="?,?,768" element_type="f32" />
			<output>
				<port id="0" precision="FP32" names="cache_in_2">
					<dim>-1</dim>
					<dim>-1</dim>
					<dim>768</dim>
				</port>
			</output>
		</layer>
		<layer id="2" name="cache_in_3" type="Parameter" version="opset1">
			<data shape="?,?,768" element_type="f32" />
			<output>
				<port id="0" precision="FP32" names="cache_in_3">
					<dim>-1</dim>
					<dim>-1</dim>
					<dim>768</dim>
				</port>
			</output>
		</layer>
		<layer id="1" name="cache_in_4" type="Parameter" version="opset1">
			<data shape="?,?,768" element_type="f32" />
			<output>
				<port id="0" precision="FP32" names="cache_in_4">
					<dim>-1</dim>
					<dim>-1</dim>
					<dim>768</dim>
				</port>
			</output>
		</layer>
		<layer id="0" name="cache_in_5" type="Parameter" version="opset1">
			<data shape="?,?,768" element_type="f32" />
			<output>
				<port id="0" precision="FP32" names="cache_in_5">
					<dim>-1</dim>
					<dim>-1</dim>
					<dim>768</dim>
				</port>
			</output>
		</layer>
		<layer id="9" name="Constant_1468727" type="Const" version="opset1">
			<data element_type="i8" shape="5049, 768" offset="0" size="3877632" />
			<output>
				<port id="0" precision="I8">
					<dim>5049</dim>
					<dim>768</dim>
				</port>
			</output>
		</layer>
		<layer id="10" name="Convert_1468728" type="Convert" version="opset1">
			<data destination_type="f32" />
			<input>
				<port id="0" precision="I8">
					<dim>5049</dim>
					<dim>768</dim>
				</port>
			</input>
			<output>
				<port id="1" precision="FP32">
					<dim>5049</dim>
					<dim>768</dim>
				</port>
			</output>
		</layer>
		<layer id="11" name="Constant_1468729" type="Const" version="opset1">
			<data element_type="f32" shape="5049, 1" offset="3877632" size="20196" />
			<output>
				<port id="0" precision="FP32">
					<dim>5049</dim>
					<dim>1</dim>
				</port>
			</output>
		</layer>
		<layer id="12" name="/embed/embed.0/Gather/fq_weights_0" type="Multiply" version="opset1">
			<data auto_broadcast="numpy" />
			<input>
				<port id="0" precision="FP32">
					<dim>5049</dim>
					<dim>768</dim>
				</port>
				<port id="1" precision="FP32">
					<dim>5049</dim>
					<dim>1</dim>
				</port>
			</input>
			<output>
				<port id="2" precision="FP32">
					<dim>5049</dim>
					<dim>768</dim>
				</port>
			</output>
		</layer>
		<layer id="13" name="Constant_41481" type="Const" version="opset1">
			<data element_type="i64" shape="" offset="3897828" size="8" />
			<output>
				<port id="0" precision="I64" />
			</output>
		</layer>
		<layer id="14" name="/embed/embed.0/Gather" type="Gather" version="opset8">
			<data batch_dims="0" />
			<input>
				<port id="0" precision="FP32">
					<dim>5049</dim>
					<dim>768</dim>
				</port>
				<port id="1" precision="I64">
					<dim>-1</dim>
					<dim>-1</dim>
				</port>
				<port id="2" precision="I64" />
			</input>
			<output>
				<port id="3" precision="FP32" names="/embed/embed.0/Gather_output_0">
					<dim>-1</dim>
					<dim>-1</dim>
					<dim>768</dim>
				</port>
			</output>
		</layer>
		<layer id="15" name="Constant_45617_compressed" type="Const" version="opset1">
			<data element_type="f16" shape="1, 1, 1" offset="3897836" size="2" />
			<output>
				<port id="0" precision="FP16">
					<dim>1</dim>
					<dim>1</dim>
					<dim>1</dim>
				</port>
			</output>
		</layer>
		<layer id="16" name="Constant_45617" type="Convert" version="opset1">
			<data destination_type="f32" />
			<rt_info>
				<attribute name="decompression" version="0" />
			</rt_info>
			<input>
				<port id="0" precision="FP16">
					<dim>1</dim>
					<dim>1</dim>
					<dim>1</dim>
				</port>
			</input>
			<output>
				<port id="1" precision="FP32">
					<dim>1</dim>
					<dim>1</dim>
					<dim>1</dim>
				</port>
			</output>
		</layer>
		<layer id="17" name="/embed/embed.1/Mul" type="Multiply" version="opset1">
			<data auto_broadcast="numpy" />
			<input>
				<port id="0" precision="FP32">
					<dim>-1</dim>
					<dim>-1</dim>
					<dim>768</dim>
				</port>
				<port id="1" precision="FP32">
					<dim>1</dim>
					<dim>1</dim>
					<dim>1</dim>
				</port>
			</input>
			<output>
				<port id="2" precision="FP32" names="/embed/embed.1/Mul_output_0">
					<dim>-1</dim>
					<dim>-1</dim>
					<dim>768</dim>
				</port>
			</output>
		</layer>
		<layer id="18" name="Constant_285_compressed" type="Const" version="opset1">
			<data element_type="f16" shape="1, 5000, 768" offset="3897838" size="7680000" />
			<output>
				<port id="0" precision="FP16" names="onnx::Slice_178">
					<dim>1</dim>
					<dim>5000</dim>
					<dim>768</dim>
				</port>
			</output>
		</layer>
		<layer id="19" name="Constant_285" type="Convert" version="opset1">
			<data destination_type="f32" />
			<rt_info>
				<attribute name="decompression" version="0" />
			</rt_info>
			<input>
				<port id="0" precision="FP16">
					<dim>1</dim>
					<dim>5000</dim>
					<dim>768</dim>
				</port>
			</input>
			<output>
				<port id="1" precision="FP32">
					<dim>1</dim>
					<dim>5000</dim>
					<dim>768</dim>
				</port>
			</output>
		</layer>
		<layer id="20" name="Constant_44275" type="Const" version="opset1">
			<data element_type="i64" shape="2" offset="11577838" size="16" />
			<rt_info>
				<attribute name="precise" version="0" />
			</rt_info>
			<output>
				<port id="0" precision="I64">
					<dim>2</dim>
				</port>
			</output>
		</layer>
		<layer id="21" name="Constant_44276" type="Const" version="opset1">
			<data element_type="i64" shape="2" offset="11577838" size="16" />
			<rt_info>
				<attribute name="precise" version="0" />
			</rt_info>
			<output>
				<port id="0" precision="I64">
					<dim>2</dim>
				</port>
			</output>
		</layer>
		<layer id="22" name="Constant_44272" type="Const" version="opset1">
			<data element_type="i64" shape="1" offset="11577854" size="8" />
			<rt_info>
				<attribute name="precise" version="0" />
			</rt_info>
			<output>
				<port id="0" precision="I64">
					<dim>1</dim>
				</port>
			</output>
		</layer>
		<layer id="23" name="/embed/embed.1/Shape" type="ShapeOf" version="opset3">
			<data output_type="i64" />
			<input>
				<port id="0" precision="FP32">
					<dim>-1</dim>
					<dim>-1</dim>
					<dim>768</dim>
				</port>
			</input>
			<output>
				<port id="1" precision="I64" names="/embed/embed.1/Shape_output_0">
					<dim>3</dim>
				</port>
			</output>
		</layer>
		<layer id="24" name="Constant_44197" type="Const" version="opset1">
			<data element_type="i64" shape="1" offset="11577854" size="8" />
			<rt_info>
				<attribute name="precise" version="0" />
			</rt_info>
			<output>
				<port id="0" precision="I64">
					<dim>1</dim>
				</port>
			</output>
		</layer>
		<layer id="25" name="Constant_41487" type="Const" version="opset1">
			<data element_type="i64" shape="" offset="3897828" size="8" />
			<rt_info>
				<attribute name="precise" version="0" />
			</rt_info>
			<output>
				<port id="0" precision="I64" />
			</output>
		</layer>
		<layer id="26" name="/embed/embed.1/Gather" type="Gather" version="opset8">
			<data batch_dims="0" />
			<input>
				<port id="0" precision="I64">
					<dim>3</dim>
				</port>
				<port id="1" precision="I64">
					<dim>1</dim>
				</port>
				<port id="2" precision="I64" />
			</input>
			<output>
				<port id="3" precision="I64" names="/embed/embed.1/Gather_output_0,/embed/embed.1/Unsqueeze_output_0">
					<dim>1</dim>
				</port>
			</output>
		</layer>
		<layer id="27" name="Constant_44271" type="Const" version="opset1">
			<data element_type="i32" shape="1" offset="11577862" size="4" />
			<rt_info>
				<attribute name="precise" version="0" />
			</rt_info>
			<output>
				<port id="0" precision="I32">
					<dim>1</dim>
				</port>
			</output>
		</layer>
		<layer id="28" name="ScatterUpdate_44277" type="ScatterUpdate" version="opset3">
			<input>
				<port id="0" precision="I64">
					<dim>2</dim>
				</port>
				<port id="1" precision="I64">
					<dim>1</dim>
				</port>
				<port id="2" precision="I64">
					<dim>1</dim>
				</port>
				<port id="3" precision="I32">
					<dim>1</dim>
				</port>
			</input>
			<output>
				<port id="4" precision="I64">
					<dim>2</dim>
				</port>
			</output>
		</layer>
		<layer id="29" name="Constant_44280" type="Const" version="opset1">
			<data element_type="i64" shape="2" offset="11577866" size="16" />
			<rt_info>
				<attribute name="precise" version="0" />
			</rt_info>
			<output>
				<port id="0" precision="I64">
					<dim>2</dim>
				</port>
			</output>
		</layer>
		<layer id="30" name="/embed/embed.1/Slice" type="StridedSlice" version="opset1">
			<data begin_mask="1, 0" end_mask="1, 0" new_axis_mask="" shrink_axis_mask="" ellipsis_mask="" />
			<input>
				<port id="0" precision="FP32">
					<dim>1</dim>
					<dim>5000</dim>
					<dim>768</dim>
				</port>
				<port id="1" precision="I64">
					<dim>2</dim>
				</port>
				<port id="2" precision="I64">
					<dim>2</dim>
				</port>
				<port id="3" precision="I64">
					<dim>2</dim>
				</port>
			</input>
			<output>
				<port id="4" precision="FP32" names="/embed/embed.1/Slice_output_0">
					<dim>1</dim>
					<dim>-1</dim>
					<dim>768</dim>
				</port>
			</output>
		</layer>
		<layer id="31" name="/embed/embed.1/Add" type="Add" version="opset1">
			<data auto_broadcast="numpy" />
			<input>
				<port id="0" precision="FP32">
					<dim>-1</dim>
					<dim>-1</dim>
					<dim>768</dim>
				</port>
				<port id="1" precision="FP32">
					<dim>1</dim>
					<dim>-1</dim>
					<dim>768</dim>
				</port>
			</input>
			<output>
				<port id="2" precision="FP32" names="/embed/embed.1/Add_output_0">
					<dim>-1</dim>
					<dim>-1</dim>
					<dim>768</dim>
				</port>
			</output>
		</layer>
		<layer id="32" name="Constant_44287" type="Const" version="opset1">
			<data element_type="i64" shape="2" offset="11577882" size="16" />
			<rt_info>
				<attribute name="precise" version="0" />
			</rt_info>
			<output>
				<port id="0" precision="I64">
					<dim>2</dim>
				</port>
			</output>
		</layer>
		<layer id="33" name="Constant_44290" type="Const" version="opset1">
			<data element_type="i64" shape="2" offset="11577898" size="16" />
			<rt_info>
				<attribute name="precise" version="0" />
			</rt_info>
			<output>
				<port id="0" precision="I64">
					<dim>2</dim>
				</port>
			</output>
		</layer>
		<layer id="34" name="Constant_44293" type="Const" version="opset1">
			<data element_type="i64" shape="2" offset="11577866" size="16" />
			<rt_info>
				<attribute name="precise" version="0" />
			</rt_info>
			<output>
				<port id="0" precision="I64">
					<dim>2</dim>
				</port>
			</output>
		</layer>
		<layer id="35" name="/decoders.0/Slice_1" type="StridedSlice" version="opset1">
			<data begin_mask="1, 0" end_mask="1, 0" new_axis_mask="" shrink_axis_mask="" ellipsis_mask="" />
			<input>
				<port id="0" precision="FP32">
					<dim>-1</dim>
					<dim>-1</dim>
					<dim>768</dim>
				</port>
				<port id="1" precision="I64">
					<dim>2</dim>
				</port>
				<port id="2" precision="I64">
					<dim>2</dim>
				</port>
				<port id="3" precision="I64">
					<dim>2</dim>
				</port>
			</input>
			<output>
				<port id="4" precision="FP32" names="/decoders.0/Slice_1_output_0">
					<dim>-1</dim>
					<dim>-1</dim>
					<dim>768</dim>
				</port>
			</output>
		</layer>
		<layer id="36" name="Constant_45625_compressed" type="Const" version="opset1">
			<data element_type="f16" shape="1, 1, 768" offset="11577914" size="1536" />
			<output>
				<port id="0" precision="FP16">
					<dim>1</dim>
					<dim>1</dim>
					<dim>768</dim>
				</port>
			</output>
		</layer>
		<layer id="37" name="Constant_45625" type="Convert" version="opset1">
			<data destination_type="f32" />
			<rt_info>
				<attribute name="decompression" version="0" />
			</rt_info>
			<input>
				<port id="0" precision="FP16">
					<dim>1</dim>
					<dim>1</dim>
					<dim>768</dim>
				</port>
			</input>
			<output>
				<port id="1" precision="FP32">
					<dim>1</dim>
					<dim>1</dim>
					<dim>768</dim>
				</port>
			</output>
		</layer>
		<layer id="38" name="Constant_44299" type="Const" version="opset1">
			<data element_type="i64" shape="2" offset="11577882" size="16" />
			<rt_info>
				<attribute name="precise" version="0" />
			</rt_info>
			<output>
				<port id="0" precision="I64">
					<dim>2</dim>
				</port>
			</output>
		</layer>
		<layer id="39" name="Constant_44302" type="Const" version="opset1">
			<data element_type="i64" shape="2" offset="11577898" size="16" />
			<rt_info>
				<attribute name="precise" version="0" />
			</rt_info>
			<output>
				<port id="0" precision="I64">
					<dim>2</dim>
				</port>
			</output>
		</layer>
		<layer id="40" name="Constant_44305" type="Const" version="opset1">
			<data element_type="i64" shape="2" offset="11577866" size="16" />
			<rt_info>
				<attribute name="precise" version="0" />
			</rt_info>
			<output>
				<port id="0" precision="I64">
					<dim>2</dim>
				</port>
			</output>
		</layer>
		<layer id="41" name="/decoders.0/Slice_2" type="StridedSlice" version="opset1">
			<data begin_mask="1, 0" end_mask="1, 0" new_axis_mask="" shrink_axis_mask="" ellipsis_mask="" />
			<input>
				<port id="0" precision="BOOL">
					<dim>-1</dim>
					<dim>-1</dim>
					<dim>-1</dim>
				</port>
				<port id="1" precision="I64">
					<dim>2</dim>
				</port>
				<port id="2" precision="I64">
					<dim>2</dim>
				</port>
				<port id="3" precision="I64">
					<dim>2</dim>
				</port>
			</input>
			<output>
				<port id="4" precision="BOOL" names="/decoders.0/Slice_2_output_0">
					<dim>-1</dim>
					<dim>-1</dim>
					<dim>-1</dim>
				</port>
			</output>
		</layer>
		<layer id="42" name="Constant_41573" type="Const" version="opset1">
			<data element_type="i64" shape="1" offset="11577854" size="8" />
			<output>
				<port id="0" precision="I64">
					<dim>1</dim>
				</port>
			</output>
		</layer>
		<layer id="43" name="/decoders.0/self_attn/Unsqueeze_3" type="Unsqueeze" version="opset1">
			<input>
				<port id="0" precision="BOOL">
					<dim>-1</dim>
					<dim>-1</dim>
					<dim>-1</dim>
				</port>
				<port id="1" precision="I64">
					<dim>1</dim>
				</port>
			</input>
			<output>
				<port id="2" precision="BOOL" names="/decoders.0/self_attn/Unsqueeze_3_output_0">
					<dim>-1</dim>
					<dim>1</dim>
					<dim>-1</dim>
					<dim>-1</dim>
				</port>
			</output>
		</layer>
		<layer id="44" name="/decoders.0/self_attn/Cast" type="Convert" version="opset1">
			<data destination_type="i64" />
			<input>
				<port id="0" precision="BOOL">
					<dim>-1</dim>
					<dim>1</dim>
					<dim>-1</dim>
					<dim>-1</dim>
				</port>
			</input>
			<output>
				<port id="1" precision="I64" names="/decoders.0/self_attn/Cast_output_0">
					<dim>-1</dim>
					<dim>1</dim>
					<dim>-1</dim>
					<dim>-1</dim>
				</port>
			</output>
		</layer>
		<layer id="45" name="Constant_45618" type="Const" version="opset1">
			<data element_type="i64" shape="1, 1, 1, 1" offset="3897828" size="8" />
			<output>
				<port id="0" precision="I64">
					<dim>1</dim>
					<dim>1</dim>
					<dim>1</dim>
					<dim>1</dim>
				</port>
			</output>
		</layer>
		<layer id="46" name="/decoders.0/self_attn/Equal" type="Equal" version="opset1">
			<data auto_broadcast="numpy" />
			<input>
				<port id="0" precision="I64">
					<dim>-1</dim>
					<dim>1</dim>
					<dim>-1</dim>
					<dim>-1</dim>
				</port>
				<port id="1" precision="I64">
					<dim>1</dim>
					<dim>1</dim>
					<dim>1</dim>
					<dim>1</dim>
				</port>
			</input>
			<output>
				<port id="2" precision="BOOL" names="/decoders.0/self_attn/Cast_1_output_0,/decoders.0/self_attn/Cast_2_output_0,/decoders.0/self_attn/Equal_output_0,/decoders.1/self_attn/Cast_1_output_0,/decoders.1/self_attn/Cast_output_0,/decoders.2/self_attn/Cast_1_output_0,/decoders.2/self_attn/Cast_output_0,/decoders.3/self_attn/Cast_1_output_0,/decoders.3/self_attn/Cast_output_0,/decoders.4/self_attn/Cast_1_output_0,/decoders.4/self_attn/Cast_output_0,/decoders.5/self_attn/Cast_1_output_0,/decoders.5/self_attn/Cast_output_0">
					<dim>-1</dim>
					<dim>1</dim>
					<dim>-1</dim>
					<dim>-1</dim>
				</port>
			</output>
		</layer>
		<layer id="47" name="/decoders.0/self_attn/Constant_14_compressed" type="Const" version="opset1">
			<data element_type="f16" shape="" offset="11579450" size="2" />
			<output>
				<port id="0" precision="FP16" names="/decoders.0/self_attn/Constant_14_output_0" />
			</output>
		</layer>
		<layer id="48" name="/decoders.0/self_attn/Constant_14" type="Convert" version="opset1">
			<data destination_type="f32" />
			<rt_info>
				<attribute name="decompression" version="0" />
			</rt_info>
			<input>
				<port id="0" precision="FP16" />
			</input>
			<output>
				<port id="1" precision="FP32" />
			</output>
		</layer>
		<layer id="49" name="/decoders.0/self_attn/Constant_13" type="Const" version="opset1">
			<data element_type="f32" shape="" offset="11579452" size="4" />
			<output>
				<port id="0" precision="FP32" names="/decoders.0/self_attn/Constant_13_output_0" />
			</output>
		</layer>
		<layer id="50" name="Constant_45621_compressed" type="Const" version="opset1">
			<data element_type="f16" shape="1, 1, 768" offset="11579456" size="1536" />
			<output>
				<port id="0" precision="FP16">
					<dim>1</dim>
					<dim>1</dim>
					<dim>768</dim>
				</port>
			</output>
		</layer>
		<layer id="51" name="Constant_45621" type="Convert" version="opset1">
			<data destination_type="f32" />
			<rt_info>
				<attribute name="decompression" version="0" />
			</rt_info>
			<input>
				<port id="0" precision="FP16">
					<dim>1</dim>
					<dim>1</dim>
					<dim>768</dim>
				</port>
			</input>
			<output>
				<port id="1" precision="FP32">
					<dim>1</dim>
					<dim>1</dim>
					<dim>768</dim>
				</port>
			</output>
		</layer>
		<layer id="52" name="Constant_41498" type="Const" version="opset1">
			<data element_type="i64" shape="1" offset="11580992" size="8" />
			<output>
				<port id="0" precision="I64">
					<dim>1</dim>
				</port>
			</output>
		</layer>
		<layer id="53" name="/decoders.0/norm1/Div" type="MVN" version="opset6">
			<data eps="9.999999960041972e-13" normalize_variance="true" eps_mode="INSIDE_SQRT" />
			<input>
				<port id="0" precision="FP32">
					<dim>-1</dim>
					<dim>-1</dim>
					<dim>768</dim>
				</port>
				<port id="1" precision="I64">
					<dim>1</dim>
				</port>
			</input>
			<output>
				<port id="2" precision="FP32" names="/decoders.0/norm1/Div_output_0">
					<dim>-1</dim>
					<dim>-1</dim>
					<dim>768</dim>
				</port>
			</output>
		</layer>
		<layer id="54" name="Constant_45619_compressed" type="Const" version="opset1">
			<data element_type="f16" shape="1, 1, 768" offset="11581000" size="1536" />
			<output>
				<port id="0" precision="FP16">
					<dim>1</dim>
					<dim>1</dim>
					<dim>768</dim>
				</port>
			</output>
		</layer>
		<layer id="55" name="Constant_45619" type="Convert" version="opset1">
			<data destination_type="f32" />
			<rt_info>
				<attribute name="decompression" version="0" />
			</rt_info>
			<input>
				<port id="0" precision="FP16">
					<dim>1</dim>
					<dim>1</dim>
					<dim>768</dim>
				</port>
			</input>
			<output>
				<port id="1" precision="FP32">
					<dim>1</dim>
					<dim>1</dim>
					<dim>768</dim>
				</port>
			</output>
		</layer>
		<layer id="56" name="/decoders.0/norm1/Mul" type="Multiply" version="opset1">
			<data auto_broadcast="numpy" />
			<input>
				<port id="0" precision="FP32">
					<dim>-1</dim>
					<dim>-1</dim>
					<dim>768</dim>
				</port>
				<port id="1" precision="FP32">
					<dim>1</dim>
					<dim>1</dim>
					<dim>768</dim>
				</port>
			</input>
			<output>
				<port id="2" precision="FP32" names="/decoders.0/norm1/Mul_output_0">
					<dim>-1</dim>
					<dim>-1</dim>
					<dim>768</dim>
				</port>
			</output>
		</layer>
		<layer id="57" name="Constant_45620_compressed" type="Const" version="opset1">
			<data element_type="f16" shape="1, 1, 768" offset="11582536" size="1536" />
			<output>
				<port id="0" precision="FP16">
					<dim>1</dim>
					<dim>1</dim>
					<dim>768</dim>
				</port>
			</output>
		</layer>
		<layer id="58" name="Constant_45620" type="Convert" version="opset1">
			<data destination_type="f32" />
			<rt_info>
				<attribute name="decompression" version="0" />
			</rt_info>
			<input>
				<port id="0" precision="FP16">
					<dim>1</dim>
					<dim>1</dim>
					<dim>768</dim>
				</port>
			</input>
			<output>
				<port id="1" precision="FP32">
					<dim>1</dim>
					<dim>1</dim>
					<dim>768</dim>
				</port>
			</output>
		</layer>
		<layer id="59" name="/decoders.0/norm1/Add_1" type="Add" version="opset1">
			<data auto_broadcast="numpy" />
			<input>
				<port id="0" precision="FP32">
					<dim>-1</dim>
					<dim>-1</dim>
					<dim>768</dim>
				</port>
				<port id="1" precision="FP32">
					<dim>1</dim>
					<dim>1</dim>
					<dim>768</dim>
				</port>
			</input>
			<output>
				<port id="2" precision="FP32" names="/decoders.0/norm1/Add_1_output_0">
					<dim>-1</dim>
					<dim>-1</dim>
					<dim>768</dim>
				</port>
			</output>
		</layer>
		<layer id="60" name="Constant_44311" type="Const" version="opset1">
			<data element_type="i64" shape="2" offset="11577882" size="16" />
			<rt_info>
				<attribute name="precise" version="0" />
			</rt_info>
			<output>
				<port id="0" precision="I64">
					<dim>2</dim>
				</port>
			</output>
		</layer>
		<layer id="61" name="Constant_44314" type="Const" version="opset1">
			<data element_type="i64" shape="2" offset="11577898" size="16" />
			<rt_info>
				<attribute name="precise" version="0" />
			</rt_info>
			<output>
				<port id="0" precision="I64">
					<dim>2</dim>
				</port>
			</output>
		</layer>
		<layer id="62" name="Constant_44317" type="Const" version="opset1">
			<data element_type="i64" shape="2" offset="11577866" size="16" />
			<rt_info>
				<attribute name="precise" version="0" />
			</rt_info>
			<output>
				<port id="0" precision="I64">
					<dim>2</dim>
				</port>
			</output>
		</layer>
		<layer id="63" name="/decoders.0/Slice" type="StridedSlice" version="opset1">
			<data begin_mask="1, 0" end_mask="1, 0" new_axis_mask="" shrink_axis_mask="" ellipsis_mask="" />
			<input>
				<port id="0" precision="FP32">
					<dim>-1</dim>
					<dim>-1</dim>
					<dim>768</dim>
				</port>
				<port id="1" precision="I64">
					<dim>2</dim>
				</port>
				<port id="2" precision="I64">
					<dim>2</dim>
				</port>
				<port id="3" precision="I64">
					<dim>2</dim>
				</port>
			</input>
			<output>
				<port id="4" precision="FP32" names="/decoders.0/Slice_output_0">
					<dim>-1</dim>
					<dim>-1</dim>
					<dim>768</dim>
				</port>
			</output>
		</layer>
		<layer id="64" name="/decoders.0/Slice_0_0/nncf_smooth_quant/scale" type="Const" version="opset1">
			<data element_type="f32" shape="1, 1, 768" offset="11584072" size="3072" />
			<output>
				<port id="0" precision="FP32">
					<dim>1</dim>
					<dim>1</dim>
					<dim>768</dim>
				</port>
			</output>
		</layer>
		<layer id="65" name="/decoders.0/Slice_0_0/nncf_smooth_quant" type="Multiply" version="opset1">
			<data auto_broadcast="numpy" />
			<input>
				<port id="0" precision="FP32">
					<dim>-1</dim>
					<dim>-1</dim>
					<dim>768</dim>
				</port>
				<port id="1" precision="FP32">
					<dim>1</dim>
					<dim>1</dim>
					<dim>768</dim>
				</port>
			</input>
			<output>
				<port id="2" precision="FP32">
					<dim>-1</dim>
					<dim>-1</dim>
					<dim>768</dim>
				</port>
			</output>
		</layer>
		<layer id="66" name="/decoders.0/Slice_0_0/nncf_smooth_quant/fq_output_0/input_low" type="Const" version="opset1">
			<data element_type="f32" shape="" offset="11587144" size="4" />
			<output>
				<port id="0" precision="FP32" />
			</output>
		</layer>
		<layer id="67" name="/decoders.0/Slice_0_0/nncf_smooth_quant/fq_output_0/input_high" type="Const" version="opset1">
			<data element_type="f32" shape="" offset="11587148" size="4" />
			<output>
				<port id="0" precision="FP32" />
			</output>
		</layer>
		<layer id="68" name="/decoders.0/Slice_0_0/nncf_smooth_quant/fq_output_0/output_low" type="Const" version="opset1">
			<data element_type="f32" shape="" offset="11587144" size="4" />
			<output>
				<port id="0" precision="FP32" />
			</output>
		</layer>
		<layer id="69" name="/decoders.0/Slice_0_0/nncf_smooth_quant/fq_output_0/output_high" type="Const" version="opset1">
			<data element_type="f32" shape="" offset="11587148" size="4" />
			<output>
				<port id="0" precision="FP32" />
			</output>
		</layer>
		<layer id="70" name="/decoders.0/Slice_0_0/nncf_smooth_quant/fq_output_0" type="FakeQuantize" version="opset1">
			<data levels="256" auto_broadcast="numpy" />
			<input>
				<port id="0" precision="FP32">
					<dim>-1</dim>
					<dim>-1</dim>
					<dim>768</dim>
				</port>
				<port id="1" precision="FP32" />
				<port id="2" precision="FP32" />
				<port id="3" precision="FP32" />
				<port id="4" precision="FP32" />
			</input>
			<output>
				<port id="5" precision="FP32">
					<dim>-1</dim>
					<dim>-1</dim>
					<dim>768</dim>
				</port>
			</output>
		</layer>
		<layer id="71" name="Constant_1468732" type="Const" version="opset1">
			<data element_type="i8" shape="768, 768" offset="11587152" size="589824" />
			<output>
				<port id="0" precision="I8">
					<dim>768</dim>
					<dim>768</dim>
				</port>
			</output>
		</layer>
		<layer id="72" name="Convert_1468733" type="Convert" version="opset1">
			<data destination_type="f32" />
			<input>
				<port id="0" precision="I8">
					<dim>768</dim>
					<dim>768</dim>
				</port>
			</input>
			<output>
				<port id="1" precision="FP32">
					<dim>768</dim>
					<dim>768</dim>
				</port>
			</output>
		</layer>
		<layer id="73" name="Constant_1468734" type="Const" version="opset1">
			<data element_type="f32" shape="768, 1" offset="12176976" size="3072" />
			<output>
				<port id="0" precision="FP32">
					<dim>768</dim>
					<dim>1</dim>
				</port>
			</output>
		</layer>
		<layer id="74" name="/decoders.0/self_attn/linear_q/MatMul/fq_weights_1" type="Multiply" version="opset1">
			<data auto_broadcast="numpy" />
			<input>
				<port id="0" precision="FP32">
					<dim>768</dim>
					<dim>768</dim>
				</port>
				<port id="1" precision="FP32">
					<dim>768</dim>
					<dim>1</dim>
				</port>
			</input>
			<output>
				<port id="2" precision="FP32">
					<dim>768</dim>
					<dim>768</dim>
				</port>
			</output>
		</layer>
		<layer id="75" name="/decoders.0/self_attn/linear_q/MatMul" type="MatMul" version="opset1">
			<data transpose_a="false" transpose_b="true" />
			<input>
				<port id="0" precision="FP32">
					<dim>-1</dim>
					<dim>-1</dim>
					<dim>768</dim>
				</port>
				<port id="1" precision="FP32">
					<dim>768</dim>
					<dim>768</dim>
				</port>
			</input>
			<output>
				<port id="2" precision="FP32" names="/decoders.0/self_attn/linear_q/MatMul_output_0">
					<dim>-1</dim>
					<dim>-1</dim>
					<dim>768</dim>
				</port>
			</output>
		</layer>
		<layer id="76" name="/decoders.0/self_attn/linear_q/Add" type="Add" version="opset1">
			<data auto_broadcast="numpy" />
			<input>
				<port id="0" precision="FP32">
					<dim>1</dim>
					<dim>1</dim>
					<dim>768</dim>
				</port>
				<port id="1" precision="FP32">
					<dim>-1</dim>
					<dim>-1</dim>
					<dim>768</dim>
				</port>
			</input>
			<output>
				<port id="2" precision="FP32" names="/decoders.0/self_attn/linear_q/Add_output_0">
					<dim>-1</dim>
					<dim>-1</dim>
					<dim>768</dim>
				</port>
			</output>
		</layer>
		<layer id="77" name="/decoders.0/self_attn/linear_q/Add/fq_output_0/input_low" type="Const" version="opset1">
			<data element_type="f32" shape="" offset="12180048" size="4" />
			<output>
				<port id="0" precision="FP32" />
			</output>
		</layer>
		<layer id="78" name="/decoders.0/self_attn/linear_q/Add/fq_output_0/input_high" type="Const" version="opset1">
			<data element_type="f32" shape="" offset="12180052" size="4" />
			<output>
				<port id="0" precision="FP32" />
			</output>
		</layer>
		<layer id="79" name="/decoders.0/self_attn/linear_q/Add/fq_output_0/output_low" type="Const" version="opset1">
			<data element_type="f32" shape="" offset="12180048" size="4" />
			<output>
				<port id="0" precision="FP32" />
			</output>
		</layer>
		<layer id="80" name="/decoders.0/self_attn/linear_q/Add/fq_output_0/output_high" type="Const" version="opset1">
			<data element_type="f32" shape="" offset="12180052" size="4" />
			<output>
				<port id="0" precision="FP32" />
			</output>
		</layer>
		<layer id="81" name="/decoders.0/self_attn/linear_q/Add/fq_output_0" type="FakeQuantize" version="opset1">
			<data levels="256" auto_broadcast="numpy" />
			<input>
				<port id="0" precision="FP32">
					<dim>-1</dim>
					<dim>-1</dim>
					<dim>768</dim>
				</port>
				<port id="1" precision="FP32" />
				<port id="2" precision="FP32" />
				<port id="3" precision="FP32" />
				<port id="4" precision="FP32" />
			</input>
			<output>
				<port id="5" precision="FP32">
					<dim>-1</dim>
					<dim>-1</dim>
					<dim>768</dim>
				</port>
			</output>
		</layer>
		<layer id="82" name="/decoders.0/self_attn/Shape" type="ShapeOf" version="opset3">
			<data output_type="i64" />
			<input>
				<port id="0" precision="FP32">
					<dim>-1</dim>
					<dim>-1</dim>
					<dim>768</dim>
				</port>
			</input>
			<output>
				<port id="1" precision="I64" names="/decoders.0/self_attn/Shape_output_0">
					<dim>3</dim>
				</port>
			</output>
		</layer>
		<layer id="83" name="Constant_44200" type="Const" version="opset1">
			<data element_type="i64" shape="1" offset="3897828" size="8" />
			<rt_info>
				<attribute name="precise" version="0" />
			</rt_info>
			<output>
				<port id="0" precision="I64">
					<dim>1</dim>
				</port>
			</output>
		</layer>
		<layer id="84" name="Constant_41528" type="Const" version="opset1">
			<data element_type="i64" shape="" offset="3897828" size="8" />
			<rt_info>
				<attribute name="precise" version="0" />
			</rt_info>
			<output>
				<port id="0" precision="I64" />
			</output>
		</layer>
		<layer id="85" name="/decoders.0/self_attn/Gather" type="Gather" version="opset8">
			<data batch_dims="0" />
			<input>
				<port id="0" precision="I64">
					<dim>3</dim>
				</port>
				<port id="1" precision="I64">
					<dim>1</dim>
				</port>
				<port id="2" precision="I64" />
			</input>
			<output>
				<port id="3" precision="I64" names="/decoders.0/self_attn/Gather_output_0,/decoders.0/self_attn/Unsqueeze_1_output_0,/decoders.0/self_attn/Unsqueeze_2_output_0,/decoders.0/self_attn/Unsqueeze_output_0">
					<dim>1</dim>
				</port>
			</output>
		</layer>
		<layer id="86" name="/decoders.0/self_attn/Constant_1" type="Const" version="opset1">
			<data element_type="i64" shape="1" offset="11580992" size="8" />
			<rt_info>
				<attribute name="precise" version="0" />
			</rt_info>
			<output>
				<port id="0" precision="I64" names="/decoders.0/self_attn/Constant_1_output_0">
					<dim>1</dim>
				</port>
			</output>
		</layer>
		<layer id="87" name="/decoders.0/self_attn/Constant_2" type="Const" version="opset1">
			<data element_type="i64" shape="1" offset="12180056" size="8" />
			<rt_info>
				<attribute name="precise" version="0" />
			</rt_info>
			<output>
				<port id="0" precision="I64" names="/decoders.0/self_attn/Constant_2_output_0">
					<dim>1</dim>
				</port>
			</output>
		</layer>
		<layer id="88" name="/decoders.0/self_attn/Constant_3" type="Const" version="opset1">
			<data element_type="i64" shape="1" offset="12180064" size="8" />
			<rt_info>
				<attribute name="precise" version="0" />
			</rt_info>
			<output>
				<port id="0" precision="I64" names="/decoders.0/self_attn/Constant_3_output_0">
					<dim>1</dim>
				</port>
			</output>
		</layer>
		<layer id="89" name="/decoders.0/self_attn/Concat" type="Concat" version="opset1">
			<data axis="0" />
			<input>
				<port id="0" precision="I64">
					<dim>1</dim>
				</port>
				<port id="1" precision="I64">
					<dim>1</dim>
				</port>
				<port id="2" precision="I64">
					<dim>1</dim>
				</port>
				<port id="3" precision="I64">
					<dim>1</dim>
				</port>
			</input>
			<output>
				<port id="4" precision="I64" names="/decoders.0/self_attn/Concat_1_output_0,/decoders.0/self_attn/Concat_2_output_0,/decoders.0/self_attn/Concat_output_0">
					<dim>4</dim>
				</port>
			</output>
		</layer>
		<layer id="90" name="/decoders.0/self_attn/Reshape" type="Reshape" version="opset1">
			<data special_zero="true" />
			<input>
				<port id="0" precision="FP32">
					<dim>-1</dim>
					<dim>-1</dim>
					<dim>768</dim>
				</port>
				<port id="1" precision="I64">
					<dim>4</dim>
				</port>
			</input>
			<output>
				<port id="2" precision="FP32" names="/decoders.0/self_attn/Reshape_output_0">
					<dim>-1</dim>
					<dim>-1</dim>
					<dim>12</dim>
					<dim>64</dim>
				</port>
			</output>
		</layer>
		<layer id="91" name="Constant_41560" type="Const" version="opset1">
			<data element_type="i64" shape="4" offset="12180072" size="32" />
			<output>
				<port id="0" precision="I64">
					<dim>4</dim>
				</port>
			</output>
		</layer>
		<layer id="92" name="/decoders.0/self_attn/Transpose" type="Transpose" version="opset1">
			<input>
				<port id="0" precision="FP32">
					<dim>-1</dim>
					<dim>-1</dim>
					<dim>12</dim>
					<dim>64</dim>
				</port>
				<port id="1" precision="I64">
					<dim>4</dim>
				</port>
			</input>
			<output>
				<port id="2" precision="FP32" names="/decoders.0/self_attn/Transpose_output_0">
					<dim>-1</dim>
					<dim>12</dim>
					<dim>-1</dim>
					<dim>64</dim>
				</port>
			</output>
		</layer>
		<layer id="93" name="Constant_45622_compressed" type="Const" version="opset1">
			<data element_type="f16" shape="1, 1, 768" offset="12180104" size="1536" />
			<output>
				<port id="0" precision="FP16">
					<dim>1</dim>
					<dim>1</dim>
					<dim>768</dim>
				</port>
			</output>
		</layer>
		<layer id="94" name="Constant_45622" type="Convert" version="opset1">
			<data destination_type="f32" />
			<rt_info>
				<attribute name="decompression" version="0" />
			</rt_info>
			<input>
				<port id="0" precision="FP16">
					<dim>1</dim>
					<dim>1</dim>
					<dim>768</dim>
				</port>
			</input>
			<output>
				<port id="1" precision="FP32">
					<dim>1</dim>
					<dim>1</dim>
					<dim>768</dim>
				</port>
			</output>
		</layer>
		<layer id="95" name="/decoders.0/norm1/Add_1_0_0/nncf_smooth_quant/scale" type="Const" version="opset1">
			<data element_type="f32" shape="1, 1, 768" offset="12181640" size="3072" />
			<output>
				<port id="0" precision="FP32">
					<dim>1</dim>
					<dim>1</dim>
					<dim>768</dim>
				</port>
			</output>
		</layer>
		<layer id="96" name="/decoders.0/norm1/Add_1_0_0/nncf_smooth_quant" type="Multiply" version="opset1">
			<data auto_broadcast="numpy" />
			<input>
				<port id="0" precision="FP32">
					<dim>-1</dim>
					<dim>-1</dim>
					<dim>768</dim>
				</port>
				<port id="1" precision="FP32">
					<dim>1</dim>
					<dim>1</dim>
					<dim>768</dim>
				</port>
			</input>
			<output>
				<port id="2" precision="FP32">
					<dim>-1</dim>
					<dim>-1</dim>
					<dim>768</dim>
				</port>
			</output>
		</layer>
		<layer id="97" name="/decoders.0/norm1/Add_1_0_0/nncf_smooth_quant/fq_output_0/input_low" type="Const" version="opset1">
			<data element_type="f32" shape="" offset="12184712" size="4" />
			<output>
				<port id="0" precision="FP32" />
			</output>
		</layer>
		<layer id="98" name="/decoders.0/norm1/Add_1_0_0/nncf_smooth_quant/fq_output_0/input_high" type="Const" version="opset1">
			<data element_type="f32" shape="" offset="12184716" size="4" />
			<output>
				<port id="0" precision="FP32" />
			</output>
		</layer>
		<layer id="99" name="/decoders.0/norm1/Add_1_0_0/nncf_smooth_quant/fq_output_0/output_low" type="Const" version="opset1">
			<data element_type="f32" shape="" offset="12184712" size="4" />
			<output>
				<port id="0" precision="FP32" />
			</output>
		</layer>
		<layer id="100" name="/decoders.0/norm1/Add_1_0_0/nncf_smooth_quant/fq_output_0/output_high" type="Const" version="opset1">
			<data element_type="f32" shape="" offset="12184716" size="4" />
			<output>
				<port id="0" precision="FP32" />
			</output>
		</layer>
		<layer id="101" name="/decoders.0/norm1/Add_1_0_0/nncf_smooth_quant/fq_output_0" type="FakeQuantize" version="opset1">
			<data levels="256" auto_broadcast="numpy" />
			<input>
				<port id="0" precision="FP32">
					<dim>-1</dim>
					<dim>-1</dim>
					<dim>768</dim>
				</port>
				<port id="1" precision="FP32" />
				<port id="2" precision="FP32" />
				<port id="3" precision="FP32" />
				<port id="4" precision="FP32" />
			</input>
			<output>
				<port id="5" precision="FP32">
					<dim>-1</dim>
					<dim>-1</dim>
					<dim>768</dim>
				</port>
			</output>
		</layer>
		<layer id="102" name="Constant_1468737" type="Const" version="opset1">
			<data element_type="i8" shape="768, 768" offset="12184720" size="589824" />
			<output>
				<port id="0" precision="I8">
					<dim>768</dim>
					<dim>768</dim>
				</port>
			</output>
		</layer>
		<layer id="103" name="Convert_1468738" type="Convert" version="opset1">
			<data destination_type="f32" />
			<input>
				<port id="0" precision="I8">
					<dim>768</dim>
					<dim>768</dim>
				</port>
			</input>
			<output>
				<port id="1" precision="FP32">
					<dim>768</dim>
					<dim>768</dim>
				</port>
			</output>
		</layer>
		<layer id="104" name="Constant_1468739" type="Const" version="opset1">
			<data element_type="f32" shape="768, 1" offset="12774544" size="3072" />
			<output>
				<port id="0" precision="FP32">
					<dim>768</dim>
					<dim>1</dim>
				</port>
			</output>
		</layer>
		<layer id="105" name="/decoders.0/self_attn/linear_k/MatMul/fq_weights_1" type="Multiply" version="opset1">
			<data auto_broadcast="numpy" />
			<input>
				<port id="0" precision="FP32">
					<dim>768</dim>
					<dim>768</dim>
				</port>
				<port id="1" precision="FP32">
					<dim>768</dim>
					<dim>1</dim>
				</port>
			</input>
			<output>
				<port id="2" precision="FP32">
					<dim>768</dim>
					<dim>768</dim>
				</port>
			</output>
		</layer>
		<layer id="106" name="/decoders.0/self_attn/linear_k/MatMul" type="MatMul" version="opset1">
			<data transpose_a="false" transpose_b="true" />
			<input>
				<port id="0" precision="FP32">
					<dim>-1</dim>
					<dim>-1</dim>
					<dim>768</dim>
				</port>
				<port id="1" precision="FP32">
					<dim>768</dim>
					<dim>768</dim>
				</port>
			</input>
			<output>
				<port id="2" precision="FP32" names="/decoders.0/self_attn/linear_k/MatMul_output_0">
					<dim>-1</dim>
					<dim>-1</dim>
					<dim>768</dim>
				</port>
			</output>
		</layer>
		<layer id="107" name="/decoders.0/self_attn/linear_k/Add" type="Add" version="opset1">
			<data auto_broadcast="numpy" />
			<input>
				<port id="0" precision="FP32">
					<dim>1</dim>
					<dim>1</dim>
					<dim>768</dim>
				</port>
				<port id="1" precision="FP32">
					<dim>-1</dim>
					<dim>-1</dim>
					<dim>768</dim>
				</port>
			</input>
			<output>
				<port id="2" precision="FP32" names="/decoders.0/self_attn/linear_k/Add_output_0">
					<dim>-1</dim>
					<dim>-1</dim>
					<dim>768</dim>
				</port>
			</output>
		</layer>
		<layer id="108" name="/decoders.0/self_attn/Reshape_1" type="Reshape" version="opset1">
			<data special_zero="true" />
			<input>
				<port id="0" precision="FP32">
					<dim>-1</dim>
					<dim>-1</dim>
					<dim>768</dim>
				</port>
				<port id="1" precision="I64">
					<dim>4</dim>
				</port>
			</input>
			<output>
				<port id="2" precision="FP32" names="/decoders.0/self_attn/Reshape_1_output_0">
					<dim>-1</dim>
					<dim>-1</dim>
					<dim>12</dim>
					<dim>64</dim>
				</port>
			</output>
		</layer>
		<layer id="109" name="Constant_41564" type="Const" version="opset1">
			<data element_type="i64" shape="4" offset="12777616" size="32" />
			<output>
				<port id="0" precision="I64">
					<dim>4</dim>
				</port>
			</output>
		</layer>
		<layer id="110" name="/decoders.0/self_attn/Transpose_2" type="Transpose" version="opset1">
			<input>
				<port id="0" precision="FP32">
					<dim>-1</dim>
					<dim>-1</dim>
					<dim>12</dim>
					<dim>64</dim>
				</port>
				<port id="1" precision="I64">
					<dim>4</dim>
				</port>
			</input>
			<output>
				<port id="2" precision="FP32" names="/decoders.0/self_attn/Transpose_2_output_0">
					<dim>-1</dim>
					<dim>12</dim>
					<dim>64</dim>
					<dim>-1</dim>
				</port>
			</output>
		</layer>
		<layer id="111" name="Constant_45623_compressed" type="Const" version="opset1">
			<data element_type="f16" shape="1, 1, 1, 1" offset="12777648" size="2" />
			<output>
				<port id="0" precision="FP16">
					<dim>1</dim>
					<dim>1</dim>
					<dim>1</dim>
					<dim>1</dim>
				</port>
			</output>
		</layer>
		<layer id="112" name="Constant_45623" type="Convert" version="opset1">
			<data destination_type="f32" />
			<rt_info>
				<attribute name="decompression" version="0" />
			</rt_info>
			<input>
				<port id="0" precision="FP16">
					<dim>1</dim>
					<dim>1</dim>
					<dim>1</dim>
					<dim>1</dim>
				</port>
			</input>
			<output>
				<port id="1" precision="FP32">
					<dim>1</dim>
					<dim>1</dim>
					<dim>1</dim>
					<dim>1</dim>
				</port>
			</output>
		</layer>
		<layer id="113" name="Multiply_45342" type="Multiply" version="opset1">
			<data auto_broadcast="numpy" />
			<input>
				<port id="0" precision="FP32">
					<dim>-1</dim>
					<dim>12</dim>
					<dim>64</dim>
					<dim>-1</dim>
				</port>
				<port id="1" precision="FP32">
					<dim>1</dim>
					<dim>1</dim>
					<dim>1</dim>
					<dim>1</dim>
				</port>
			</input>
			<output>
				<port id="2" precision="FP32">
					<dim>-1</dim>
					<dim>12</dim>
					<dim>64</dim>
					<dim>-1</dim>
				</port>
			</output>
		</layer>
		<layer id="114" name="Multiply_45342/fq_output_0/input_low" type="Const" version="opset1">
			<data element_type="f32" shape="" offset="12777650" size="4" />
			<output>
				<port id="0" precision="FP32" />
			</output>
		</layer>
		<layer id="115" name="Multiply_45342/fq_output_0/input_high" type="Const" version="opset1">
			<data element_type="f32" shape="" offset="12777654" size="4" />
			<output>
				<port id="0" precision="FP32" />
			</output>
		</layer>
		<layer id="116" name="Multiply_45342/fq_output_0/output_low" type="Const" version="opset1">
			<data element_type="f32" shape="" offset="12777650" size="4" />
			<output>
				<port id="0" precision="FP32" />
			</output>
		</layer>
		<layer id="117" name="Multiply_45342/fq_output_0/output_high" type="Const" version="opset1">
			<data element_type="f32" shape="" offset="12777654" size="4" />
			<output>
				<port id="0" precision="FP32" />
			</output>
		</layer>
		<layer id="118" name="Multiply_45342/fq_output_0" type="FakeQuantize" version="opset1">
			<data levels="256" auto_broadcast="numpy" />
			<input>
				<port id="0" precision="FP32">
					<dim>-1</dim>
					<dim>12</dim>
					<dim>64</dim>
					<dim>-1</dim>
				</port>
				<port id="1" precision="FP32" />
				<port id="2" precision="FP32" />
				<port id="3" precision="FP32" />
				<port id="4" precision="FP32" />
			</input>
			<output>
				<port id="5" precision="FP32">
					<dim>-1</dim>
					<dim>12</dim>
					<dim>64</dim>
					<dim>-1</dim>
				</port>
			</output>
		</layer>
		<layer id="119" name="/decoders.0/self_attn/Div" type="MatMul" version="opset1">
			<data transpose_a="false" transpose_b="false" />
			<input>
				<port id="0" precision="FP32">
					<dim>-1</dim>
					<dim>12</dim>
					<dim>-1</dim>
					<dim>64</dim>
				</port>
				<port id="1" precision="FP32">
					<dim>-1</dim>
					<dim>12</dim>
					<dim>64</dim>
					<dim>-1</dim>
				</port>
			</input>
			<output>
				<port id="2" precision="FP32" names="/decoders.0/self_attn/Div_output_0">
					<dim>-1</dim>
					<dim>12</dim>
					<dim>-1</dim>
					<dim>-1</dim>
				</port>
			</output>
		</layer>
		<layer id="120" name="/decoders.0/self_attn/Where" type="Select" version="opset1">
			<data auto_broadcast="numpy" />
			<input>
				<port id="0" precision="BOOL">
					<dim>-1</dim>
					<dim>1</dim>
					<dim>-1</dim>
					<dim>-1</dim>
				</port>
				<port id="1" precision="FP32" />
				<port id="2" precision="FP32">
					<dim>-1</dim>
					<dim>12</dim>
					<dim>-1</dim>
					<dim>-1</dim>
				</port>
			</input>
			<output>
				<port id="3" precision="FP32" names="/decoders.0/self_attn/Where_output_0">
					<dim>-1</dim>
					<dim>12</dim>
					<dim>-1</dim>
					<dim>-1</dim>
				</port>
			</output>
		</layer>
		<layer id="121" name="/decoders.0/self_attn/Softmax" type="SoftMax" version="opset8">
			<data axis="3" />
			<input>
				<port id="0" precision="FP32">
					<dim>-1</dim>
					<dim>12</dim>
					<dim>-1</dim>
					<dim>-1</dim>
				</port>
			</input>
			<output>
				<port id="1" precision="FP32" names="/decoders.0/self_attn/Softmax_output_0">
					<dim>-1</dim>
					<dim>12</dim>
					<dim>-1</dim>
					<dim>-1</dim>
				</port>
			</output>
		</layer>
		<layer id="122" name="/decoders.0/self_attn/Where_1" type="Select" version="opset1">
			<data auto_broadcast="numpy" />
			<input>
				<port id="0" precision="BOOL">
					<dim>-1</dim>
					<dim>1</dim>
					<dim>-1</dim>
					<dim>-1</dim>
				</port>
				<port id="1" precision="FP32" />
				<port id="2" precision="FP32">
					<dim>-1</dim>
					<dim>12</dim>
					<dim>-1</dim>
					<dim>-1</dim>
				</port>
			</input>
			<output>
				<port id="3" precision="FP32" names="/decoders.0/self_attn/Where_1_output_0">
					<dim>-1</dim>
					<dim>12</dim>
					<dim>-1</dim>
					<dim>-1</dim>
				</port>
			</output>
		</layer>
		<layer id="123" name="/decoders.0/self_attn/Where_1/fq_output_0/input_low" type="Const" version="opset1">
			<data element_type="f32" shape="" offset="11577862" size="4" />
			<output>
				<port id="0" precision="FP32" />
			</output>
		</layer>
		<layer id="124" name="/decoders.0/self_attn/Where_1/fq_output_0/input_high" type="Const" version="opset1">
			<data element_type="f32" shape="" offset="12777658" size="4" />
			<output>
				<port id="0" precision="FP32" />
			</output>
		</layer>
		<layer id="125" name="/decoders.0/self_attn/Where_1/fq_output_0/output_low" type="Const" version="opset1">
			<data element_type="f32" shape="" offset="11577862" size="4" />
			<output>
				<port id="0" precision="FP32" />
			</output>
		</layer>
		<layer id="126" name="/decoders.0/self_attn/Where_1/fq_output_0/output_high" type="Const" version="opset1">
			<data element_type="f32" shape="" offset="12777658" size="4" />
			<output>
				<port id="0" precision="FP32" />
			</output>
		</layer>
		<layer id="127" name="/decoders.0/self_attn/Where_1/fq_output_0" type="FakeQuantize" version="opset1">
			<data levels="256" auto_broadcast="numpy" />
			<input>
				<port id="0" precision="FP32">
					<dim>-1</dim>
					<dim>12</dim>
					<dim>-1</dim>
					<dim>-1</dim>
				</port>
				<port id="1" precision="FP32" />
				<port id="2" precision="FP32" />
				<port id="3" precision="FP32" />
				<port id="4" precision="FP32" />
			</input>
			<output>
				<port id="5" precision="FP32">
					<dim>-1</dim>
					<dim>12</dim>
					<dim>-1</dim>
					<dim>-1</dim>
				</port>
			</output>
		</layer>
		<layer id="128" name="Constant_45624_compressed" type="Const" version="opset1">
			<data element_type="f16" shape="1, 1, 768" offset="12777662" size="1536" />
			<output>
				<port id="0" precision="FP16">
					<dim>1</dim>
					<dim>1</dim>
					<dim>768</dim>
				</port>
			</output>
		</layer>
		<layer id="129" name="Constant_45624" type="Convert" version="opset1">
			<data destination_type="f32" />
			<rt_info>
				<attribute name="decompression" version="0" />
			</rt_info>
			<input>
				<port id="0" precision="FP16">
					<dim>1</dim>
					<dim>1</dim>
					<dim>768</dim>
				</port>
			</input>
			<output>
				<port id="1" precision="FP32">
					<dim>1</dim>
					<dim>1</dim>
					<dim>768</dim>
				</port>
			</output>
		</layer>
		<layer id="130" name="Constant_1468742" type="Const" version="opset1">
			<data element_type="i8" shape="768, 768" offset="12779198" size="589824" />
			<output>
				<port id="0" precision="I8">
					<dim>768</dim>
					<dim>768</dim>
				</port>
			</output>
		</layer>
		<layer id="131" name="Convert_1468743" type="Convert" version="opset1">
			<data destination_type="f32" />
			<input>
				<port id="0" precision="I8">
					<dim>768</dim>
					<dim>768</dim>
				</port>
			</input>
			<output>
				<port id="1" precision="FP32">
					<dim>768</dim>
					<dim>768</dim>
				</port>
			</output>
		</layer>
		<layer id="132" name="Constant_1468744" type="Const" version="opset1">
			<data element_type="f32" shape="768, 1" offset="13369022" size="3072" />
			<output>
				<port id="0" precision="FP32">
					<dim>768</dim>
					<dim>1</dim>
				</port>
			</output>
		</layer>
		<layer id="133" name="/decoders.0/self_attn/linear_v/MatMul/fq_weights_1" type="Multiply" version="opset1">
			<data auto_broadcast="numpy" />
			<input>
				<port id="0" precision="FP32">
					<dim>768</dim>
					<dim>768</dim>
				</port>
				<port id="1" precision="FP32">
					<dim>768</dim>
					<dim>1</dim>
				</port>
			</input>
			<output>
				<port id="2" precision="FP32">
					<dim>768</dim>
					<dim>768</dim>
				</port>
			</output>
		</layer>
		<layer id="134" name="/decoders.0/self_attn/linear_v/MatMul" type="MatMul" version="opset1">
			<data transpose_a="false" transpose_b="true" />
			<input>
				<port id="0" precision="FP32">
					<dim>-1</dim>
					<dim>-1</dim>
					<dim>768</dim>
				</port>
				<port id="1" precision="FP32">
					<dim>768</dim>
					<dim>768</dim>
				</port>
			</input>
			<output>
				<port id="2" precision="FP32" names="/decoders.0/self_attn/linear_v/MatMul_output_0">
					<dim>-1</dim>
					<dim>-1</dim>
					<dim>768</dim>
				</port>
			</output>
		</layer>
		<layer id="135" name="/decoders.0/self_attn/linear_v/Add" type="Add" version="opset1">
			<data auto_broadcast="numpy" />
			<input>
				<port id="0" precision="FP32">
					<dim>1</dim>
					<dim>1</dim>
					<dim>768</dim>
				</port>
				<port id="1" precision="FP32">
					<dim>-1</dim>
					<dim>-1</dim>
					<dim>768</dim>
				</port>
			</input>
			<output>
				<port id="2" precision="FP32" names="/decoders.0/self_attn/linear_v/Add_output_0">
					<dim>-1</dim>
					<dim>-1</dim>
					<dim>768</dim>
				</port>
			</output>
		</layer>
		<layer id="136" name="/decoders.0/self_attn/linear_v/Add/fq_output_0/input_low" type="Const" version="opset1">
			<data element_type="f32" shape="" offset="13372094" size="4" />
			<output>
				<port id="0" precision="FP32" />
			</output>
		</layer>
		<layer id="137" name="/decoders.0/self_attn/linear_v/Add/fq_output_0/input_high" type="Const" version="opset1">
			<data element_type="f32" shape="" offset="13372098" size="4" />
			<output>
				<port id="0" precision="FP32" />
			</output>
		</layer>
		<layer id="138" name="/decoders.0/self_attn/linear_v/Add/fq_output_0/output_low" type="Const" version="opset1">
			<data element_type="f32" shape="" offset="13372094" size="4" />
			<output>
				<port id="0" precision="FP32" />
			</output>
		</layer>
		<layer id="139" name="/decoders.0/self_attn/linear_v/Add/fq_output_0/output_high" type="Const" version="opset1">
			<data element_type="f32" shape="" offset="13372098" size="4" />
			<output>
				<port id="0" precision="FP32" />
			</output>
		</layer>
		<layer id="140" name="/decoders.0/self_attn/linear_v/Add/fq_output_0" type="FakeQuantize" version="opset1">
			<data levels="256" auto_broadcast="numpy" />
			<input>
				<port id="0" precision="FP32">
					<dim>-1</dim>
					<dim>-1</dim>
					<dim>768</dim>
				</port>
				<port id="1" precision="FP32" />
				<port id="2" precision="FP32" />
				<port id="3" precision="FP32" />
				<port id="4" precision="FP32" />
			</input>
			<output>
				<port id="5" precision="FP32">
					<dim>-1</dim>
					<dim>-1</dim>
					<dim>768</dim>
				</port>
			</output>
		</layer>
		<layer id="141" name="/decoders.0/self_attn/Reshape_2" type="Reshape" version="opset1">
			<data special_zero="true" />
			<input>
				<port id="0" precision="FP32">
					<dim>-1</dim>
					<dim>-1</dim>
					<dim>768</dim>
				</port>
				<port id="1" precision="I64">
					<dim>4</dim>
				</port>
			</input>
			<output>
				<port id="2" precision="FP32" names="/decoders.0/self_attn/Reshape_2_output_0">
					<dim>-1</dim>
					<dim>-1</dim>
					<dim>12</dim>
					<dim>64</dim>
				</port>
			</output>
		</layer>
		<layer id="142" name="Constant_41562" type="Const" version="opset1">
			<data element_type="i64" shape="4" offset="12180072" size="32" />
			<output>
				<port id="0" precision="I64">
					<dim>4</dim>
				</port>
			</output>
		</layer>
		<layer id="143" name="/decoders.0/self_attn/Transpose_1" type="Transpose" version="opset1">
			<input>
				<port id="0" precision="FP32">
					<dim>-1</dim>
					<dim>-1</dim>
					<dim>12</dim>
					<dim>64</dim>
				</port>
				<port id="1" precision="I64">
					<dim>4</dim>
				</port>
			</input>
			<output>
				<port id="2" precision="FP32" names="/decoders.0/self_attn/Transpose_1_output_0">
					<dim>-1</dim>
					<dim>12</dim>
					<dim>-1</dim>
					<dim>64</dim>
				</port>
			</output>
		</layer>
		<layer id="144" name="/decoders.0/self_attn/MatMul_1" type="MatMul" version="opset1">
			<data transpose_a="false" transpose_b="false" />
			<input>
				<port id="0" precision="FP32">
					<dim>-1</dim>
					<dim>12</dim>
					<dim>-1</dim>
					<dim>-1</dim>
				</port>
				<port id="1" precision="FP32">
					<dim>-1</dim>
					<dim>12</dim>
					<dim>-1</dim>
					<dim>64</dim>
				</port>
			</input>
			<output>
				<port id="2" precision="FP32" names="/decoders.0/self_attn/MatMul_1_output_0">
					<dim>-1</dim>
					<dim>12</dim>
					<dim>-1</dim>
					<dim>64</dim>
				</port>
			</output>
		</layer>
		<layer id="145" name="Constant_41586" type="Const" version="opset1">
			<data element_type="i64" shape="4" offset="12180072" size="32" />
			<output>
				<port id="0" precision="I64">
					<dim>4</dim>
				</port>
			</output>
		</layer>
		<layer id="146" name="/decoders.0/self_attn/Transpose_3" type="Transpose" version="opset1">
			<input>
				<port id="0" precision="FP32">
					<dim>-1</dim>
					<dim>12</dim>
					<dim>-1</dim>
					<dim>64</dim>
				</port>
				<port id="1" precision="I64">
					<dim>4</dim>
				</port>
			</input>
			<output>
				<port id="2" precision="FP32" names="/decoders.0/self_attn/Transpose_3_output_0">
					<dim>-1</dim>
					<dim>-1</dim>
					<dim>12</dim>
					<dim>64</dim>
				</port>
			</output>
		</layer>
		<layer id="147" name="/decoders.0/self_attn/Shape_1" type="ShapeOf" version="opset3">
			<data output_type="i64" />
			<input>
				<port id="0" precision="FP32">
					<dim>-1</dim>
					<dim>12</dim>
					<dim>-1</dim>
					<dim>64</dim>
				</port>
			</input>
			<output>
				<port id="1" precision="I64" names="/decoders.0/self_attn/Shape_1_output_0">
					<dim>4</dim>
				</port>
			</output>
		</layer>
		<layer id="148" name="Constant_44203" type="Const" version="opset1">
			<data element_type="i64" shape="1" offset="3897828" size="8" />
			<rt_info>
				<attribute name="precise" version="0" />
			</rt_info>
			<output>
				<port id="0" precision="I64">
					<dim>1</dim>
				</port>
			</output>
		</layer>
		<layer id="149" name="Constant_41571" type="Const" version="opset1">
			<data element_type="i64" shape="" offset="3897828" size="8" />
			<rt_info>
				<attribute name="precise" version="0" />
			</rt_info>
			<output>
				<port id="0" precision="I64" />
			</output>
		</layer>
		<layer id="150" name="/decoders.0/self_attn/Gather_1" type="Gather" version="opset8">
			<data batch_dims="0" />
			<input>
				<port id="0" precision="I64">
					<dim>4</dim>
				</port>
				<port id="1" precision="I64">
					<dim>1</dim>
				</port>
				<port id="2" precision="I64" />
			</input>
			<output>
				<port id="3" precision="I64" names="/decoders.0/self_attn/Gather_1_output_0,/decoders.0/self_attn/Unsqueeze_4_output_0">
					<dim>1</dim>
				</port>
			</output>
		</layer>
		<layer id="151" name="/decoders.0/self_attn/Constant_15" type="Const" version="opset1">
			<data element_type="i64" shape="1" offset="11580992" size="8" />
			<rt_info>
				<attribute name="precise" version="0" />
			</rt_info>
			<output>
				<port id="0" precision="I64" names="/decoders.0/self_attn/Constant_15_output_0">
					<dim>1</dim>
				</port>
			</output>
		</layer>
		<layer id="152" name="/decoders.0/self_attn/Constant_16" type="Const" version="opset1">
			<data element_type="i64" shape="1" offset="13372102" size="8" />
			<rt_info>
				<attribute name="precise" version="0" />
			</rt_info>
			<output>
				<port id="0" precision="I64" names="/decoders.0/self_attn/Constant_16_output_0">
					<dim>1</dim>
				</port>
			</output>
		</layer>
		<layer id="153" name="/decoders.0/self_attn/Concat_3" type="Concat" version="opset1">
			<data axis="0" />
			<input>
				<port id="0" precision="I64">
					<dim>1</dim>
				</port>
				<port id="1" precision="I64">
					<dim>1</dim>
				</port>
				<port id="2" precision="I64">
					<dim>1</dim>
				</port>
			</input>
			<output>
				<port id="3" precision="I64" names="/decoders.0/self_attn/Concat_3_output_0">
					<dim>3</dim>
				</port>
			</output>
		</layer>
		<layer id="154" name="/decoders.0/self_attn/Reshape_3" type="Reshape" version="opset1">
			<data special_zero="true" />
			<input>
				<port id="0" precision="FP32">
					<dim>-1</dim>
					<dim>-1</dim>
					<dim>12</dim>
					<dim>64</dim>
				</port>
				<port id="1" precision="I64">
					<dim>3</dim>
				</port>
			</input>
			<output>
				<port id="2" precision="FP32" names="/decoders.0/self_attn/Reshape_3_output_0">
					<dim>-1</dim>
					<dim>-1</dim>
					<dim>768</dim>
				</port>
			</output>
		</layer>
		<layer id="155" name="/decoders.0/self_attn/Reshape_3_0_0/nncf_smooth_quant/scale" type="Const" version="opset1">
			<data element_type="f32" shape="1, 1, 768" offset="13372110" size="3072" />
			<output>
				<port id="0" precision="FP32">
					<dim>1</dim>
					<dim>1</dim>
					<dim>768</dim>
				</port>
			</output>
		</layer>
		<layer id="156" name="/decoders.0/self_attn/Reshape_3_0_0/nncf_smooth_quant" type="Multiply" version="opset1">
			<data auto_broadcast="numpy" />
			<input>
				<port id="0" precision="FP32">
					<dim>-1</dim>
					<dim>-1</dim>
					<dim>768</dim>
				</port>
				<port id="1" precision="FP32">
					<dim>1</dim>
					<dim>1</dim>
					<dim>768</dim>
				</port>
			</input>
			<output>
				<port id="2" precision="FP32">
					<dim>-1</dim>
					<dim>-1</dim>
					<dim>768</dim>
				</port>
			</output>
		</layer>
		<layer id="157" name="/decoders.0/self_attn/Reshape_3_0_0/nncf_smooth_quant/fq_output_0/input_low" type="Const" version="opset1">
			<data element_type="f32" shape="" offset="13375182" size="4" />
			<output>
				<port id="0" precision="FP32" />
			</output>
		</layer>
		<layer id="158" name="/decoders.0/self_attn/Reshape_3_0_0/nncf_smooth_quant/fq_output_0/input_high" type="Const" version="opset1">
			<data element_type="f32" shape="" offset="13375186" size="4" />
			<output>
				<port id="0" precision="FP32" />
			</output>
		</layer>
		<layer id="159" name="/decoders.0/self_attn/Reshape_3_0_0/nncf_smooth_quant/fq_output_0/output_low" type="Const" version="opset1">
			<data element_type="f32" shape="" offset="13375182" size="4" />
			<output>
				<port id="0" precision="FP32" />
			</output>
		</layer>
		<layer id="160" name="/decoders.0/self_attn/Reshape_3_0_0/nncf_smooth_quant/fq_output_0/output_high" type="Const" version="opset1">
			<data element_type="f32" shape="" offset="13375186" size="4" />
			<output>
				<port id="0" precision="FP32" />
			</output>
		</layer>
		<layer id="161" name="/decoders.0/self_attn/Reshape_3_0_0/nncf_smooth_quant/fq_output_0" type="FakeQuantize" version="opset1">
			<data levels="256" auto_broadcast="numpy" />
			<input>
				<port id="0" precision="FP32">
					<dim>-1</dim>
					<dim>-1</dim>
					<dim>768</dim>
				</port>
				<port id="1" precision="FP32" />
				<port id="2" precision="FP32" />
				<port id="3" precision="FP32" />
				<port id="4" precision="FP32" />
			</input>
			<output>
				<port id="5" precision="FP32">
					<dim>-1</dim>
					<dim>-1</dim>
					<dim>768</dim>
				</port>
			</output>
		</layer>
		<layer id="162" name="Constant_1468747" type="Const" version="opset1">
			<data element_type="i8" shape="768, 768" offset="13375190" size="589824" />
			<output>
				<port id="0" precision="I8">
					<dim>768</dim>
					<dim>768</dim>
				</port>
			</output>
		</layer>
		<layer id="163" name="Convert_1468748" type="Convert" version="opset1">
			<data destination_type="f32" />
			<input>
				<port id="0" precision="I8">
					<dim>768</dim>
					<dim>768</dim>
				</port>
			</input>
			<output>
				<port id="1" precision="FP32">
					<dim>768</dim>
					<dim>768</dim>
				</port>
			</output>
		</layer>
		<layer id="164" name="Constant_1468749" type="Const" version="opset1">
			<data element_type="f32" shape="768, 1" offset="13965014" size="3072" />
			<output>
				<port id="0" precision="FP32">
					<dim>768</dim>
					<dim>1</dim>
				</port>
			</output>
		</layer>
		<layer id="165" name="/decoders.0/self_attn/linear_out/MatMul/fq_weights_1" type="Multiply" version="opset1">
			<data auto_broadcast="numpy" />
			<input>
				<port id="0" precision="FP32">
					<dim>768</dim>
					<dim>768</dim>
				</port>
				<port id="1" precision="FP32">
					<dim>768</dim>
					<dim>1</dim>
				</port>
			</input>
			<output>
				<port id="2" precision="FP32">
					<dim>768</dim>
					<dim>768</dim>
				</port>
			</output>
		</layer>
		<layer id="166" name="/decoders.0/self_attn/linear_out/MatMul" type="MatMul" version="opset1">
			<data transpose_a="false" transpose_b="true" />
			<input>
				<port id="0" precision="FP32">
					<dim>-1</dim>
					<dim>-1</dim>
					<dim>768</dim>
				</port>
				<port id="1" precision="FP32">
					<dim>768</dim>
					<dim>768</dim>
				</port>
			</input>
			<output>
				<port id="2" precision="FP32" names="/decoders.0/self_attn/linear_out/MatMul_output_0">
					<dim>-1</dim>
					<dim>-1</dim>
					<dim>768</dim>
				</port>
			</output>
		</layer>
		<layer id="167" name="/decoders.0/self_attn/linear_out/Add" type="Add" version="opset1">
			<data auto_broadcast="numpy" />
			<input>
				<port id="0" precision="FP32">
					<dim>1</dim>
					<dim>1</dim>
					<dim>768</dim>
				</port>
				<port id="1" precision="FP32">
					<dim>-1</dim>
					<dim>-1</dim>
					<dim>768</dim>
				</port>
			</input>
			<output>
				<port id="2" precision="FP32" names="/decoders.0/self_attn/linear_out/Add_output_0">
					<dim>-1</dim>
					<dim>-1</dim>
					<dim>768</dim>
				</port>
			</output>
		</layer>
		<layer id="168" name="/decoders.0/Add" type="Add" version="opset1">
			<data auto_broadcast="numpy" />
			<input>
				<port id="0" precision="FP32">
					<dim>-1</dim>
					<dim>-1</dim>
					<dim>768</dim>
				</port>
				<port id="1" precision="FP32">
					<dim>-1</dim>
					<dim>-1</dim>
					<dim>768</dim>
				</port>
			</input>
			<output>
				<port id="2" precision="FP32" names="/decoders.0/Add_output_0">
					<dim>-1</dim>
					<dim>-1</dim>
					<dim>768</dim>
				</port>
			</output>
		</layer>
		<layer id="169" name="Constant_45632_compressed" type="Const" version="opset1">
			<data element_type="f16" shape="1, 1, 768" offset="13968086" size="1536" />
			<output>
				<port id="0" precision="FP16">
					<dim>1</dim>
					<dim>1</dim>
					<dim>768</dim>
				</port>
			</output>
		</layer>
		<layer id="170" name="Constant_45632" type="Convert" version="opset1">
			<data destination_type="f32" />
			<rt_info>
				<attribute name="decompression" version="0" />
			</rt_info>
			<input>
				<port id="0" precision="FP16">
					<dim>1</dim>
					<dim>1</dim>
					<dim>768</dim>
				</port>
			</input>
			<output>
				<port id="1" precision="FP32">
					<dim>1</dim>
					<dim>1</dim>
					<dim>768</dim>
				</port>
			</output>
		</layer>
		<layer id="171" name="Constant_45628_compressed" type="Const" version="opset1">
			<data element_type="f16" shape="1, 1, 768" offset="13969622" size="1536" />
			<output>
				<port id="0" precision="FP16">
					<dim>1</dim>
					<dim>1</dim>
					<dim>768</dim>
				</port>
			</output>
		</layer>
		<layer id="172" name="Constant_45628" type="Convert" version="opset1">
			<data destination_type="f32" />
			<rt_info>
				<attribute name="decompression" version="0" />
			</rt_info>
			<input>
				<port id="0" precision="FP16">
					<dim>1</dim>
					<dim>1</dim>
					<dim>768</dim>
				</port>
			</input>
			<output>
				<port id="1" precision="FP32">
					<dim>1</dim>
					<dim>1</dim>
					<dim>768</dim>
				</port>
			</output>
		</layer>
		<layer id="173" name="Constant_41598" type="Const" version="opset1">
			<data element_type="i64" shape="1" offset="11580992" size="8" />
			<output>
				<port id="0" precision="I64">
					<dim>1</dim>
				</port>
			</output>
		</layer>
		<layer id="174" name="/decoders.0/norm2/Div" type="MVN" version="opset6">
			<data eps="9.999999960041972e-13" normalize_variance="true" eps_mode="INSIDE_SQRT" />
			<input>
				<port id="0" precision="FP32">
					<dim>-1</dim>
					<dim>-1</dim>
					<dim>768</dim>
				</port>
				<port id="1" precision="I64">
					<dim>1</dim>
				</port>
			</input>
			<output>
				<port id="2" precision="FP32" names="/decoders.0/norm2/Div_output_0">
					<dim>-1</dim>
					<dim>-1</dim>
					<dim>768</dim>
				</port>
			</output>
		</layer>
		<layer id="175" name="Constant_45626_compressed" type="Const" version="opset1">
			<data element_type="f16" shape="1, 1, 768" offset="13971158" size="1536" />
			<output>
				<port id="0" precision="FP16">
					<dim>1</dim>
					<dim>1</dim>
					<dim>768</dim>
				</port>
			</output>
		</layer>
		<layer id="176" name="Constant_45626" type="Convert" version="opset1">
			<data destination_type="f32" />
			<rt_info>
				<attribute name="decompression" version="0" />
			</rt_info>
			<input>
				<port id="0" precision="FP16">
					<dim>1</dim>
					<dim>1</dim>
					<dim>768</dim>
				</port>
			</input>
			<output>
				<port id="1" precision="FP32">
					<dim>1</dim>
					<dim>1</dim>
					<dim>768</dim>
				</port>
			</output>
		</layer>
		<layer id="177" name="/decoders.0/norm2/Mul" type="Multiply" version="opset1">
			<data auto_broadcast="numpy" />
			<input>
				<port id="0" precision="FP32">
					<dim>-1</dim>
					<dim>-1</dim>
					<dim>768</dim>
				</port>
				<port id="1" precision="FP32">
					<dim>1</dim>
					<dim>1</dim>
					<dim>768</dim>
				</port>
			</input>
			<output>
				<port id="2" precision="FP32" names="/decoders.0/norm2/Mul_output_0">
					<dim>-1</dim>
					<dim>-1</dim>
					<dim>768</dim>
				</port>
			</output>
		</layer>
		<layer id="178" name="Constant_45627_compressed" type="Const" version="opset1">
			<data element_type="f16" shape="1, 1, 768" offset="13972694" size="1536" />
			<output>
				<port id="0" precision="FP16">
					<dim>1</dim>
					<dim>1</dim>
					<dim>768</dim>
				</port>
			</output>
		</layer>
		<layer id="179" name="Constant_45627" type="Convert" version="opset1">
			<data destination_type="f32" />
			<rt_info>
				<attribute name="decompression" version="0" />
			</rt_info>
			<input>
				<port id="0" precision="FP16">
					<dim>1</dim>
					<dim>1</dim>
					<dim>768</dim>
				</port>
			</input>
			<output>
				<port id="1" precision="FP32">
					<dim>1</dim>
					<dim>1</dim>
					<dim>768</dim>
				</port>
			</output>
		</layer>
		<layer id="180" name="/decoders.0/norm2/Add_1" type="Add" version="opset1">
			<data auto_broadcast="numpy" />
			<input>
				<port id="0" precision="FP32">
					<dim>-1</dim>
					<dim>-1</dim>
					<dim>768</dim>
				</port>
				<port id="1" precision="FP32">
					<dim>1</dim>
					<dim>1</dim>
					<dim>768</dim>
				</port>
			</input>
			<output>
				<port id="2" precision="FP32" names="/decoders.0/norm2/Add_1_output_0">
					<dim>-1</dim>
					<dim>-1</dim>
					<dim>768</dim>
				</port>
			</output>
		</layer>
		<layer id="181" name="/decoders.0/norm2/Add_1_0_0/nncf_smooth_quant/scale" type="Const" version="opset1">
			<data element_type="f32" shape="1, 1, 768" offset="13974230" size="3072" />
			<output>
				<port id="0" precision="FP32">
					<dim>1</dim>
					<dim>1</dim>
					<dim>768</dim>
				</port>
			</output>
		</layer>
		<layer id="182" name="/decoders.0/norm2/Add_1_0_0/nncf_smooth_quant" type="Multiply" version="opset1">
			<data auto_broadcast="numpy" />
			<input>
				<port id="0" precision="FP32">
					<dim>-1</dim>
					<dim>-1</dim>
					<dim>768</dim>
				</port>
				<port id="1" precision="FP32">
					<dim>1</dim>
					<dim>1</dim>
					<dim>768</dim>
				</port>
			</input>
			<output>
				<port id="2" precision="FP32">
					<dim>-1</dim>
					<dim>-1</dim>
					<dim>768</dim>
				</port>
			</output>
		</layer>
		<layer id="183" name="/decoders.0/norm2/Add_1_0_0/nncf_smooth_quant/fq_output_0/input_low" type="Const" version="opset1">
			<data element_type="f32" shape="" offset="13977302" size="4" />
			<output>
				<port id="0" precision="FP32" />
			</output>
		</layer>
		<layer id="184" name="/decoders.0/norm2/Add_1_0_0/nncf_smooth_quant/fq_output_0/input_high" type="Const" version="opset1">
			<data element_type="f32" shape="" offset="13977306" size="4" />
			<output>
				<port id="0" precision="FP32" />
			</output>
		</layer>
		<layer id="185" name="/decoders.0/norm2/Add_1_0_0/nncf_smooth_quant/fq_output_0/output_low" type="Const" version="opset1">
			<data element_type="f32" shape="" offset="13977302" size="4" />
			<output>
				<port id="0" precision="FP32" />
			</output>
		</layer>
		<layer id="186" name="/decoders.0/norm2/Add_1_0_0/nncf_smooth_quant/fq_output_0/output_high" type="Const" version="opset1">
			<data element_type="f32" shape="" offset="13977306" size="4" />
			<output>
				<port id="0" precision="FP32" />
			</output>
		</layer>
		<layer id="187" name="/decoders.0/norm2/Add_1_0_0/nncf_smooth_quant/fq_output_0" type="FakeQuantize" version="opset1">
			<data levels="256" auto_broadcast="numpy" />
			<input>
				<port id="0" precision="FP32">
					<dim>-1</dim>
					<dim>-1</dim>
					<dim>768</dim>
				</port>
				<port id="1" precision="FP32" />
				<port id="2" precision="FP32" />
				<port id="3" precision="FP32" />
				<port id="4" precision="FP32" />
			</input>
			<output>
				<port id="5" precision="FP32">
					<dim>-1</dim>
					<dim>-1</dim>
					<dim>768</dim>
				</port>
			</output>
		</layer>
		<layer id="188" name="Constant_1468752" type="Const" version="opset1">
			<data element_type="i8" shape="768, 768" offset="13977310" size="589824" />
			<output>
				<port id="0" precision="I8">
					<dim>768</dim>
					<dim>768</dim>
				</port>
			</output>
		</layer>
		<layer id="189" name="Convert_1468753" type="Convert" version="opset1">
			<data destination_type="f32" />
			<input>
				<port id="0" precision="I8">
					<dim>768</dim>
					<dim>768</dim>
				</port>
			</input>
			<output>
				<port id="1" precision="FP32">
					<dim>768</dim>
					<dim>768</dim>
				</port>
			</output>
		</layer>
		<layer id="190" name="Constant_1468754" type="Const" version="opset1">
			<data element_type="f32" shape="768, 1" offset="14567134" size="3072" />
			<output>
				<port id="0" precision="FP32">
					<dim>768</dim>
					<dim>1</dim>
				</port>
			</output>
		</layer>
		<layer id="191" name="/decoders.0/src_attn/linear_q/MatMul/fq_weights_1" type="Multiply" version="opset1">
			<data auto_broadcast="numpy" />
			<input>
				<port id="0" precision="FP32">
					<dim>768</dim>
					<dim>768</dim>
				</port>
				<port id="1" precision="FP32">
					<dim>768</dim>
					<dim>1</dim>
				</port>
			</input>
			<output>
				<port id="2" precision="FP32">
					<dim>768</dim>
					<dim>768</dim>
				</port>
			</output>
		</layer>
		<layer id="192" name="/decoders.0/src_attn/linear_q/MatMul" type="MatMul" version="opset1">
			<data transpose_a="false" transpose_b="true" />
			<input>
				<port id="0" precision="FP32">
					<dim>-1</dim>
					<dim>-1</dim>
					<dim>768</dim>
				</port>
				<port id="1" precision="FP32">
					<dim>768</dim>
					<dim>768</dim>
				</port>
			</input>
			<output>
				<port id="2" precision="FP32" names="/decoders.0/src_attn/linear_q/MatMul_output_0">
					<dim>-1</dim>
					<dim>-1</dim>
					<dim>768</dim>
				</port>
			</output>
		</layer>
		<layer id="193" name="/decoders.0/src_attn/linear_q/Add" type="Add" version="opset1">
			<data auto_broadcast="numpy" />
			<input>
				<port id="0" precision="FP32">
					<dim>1</dim>
					<dim>1</dim>
					<dim>768</dim>
				</port>
				<port id="1" precision="FP32">
					<dim>-1</dim>
					<dim>-1</dim>
					<dim>768</dim>
				</port>
			</input>
			<output>
				<port id="2" precision="FP32" names="/decoders.0/src_attn/linear_q/Add_output_0">
					<dim>-1</dim>
					<dim>-1</dim>
					<dim>768</dim>
				</port>
			</output>
		</layer>
		<layer id="194" name="/decoders.0/src_attn/linear_q/Add/fq_output_0/input_low" type="Const" version="opset1">
			<data element_type="f32" shape="" offset="14570206" size="4" />
			<output>
				<port id="0" precision="FP32" />
			</output>
		</layer>
		<layer id="195" name="/decoders.0/src_attn/linear_q/Add/fq_output_0/input_high" type="Const" version="opset1">
			<data element_type="f32" shape="" offset="14570210" size="4" />
			<output>
				<port id="0" precision="FP32" />
			</output>
		</layer>
		<layer id="196" name="/decoders.0/src_attn/linear_q/Add/fq_output_0/output_low" type="Const" version="opset1">
			<data element_type="f32" shape="" offset="14570206" size="4" />
			<output>
				<port id="0" precision="FP32" />
			</output>
		</layer>
		<layer id="197" name="/decoders.0/src_attn/linear_q/Add/fq_output_0/output_high" type="Const" version="opset1">
			<data element_type="f32" shape="" offset="14570210" size="4" />
			<output>
				<port id="0" precision="FP32" />
			</output>
		</layer>
		<layer id="198" name="/decoders.0/src_attn/linear_q/Add/fq_output_0" type="FakeQuantize" version="opset1">
			<data levels="256" auto_broadcast="numpy" />
			<input>
				<port id="0" precision="FP32">
					<dim>-1</dim>
					<dim>-1</dim>
					<dim>768</dim>
				</port>
				<port id="1" precision="FP32" />
				<port id="2" precision="FP32" />
				<port id="3" precision="FP32" />
				<port id="4" precision="FP32" />
			</input>
			<output>
				<port id="5" precision="FP32">
					<dim>-1</dim>
					<dim>-1</dim>
					<dim>768</dim>
				</port>
			</output>
		</layer>
		<layer id="199" name="/decoders.0/src_attn/Shape" type="ShapeOf" version="opset3">
			<data output_type="i64" />
			<input>
				<port id="0" precision="FP32">
					<dim>-1</dim>
					<dim>-1</dim>
					<dim>768</dim>
				</port>
			</input>
			<output>
				<port id="1" precision="I64" names="/decoders.0/src_attn/Shape_output_0">
					<dim>3</dim>
				</port>
			</output>
		</layer>
		<layer id="200" name="Constant_44206" type="Const" version="opset1">
			<data element_type="i64" shape="1" offset="3897828" size="8" />
			<rt_info>
				<attribute name="precise" version="0" />
			</rt_info>
			<output>
				<port id="0" precision="I64">
					<dim>1</dim>
				</port>
			</output>
		</layer>
		<layer id="201" name="Constant_41613" type="Const" version="opset1">
			<data element_type="i64" shape="" offset="3897828" size="8" />
			<rt_info>
				<attribute name="precise" version="0" />
			</rt_info>
			<output>
				<port id="0" precision="I64" />
			</output>
		</layer>
		<layer id="202" name="/decoders.0/src_attn/Gather" type="Gather" version="opset8">
			<data batch_dims="0" />
			<input>
				<port id="0" precision="I64">
					<dim>3</dim>
				</port>
				<port id="1" precision="I64">
					<dim>1</dim>
				</port>
				<port id="2" precision="I64" />
			</input>
			<output>
				<port id="3" precision="I64" names="/decoders.0/src_attn/Gather_output_0,/decoders.0/src_attn/Unsqueeze_1_output_0,/decoders.0/src_attn/Unsqueeze_2_output_0,/decoders.0/src_attn/Unsqueeze_output_0">
					<dim>1</dim>
				</port>
			</output>
		</layer>
		<layer id="203" name="/decoders.0/src_attn/Constant_1" type="Const" version="opset1">
			<data element_type="i64" shape="1" offset="11580992" size="8" />
			<rt_info>
				<attribute name="precise" version="0" />
			</rt_info>
			<output>
				<port id="0" precision="I64" names="/decoders.0/src_attn/Constant_1_output_0">
					<dim>1</dim>
				</port>
			</output>
		</layer>
		<layer id="204" name="/decoders.0/src_attn/Constant_2" type="Const" version="opset1">
			<data element_type="i64" shape="1" offset="12180056" size="8" />
			<rt_info>
				<attribute name="precise" version="0" />
			</rt_info>
			<output>
				<port id="0" precision="I64" names="/decoders.0/src_attn/Constant_2_output_0">
					<dim>1</dim>
				</port>
			</output>
		</layer>
		<layer id="205" name="/decoders.0/src_attn/Constant_3" type="Const" version="opset1">
			<data element_type="i64" shape="1" offset="12180064" size="8" />
			<rt_info>
				<attribute name="precise" version="0" />
			</rt_info>
			<output>
				<port id="0" precision="I64" names="/decoders.0/src_attn/Constant_3_output_0">
					<dim>1</dim>
				</port>
			</output>
		</layer>
		<layer id="206" name="/decoders.0/src_attn/Concat" type="Concat" version="opset1">
			<data axis="0" />
			<input>
				<port id="0" precision="I64">
					<dim>1</dim>
				</port>
				<port id="1" precision="I64">
					<dim>1</dim>
				</port>
				<port id="2" precision="I64">
					<dim>1</dim>
				</port>
				<port id="3" precision="I64">
					<dim>1</dim>
				</port>
			</input>
			<output>
				<port id="4" precision="I64" names="/decoders.0/src_attn/Concat_1_output_0,/decoders.0/src_attn/Concat_2_output_0,/decoders.0/src_attn/Concat_output_0">
					<dim>4</dim>
				</port>
			</output>
		</layer>
		<layer id="207" name="/decoders.0/src_attn/Reshape" type="Reshape" version="opset1">
			<data special_zero="true" />
			<input>
				<port id="0" precision="FP32">
					<dim>-1</dim>
					<dim>-1</dim>
					<dim>768</dim>
				</port>
				<port id="1" precision="I64">
					<dim>4</dim>
				</port>
			</input>
			<output>
				<port id="2" precision="FP32" names="/decoders.0/src_attn/Reshape_output_0">
					<dim>-1</dim>
					<dim>-1</dim>
					<dim>12</dim>
					<dim>64</dim>
				</port>
			</output>
		</layer>
		<layer id="208" name="Constant_41645" type="Const" version="opset1">
			<data element_type="i64" shape="4" offset="12180072" size="32" />
			<output>
				<port id="0" precision="I64">
					<dim>4</dim>
				</port>
			</output>
		</layer>
		<layer id="209" name="/decoders.0/src_attn/Transpose" type="Transpose" version="opset1">
			<input>
				<port id="0" precision="FP32">
					<dim>-1</dim>
					<dim>-1</dim>
					<dim>12</dim>
					<dim>64</dim>
				</port>
				<port id="1" precision="I64">
					<dim>4</dim>
				</port>
			</input>
			<output>
				<port id="2" precision="FP32" names="/decoders.0/src_attn/Transpose_output_0">
					<dim>-1</dim>
					<dim>12</dim>
					<dim>-1</dim>
					<dim>64</dim>
				</port>
			</output>
		</layer>
		<layer id="210" name="Constant_45629_compressed" type="Const" version="opset1">
			<data element_type="f16" shape="1, 1, 768" offset="14570214" size="1536" />
			<output>
				<port id="0" precision="FP16">
					<dim>1</dim>
					<dim>1</dim>
					<dim>768</dim>
				</port>
			</output>
		</layer>
		<layer id="211" name="Constant_45629" type="Convert" version="opset1">
			<data destination_type="f32" />
			<rt_info>
				<attribute name="decompression" version="0" />
			</rt_info>
			<input>
				<port id="0" precision="FP16">
					<dim>1</dim>
					<dim>1</dim>
					<dim>768</dim>
				</port>
			</input>
			<output>
				<port id="1" precision="FP32">
					<dim>1</dim>
					<dim>1</dim>
					<dim>768</dim>
				</port>
			</output>
		</layer>
		<layer id="212" name="memory_0_0/nncf_smooth_quant/scale" type="Const" version="opset1">
			<data element_type="f32" shape="1, 1, 768" offset="14571750" size="3072" />
			<output>
				<port id="0" precision="FP32">
					<dim>1</dim>
					<dim>1</dim>
					<dim>768</dim>
				</port>
			</output>
		</layer>
		<layer id="213" name="memory_0_0/nncf_smooth_quant" type="Multiply" version="opset1">
			<data auto_broadcast="numpy" />
			<input>
				<port id="0" precision="FP32">
					<dim>-1</dim>
					<dim>-1</dim>
					<dim>768</dim>
				</port>
				<port id="1" precision="FP32">
					<dim>1</dim>
					<dim>1</dim>
					<dim>768</dim>
				</port>
			</input>
			<output>
				<port id="2" precision="FP32">
					<dim>-1</dim>
					<dim>-1</dim>
					<dim>768</dim>
				</port>
			</output>
		</layer>
		<layer id="214" name="memory_0_0/nncf_smooth_quant/fq_output_0/input_low" type="Const" version="opset1">
			<data element_type="f32" shape="" offset="14574822" size="4" />
			<output>
				<port id="0" precision="FP32" />
			</output>
		</layer>
		<layer id="215" name="memory_0_0/nncf_smooth_quant/fq_output_0/input_high" type="Const" version="opset1">
			<data element_type="f32" shape="" offset="14574826" size="4" />
			<output>
				<port id="0" precision="FP32" />
			</output>
		</layer>
		<layer id="216" name="memory_0_0/nncf_smooth_quant/fq_output_0/output_low" type="Const" version="opset1">
			<data element_type="f32" shape="" offset="14574822" size="4" />
			<output>
				<port id="0" precision="FP32" />
			</output>
		</layer>
		<layer id="217" name="memory_0_0/nncf_smooth_quant/fq_output_0/output_high" type="Const" version="opset1">
			<data element_type="f32" shape="" offset="14574826" size="4" />
			<output>
				<port id="0" precision="FP32" />
			</output>
		</layer>
		<layer id="218" name="memory_0_0/nncf_smooth_quant/fq_output_0" type="FakeQuantize" version="opset1">
			<data levels="256" auto_broadcast="numpy" />
			<input>
				<port id="0" precision="FP32">
					<dim>-1</dim>
					<dim>-1</dim>
					<dim>768</dim>
				</port>
				<port id="1" precision="FP32" />
				<port id="2" precision="FP32" />
				<port id="3" precision="FP32" />
				<port id="4" precision="FP32" />
			</input>
			<output>
				<port id="5" precision="FP32">
					<dim>-1</dim>
					<dim>-1</dim>
					<dim>768</dim>
				</port>
			</output>
		</layer>
		<layer id="219" name="Constant_1468757" type="Const" version="opset1">
			<data element_type="i8" shape="768, 768" offset="14574830" size="589824" />
			<output>
				<port id="0" precision="I8">
					<dim>768</dim>
					<dim>768</dim>
				</port>
			</output>
		</layer>
		<layer id="220" name="Convert_1468758" type="Convert" version="opset1">
			<data destination_type="f32" />
			<input>
				<port id="0" precision="I8">
					<dim>768</dim>
					<dim>768</dim>
				</port>
			</input>
			<output>
				<port id="1" precision="FP32">
					<dim>768</dim>
					<dim>768</dim>
				</port>
			</output>
		</layer>
		<layer id="221" name="Constant_1468759" type="Const" version="opset1">
			<data element_type="f32" shape="768, 1" offset="15164654" size="3072" />
			<output>
				<port id="0" precision="FP32">
					<dim>768</dim>
					<dim>1</dim>
				</port>
			</output>
		</layer>
		<layer id="222" name="/decoders.0/src_attn/linear_k/MatMul/fq_weights_1" type="Multiply" version="opset1">
			<data auto_broadcast="numpy" />
			<input>
				<port id="0" precision="FP32">
					<dim>768</dim>
					<dim>768</dim>
				</port>
				<port id="1" precision="FP32">
					<dim>768</dim>
					<dim>1</dim>
				</port>
			</input>
			<output>
				<port id="2" precision="FP32">
					<dim>768</dim>
					<dim>768</dim>
				</port>
			</output>
		</layer>
		<layer id="223" name="/decoders.0/src_attn/linear_k/MatMul" type="MatMul" version="opset1">
			<data transpose_a="false" transpose_b="true" />
			<input>
				<port id="0" precision="FP32">
					<dim>-1</dim>
					<dim>-1</dim>
					<dim>768</dim>
				</port>
				<port id="1" precision="FP32">
					<dim>768</dim>
					<dim>768</dim>
				</port>
			</input>
			<output>
				<port id="2" precision="FP32" names="/decoders.0/src_attn/linear_k/MatMul_output_0">
					<dim>-1</dim>
					<dim>-1</dim>
					<dim>768</dim>
				</port>
			</output>
		</layer>
		<layer id="224" name="/decoders.0/src_attn/linear_k/Add" type="Add" version="opset1">
			<data auto_broadcast="numpy" />
			<input>
				<port id="0" precision="FP32">
					<dim>1</dim>
					<dim>1</dim>
					<dim>768</dim>
				</port>
				<port id="1" precision="FP32">
					<dim>-1</dim>
					<dim>-1</dim>
					<dim>768</dim>
				</port>
			</input>
			<output>
				<port id="2" precision="FP32" names="/decoders.0/src_attn/linear_k/Add_output_0">
					<dim>-1</dim>
					<dim>-1</dim>
					<dim>768</dim>
				</port>
			</output>
		</layer>
		<layer id="225" name="/decoders.0/src_attn/Reshape_1" type="Reshape" version="opset1">
			<data special_zero="true" />
			<input>
				<port id="0" precision="FP32">
					<dim>-1</dim>
					<dim>-1</dim>
					<dim>768</dim>
				</port>
				<port id="1" precision="I64">
					<dim>4</dim>
				</port>
			</input>
			<output>
				<port id="2" precision="FP32" names="/decoders.0/src_attn/Reshape_1_output_0">
					<dim>-1</dim>
					<dim>-1</dim>
					<dim>12</dim>
					<dim>64</dim>
				</port>
			</output>
		</layer>
		<layer id="226" name="Constant_41649" type="Const" version="opset1">
			<data element_type="i64" shape="4" offset="12777616" size="32" />
			<output>
				<port id="0" precision="I64">
					<dim>4</dim>
				</port>
			</output>
		</layer>
		<layer id="227" name="/decoders.0/src_attn/Transpose_2" type="Transpose" version="opset1">
			<input>
				<port id="0" precision="FP32">
					<dim>-1</dim>
					<dim>-1</dim>
					<dim>12</dim>
					<dim>64</dim>
				</port>
				<port id="1" precision="I64">
					<dim>4</dim>
				</port>
			</input>
			<output>
				<port id="2" precision="FP32" names="/decoders.0/src_attn/Transpose_2_output_0">
					<dim>-1</dim>
					<dim>12</dim>
					<dim>64</dim>
					<dim>-1</dim>
				</port>
			</output>
		</layer>
		<layer id="228" name="Constant_45630_compressed" type="Const" version="opset1">
			<data element_type="f16" shape="1, 1, 1, 1" offset="12777648" size="2" />
			<output>
				<port id="0" precision="FP16">
					<dim>1</dim>
					<dim>1</dim>
					<dim>1</dim>
					<dim>1</dim>
				</port>
			</output>
		</layer>
		<layer id="229" name="Constant_45630" type="Convert" version="opset1">
			<data destination_type="f32" />
			<rt_info>
				<attribute name="decompression" version="0" />
			</rt_info>
			<input>
				<port id="0" precision="FP16">
					<dim>1</dim>
					<dim>1</dim>
					<dim>1</dim>
					<dim>1</dim>
				</port>
			</input>
			<output>
				<port id="1" precision="FP32">
					<dim>1</dim>
					<dim>1</dim>
					<dim>1</dim>
					<dim>1</dim>
				</port>
			</output>
		</layer>
		<layer id="230" name="Multiply_45344" type="Multiply" version="opset1">
			<data auto_broadcast="numpy" />
			<input>
				<port id="0" precision="FP32">
					<dim>-1</dim>
					<dim>12</dim>
					<dim>64</dim>
					<dim>-1</dim>
				</port>
				<port id="1" precision="FP32">
					<dim>1</dim>
					<dim>1</dim>
					<dim>1</dim>
					<dim>1</dim>
				</port>
			</input>
			<output>
				<port id="2" precision="FP32">
					<dim>-1</dim>
					<dim>12</dim>
					<dim>64</dim>
					<dim>-1</dim>
				</port>
			</output>
		</layer>
		<layer id="231" name="Multiply_45344/fq_output_0/input_low" type="Const" version="opset1">
			<data element_type="f32" shape="" offset="15167726" size="4" />
			<output>
				<port id="0" precision="FP32" />
			</output>
		</layer>
		<layer id="232" name="Multiply_45344/fq_output_0/input_high" type="Const" version="opset1">
			<data element_type="f32" shape="" offset="15167730" size="4" />
			<output>
				<port id="0" precision="FP32" />
			</output>
		</layer>
		<layer id="233" name="Multiply_45344/fq_output_0/output_low" type="Const" version="opset1">
			<data element_type="f32" shape="" offset="15167726" size="4" />
			<output>
				<port id="0" precision="FP32" />
			</output>
		</layer>
		<layer id="234" name="Multiply_45344/fq_output_0/output_high" type="Const" version="opset1">
			<data element_type="f32" shape="" offset="15167730" size="4" />
			<output>
				<port id="0" precision="FP32" />
			</output>
		</layer>
		<layer id="235" name="Multiply_45344/fq_output_0" type="FakeQuantize" version="opset1">
			<data levels="256" auto_broadcast="numpy" />
			<input>
				<port id="0" precision="FP32">
					<dim>-1</dim>
					<dim>12</dim>
					<dim>64</dim>
					<dim>-1</dim>
				</port>
				<port id="1" precision="FP32" />
				<port id="2" precision="FP32" />
				<port id="3" precision="FP32" />
				<port id="4" precision="FP32" />
			</input>
			<output>
				<port id="5" precision="FP32">
					<dim>-1</dim>
					<dim>12</dim>
					<dim>64</dim>
					<dim>-1</dim>
				</port>
			</output>
		</layer>
		<layer id="236" name="/decoders.0/src_attn/Div" type="MatMul" version="opset1">
			<data transpose_a="false" transpose_b="false" />
			<input>
				<port id="0" precision="FP32">
					<dim>-1</dim>
					<dim>12</dim>
					<dim>-1</dim>
					<dim>64</dim>
				</port>
				<port id="1" precision="FP32">
					<dim>-1</dim>
					<dim>12</dim>
					<dim>64</dim>
					<dim>-1</dim>
				</port>
			</input>
			<output>
				<port id="2" precision="FP32" names="/decoders.0/src_attn/Div_output_0">
					<dim>-1</dim>
					<dim>12</dim>
					<dim>-1</dim>
					<dim>-1</dim>
				</port>
			</output>
		</layer>
		<layer id="237" name="/decoders.0/src_attn/Softmax" type="SoftMax" version="opset8">
			<data axis="3" />
			<input>
				<port id="0" precision="FP32">
					<dim>-1</dim>
					<dim>12</dim>
					<dim>-1</dim>
					<dim>-1</dim>
				</port>
			</input>
			<output>
				<port id="1" precision="FP32" names="/decoders.0/src_attn/Softmax_output_0">
					<dim>-1</dim>
					<dim>12</dim>
					<dim>-1</dim>
					<dim>-1</dim>
				</port>
			</output>
		</layer>
		<layer id="238" name="Constant_45631_compressed" type="Const" version="opset1">
			<data element_type="f16" shape="1, 1, 768" offset="15167734" size="1536" />
			<output>
				<port id="0" precision="FP16">
					<dim>1</dim>
					<dim>1</dim>
					<dim>768</dim>
				</port>
			</output>
		</layer>
		<layer id="239" name="Constant_45631" type="Convert" version="opset1">
			<data destination_type="f32" />
			<rt_info>
				<attribute name="decompression" version="0" />
			</rt_info>
			<input>
				<port id="0" precision="FP16">
					<dim>1</dim>
					<dim>1</dim>
					<dim>768</dim>
				</port>
			</input>
			<output>
				<port id="1" precision="FP32">
					<dim>1</dim>
					<dim>1</dim>
					<dim>768</dim>
				</port>
			</output>
		</layer>
		<layer id="240" name="Constant_1468762" type="Const" version="opset1">
			<data element_type="i8" shape="768, 768" offset="15169270" size="589824" />
			<output>
				<port id="0" precision="I8">
					<dim>768</dim>
					<dim>768</dim>
				</port>
			</output>
		</layer>
		<layer id="241" name="Convert_1468763" type="Convert" version="opset1">
			<data destination_type="f32" />
			<input>
				<port id="0" precision="I8">
					<dim>768</dim>
					<dim>768</dim>
				</port>
			</input>
			<output>
				<port id="1" precision="FP32">
					<dim>768</dim>
					<dim>768</dim>
				</port>
			</output>
		</layer>
		<layer id="242" name="Constant_1468764" type="Const" version="opset1">
			<data element_type="f32" shape="768, 1" offset="15759094" size="3072" />
			<output>
				<port id="0" precision="FP32">
					<dim>768</dim>
					<dim>1</dim>
				</port>
			</output>
		</layer>
		<layer id="243" name="/decoders.0/src_attn/linear_v/MatMul/fq_weights_1" type="Multiply" version="opset1">
			<data auto_broadcast="numpy" />
			<input>
				<port id="0" precision="FP32">
					<dim>768</dim>
					<dim>768</dim>
				</port>
				<port id="1" precision="FP32">
					<dim>768</dim>
					<dim>1</dim>
				</port>
			</input>
			<output>
				<port id="2" precision="FP32">
					<dim>768</dim>
					<dim>768</dim>
				</port>
			</output>
		</layer>
		<layer id="244" name="/decoders.0/src_attn/linear_v/MatMul" type="MatMul" version="opset1">
			<data transpose_a="false" transpose_b="true" />
			<input>
				<port id="0" precision="FP32">
					<dim>-1</dim>
					<dim>-1</dim>
					<dim>768</dim>
				</port>
				<port id="1" precision="FP32">
					<dim>768</dim>
					<dim>768</dim>
				</port>
			</input>
			<output>
				<port id="2" precision="FP32" names="/decoders.0/src_attn/linear_v/MatMul_output_0">
					<dim>-1</dim>
					<dim>-1</dim>
					<dim>768</dim>
				</port>
			</output>
		</layer>
		<layer id="245" name="/decoders.0/src_attn/linear_v/Add" type="Add" version="opset1">
			<data auto_broadcast="numpy" />
			<input>
				<port id="0" precision="FP32">
					<dim>1</dim>
					<dim>1</dim>
					<dim>768</dim>
				</port>
				<port id="1" precision="FP32">
					<dim>-1</dim>
					<dim>-1</dim>
					<dim>768</dim>
				</port>
			</input>
			<output>
				<port id="2" precision="FP32" names="/decoders.0/src_attn/linear_v/Add_output_0">
					<dim>-1</dim>
					<dim>-1</dim>
					<dim>768</dim>
				</port>
			</output>
		</layer>
		<layer id="246" name="/decoders.0/src_attn/Reshape_2" type="Reshape" version="opset1">
			<data special_zero="true" />
			<input>
				<port id="0" precision="FP32">
					<dim>-1</dim>
					<dim>-1</dim>
					<dim>768</dim>
				</port>
				<port id="1" precision="I64">
					<dim>4</dim>
				</port>
			</input>
			<output>
				<port id="2" precision="FP32" names="/decoders.0/src_attn/Reshape_2_output_0">
					<dim>-1</dim>
					<dim>-1</dim>
					<dim>12</dim>
					<dim>64</dim>
				</port>
			</output>
		</layer>
		<layer id="247" name="Constant_41647" type="Const" version="opset1">
			<data element_type="i64" shape="4" offset="12180072" size="32" />
			<output>
				<port id="0" precision="I64">
					<dim>4</dim>
				</port>
			</output>
		</layer>
		<layer id="248" name="/decoders.0/src_attn/Transpose_1" type="Transpose" version="opset1">
			<input>
				<port id="0" precision="FP32">
					<dim>-1</dim>
					<dim>-1</dim>
					<dim>12</dim>
					<dim>64</dim>
				</port>
				<port id="1" precision="I64">
					<dim>4</dim>
				</port>
			</input>
			<output>
				<port id="2" precision="FP32" names="/decoders.0/src_attn/Transpose_1_output_0">
					<dim>-1</dim>
					<dim>12</dim>
					<dim>-1</dim>
					<dim>64</dim>
				</port>
			</output>
		</layer>
		<layer id="249" name="/decoders.0/src_attn/MatMul_1" type="MatMul" version="opset1">
			<data transpose_a="false" transpose_b="false" />
			<input>
				<port id="0" precision="FP32">
					<dim>-1</dim>
					<dim>12</dim>
					<dim>-1</dim>
					<dim>-1</dim>
				</port>
				<port id="1" precision="FP32">
					<dim>-1</dim>
					<dim>12</dim>
					<dim>-1</dim>
					<dim>64</dim>
				</port>
			</input>
			<output>
				<port id="2" precision="FP32" names="/decoders.0/src_attn/MatMul_1_output_0">
					<dim>-1</dim>
					<dim>12</dim>
					<dim>-1</dim>
					<dim>64</dim>
				</port>
			</output>
		</layer>
		<layer id="250" name="Constant_41660" type="Const" version="opset1">
			<data element_type="i64" shape="4" offset="12180072" size="32" />
			<output>
				<port id="0" precision="I64">
					<dim>4</dim>
				</port>
			</output>
		</layer>
		<layer id="251" name="/decoders.0/src_attn/Transpose_3" type="Transpose" version="opset1">
			<input>
				<port id="0" precision="FP32">
					<dim>-1</dim>
					<dim>12</dim>
					<dim>-1</dim>
					<dim>64</dim>
				</port>
				<port id="1" precision="I64">
					<dim>4</dim>
				</port>
			</input>
			<output>
				<port id="2" precision="FP32" names="/decoders.0/src_attn/Transpose_3_output_0">
					<dim>-1</dim>
					<dim>-1</dim>
					<dim>12</dim>
					<dim>64</dim>
				</port>
			</output>
		</layer>
		<layer id="252" name="/decoders.0/src_attn/Shape_1" type="ShapeOf" version="opset3">
			<data output_type="i64" />
			<input>
				<port id="0" precision="FP32">
					<dim>-1</dim>
					<dim>12</dim>
					<dim>-1</dim>
					<dim>64</dim>
				</port>
			</input>
			<output>
				<port id="1" precision="I64" names="/decoders.0/src_attn/Shape_1_output_0">
					<dim>4</dim>
				</port>
			</output>
		</layer>
		<layer id="253" name="Constant_44209" type="Const" version="opset1">
			<data element_type="i64" shape="1" offset="3897828" size="8" />
			<rt_info>
				<attribute name="precise" version="0" />
			</rt_info>
			<output>
				<port id="0" precision="I64">
					<dim>1</dim>
				</port>
			</output>
		</layer>
		<layer id="254" name="Constant_41656" type="Const" version="opset1">
			<data element_type="i64" shape="" offset="3897828" size="8" />
			<rt_info>
				<attribute name="precise" version="0" />
			</rt_info>
			<output>
				<port id="0" precision="I64" />
			</output>
		</layer>
		<layer id="255" name="/decoders.0/src_attn/Gather_1" type="Gather" version="opset8">
			<data batch_dims="0" />
			<input>
				<port id="0" precision="I64">
					<dim>4</dim>
				</port>
				<port id="1" precision="I64">
					<dim>1</dim>
				</port>
				<port id="2" precision="I64" />
			</input>
			<output>
				<port id="3" precision="I64" names="/decoders.0/src_attn/Gather_1_output_0,/decoders.0/src_attn/Unsqueeze_3_output_0">
					<dim>1</dim>
				</port>
			</output>
		</layer>
		<layer id="256" name="/decoders.0/src_attn/Constant_12" type="Const" version="opset1">
			<data element_type="i64" shape="1" offset="11580992" size="8" />
			<rt_info>
				<attribute name="precise" version="0" />
			</rt_info>
			<output>
				<port id="0" precision="I64" names="/decoders.0/src_attn/Constant_12_output_0">
					<dim>1</dim>
				</port>
			</output>
		</layer>
		<layer id="257" name="/decoders.0/src_attn/Constant_13" type="Const" version="opset1">
			<data element_type="i64" shape="1" offset="13372102" size="8" />
			<rt_info>
				<attribute name="precise" version="0" />
			</rt_info>
			<output>
				<port id="0" precision="I64" names="/decoders.0/src_attn/Constant_13_output_0">
					<dim>1</dim>
				</port>
			</output>
		</layer>
		<layer id="258" name="/decoders.0/src_attn/Concat_3" type="Concat" version="opset1">
			<data axis="0" />
			<input>
				<port id="0" precision="I64">
					<dim>1</dim>
				</port>
				<port id="1" precision="I64">
					<dim>1</dim>
				</port>
				<port id="2" precision="I64">
					<dim>1</dim>
				</port>
			</input>
			<output>
				<port id="3" precision="I64" names="/decoders.0/src_attn/Concat_3_output_0">
					<dim>3</dim>
				</port>
			</output>
		</layer>
		<layer id="259" name="/decoders.0/src_attn/Reshape_3" type="Reshape" version="opset1">
			<data special_zero="true" />
			<input>
				<port id="0" precision="FP32">
					<dim>-1</dim>
					<dim>-1</dim>
					<dim>12</dim>
					<dim>64</dim>
				</port>
				<port id="1" precision="I64">
					<dim>3</dim>
				</port>
			</input>
			<output>
				<port id="2" precision="FP32" names="/decoders.0/src_attn/Reshape_3_output_0">
					<dim>-1</dim>
					<dim>-1</dim>
					<dim>768</dim>
				</port>
			</output>
		</layer>
		<layer id="260" name="/decoders.0/src_attn/Reshape_3_0_0/nncf_smooth_quant/scale" type="Const" version="opset1">
			<data element_type="f32" shape="1, 1, 768" offset="15762166" size="3072" />
			<output>
				<port id="0" precision="FP32">
					<dim>1</dim>
					<dim>1</dim>
					<dim>768</dim>
				</port>
			</output>
		</layer>
		<layer id="261" name="/decoders.0/src_attn/Reshape_3_0_0/nncf_smooth_quant" type="Multiply" version="opset1">
			<data auto_broadcast="numpy" />
			<input>
				<port id="0" precision="FP32">
					<dim>-1</dim>
					<dim>-1</dim>
					<dim>768</dim>
				</port>
				<port id="1" precision="FP32">
					<dim>1</dim>
					<dim>1</dim>
					<dim>768</dim>
				</port>
			</input>
			<output>
				<port id="2" precision="FP32">
					<dim>-1</dim>
					<dim>-1</dim>
					<dim>768</dim>
				</port>
			</output>
		</layer>
		<layer id="262" name="/decoders.0/src_attn/Reshape_3_0_0/nncf_smooth_quant/fq_output_0/input_low" type="Const" version="opset1">
			<data element_type="f32" shape="" offset="15765238" size="4" />
			<output>
				<port id="0" precision="FP32" />
			</output>
		</layer>
		<layer id="263" name="/decoders.0/src_attn/Reshape_3_0_0/nncf_smooth_quant/fq_output_0/input_high" type="Const" version="opset1">
			<data element_type="f32" shape="" offset="15765242" size="4" />
			<output>
				<port id="0" precision="FP32" />
			</output>
		</layer>
		<layer id="264" name="/decoders.0/src_attn/Reshape_3_0_0/nncf_smooth_quant/fq_output_0/output_low" type="Const" version="opset1">
			<data element_type="f32" shape="" offset="15765238" size="4" />
			<output>
				<port id="0" precision="FP32" />
			</output>
		</layer>
		<layer id="265" name="/decoders.0/src_attn/Reshape_3_0_0/nncf_smooth_quant/fq_output_0/output_high" type="Const" version="opset1">
			<data element_type="f32" shape="" offset="15765242" size="4" />
			<output>
				<port id="0" precision="FP32" />
			</output>
		</layer>
		<layer id="266" name="/decoders.0/src_attn/Reshape_3_0_0/nncf_smooth_quant/fq_output_0" type="FakeQuantize" version="opset1">
			<data levels="256" auto_broadcast="numpy" />
			<input>
				<port id="0" precision="FP32">
					<dim>-1</dim>
					<dim>-1</dim>
					<dim>768</dim>
				</port>
				<port id="1" precision="FP32" />
				<port id="2" precision="FP32" />
				<port id="3" precision="FP32" />
				<port id="4" precision="FP32" />
			</input>
			<output>
				<port id="5" precision="FP32">
					<dim>-1</dim>
					<dim>-1</dim>
					<dim>768</dim>
				</port>
			</output>
		</layer>
		<layer id="267" name="Constant_1468767" type="Const" version="opset1">
			<data element_type="i8" shape="768, 768" offset="15765246" size="589824" />
			<output>
				<port id="0" precision="I8">
					<dim>768</dim>
					<dim>768</dim>
				</port>
			</output>
		</layer>
		<layer id="268" name="Convert_1468768" type="Convert" version="opset1">
			<data destination_type="f32" />
			<input>
				<port id="0" precision="I8">
					<dim>768</dim>
					<dim>768</dim>
				</port>
			</input>
			<output>
				<port id="1" precision="FP32">
					<dim>768</dim>
					<dim>768</dim>
				</port>
			</output>
		</layer>
		<layer id="269" name="Constant_1468769" type="Const" version="opset1">
			<data element_type="f32" shape="768, 1" offset="16355070" size="3072" />
			<output>
				<port id="0" precision="FP32">
					<dim>768</dim>
					<dim>1</dim>
				</port>
			</output>
		</layer>
		<layer id="270" name="/decoders.0/src_attn/linear_out/MatMul/fq_weights_1" type="Multiply" version="opset1">
			<data auto_broadcast="numpy" />
			<input>
				<port id="0" precision="FP32">
					<dim>768</dim>
					<dim>768</dim>
				</port>
				<port id="1" precision="FP32">
					<dim>768</dim>
					<dim>1</dim>
				</port>
			</input>
			<output>
				<port id="2" precision="FP32">
					<dim>768</dim>
					<dim>768</dim>
				</port>
			</output>
		</layer>
		<layer id="271" name="/decoders.0/src_attn/linear_out/MatMul" type="MatMul" version="opset1">
			<data transpose_a="false" transpose_b="true" />
			<input>
				<port id="0" precision="FP32">
					<dim>-1</dim>
					<dim>-1</dim>
					<dim>768</dim>
				</port>
				<port id="1" precision="FP32">
					<dim>768</dim>
					<dim>768</dim>
				</port>
			</input>
			<output>
				<port id="2" precision="FP32" names="/decoders.0/src_attn/linear_out/MatMul_output_0">
					<dim>-1</dim>
					<dim>-1</dim>
					<dim>768</dim>
				</port>
			</output>
		</layer>
		<layer id="272" name="/decoders.0/src_attn/linear_out/Add" type="Add" version="opset1">
			<data auto_broadcast="numpy" />
			<input>
				<port id="0" precision="FP32">
					<dim>1</dim>
					<dim>1</dim>
					<dim>768</dim>
				</port>
				<port id="1" precision="FP32">
					<dim>-1</dim>
					<dim>-1</dim>
					<dim>768</dim>
				</port>
			</input>
			<output>
				<port id="2" precision="FP32" names="/decoders.0/src_attn/linear_out/Add_output_0">
					<dim>-1</dim>
					<dim>-1</dim>
					<dim>768</dim>
				</port>
			</output>
		</layer>
		<layer id="273" name="/decoders.0/Add_1" type="Add" version="opset1">
			<data auto_broadcast="numpy" />
			<input>
				<port id="0" precision="FP32">
					<dim>-1</dim>
					<dim>-1</dim>
					<dim>768</dim>
				</port>
				<port id="1" precision="FP32">
					<dim>-1</dim>
					<dim>-1</dim>
					<dim>768</dim>
				</port>
			</input>
			<output>
				<port id="2" precision="FP32" names="/decoders.0/Add_1_output_0">
					<dim>-1</dim>
					<dim>-1</dim>
					<dim>768</dim>
				</port>
			</output>
		</layer>
		<layer id="274" name="Constant_45636_compressed" type="Const" version="opset1">
			<data element_type="f16" shape="1, 1, 768" offset="16358142" size="1536" />
			<output>
				<port id="0" precision="FP16">
					<dim>1</dim>
					<dim>1</dim>
					<dim>768</dim>
				</port>
			</output>
		</layer>
		<layer id="275" name="Constant_45636" type="Convert" version="opset1">
			<data destination_type="f32" />
			<rt_info>
				<attribute name="decompression" version="0" />
			</rt_info>
			<input>
				<port id="0" precision="FP16">
					<dim>1</dim>
					<dim>1</dim>
					<dim>768</dim>
				</port>
			</input>
			<output>
				<port id="1" precision="FP32">
					<dim>1</dim>
					<dim>1</dim>
					<dim>768</dim>
				</port>
			</output>
		</layer>
		<layer id="276" name="Constant_45635_compressed" type="Const" version="opset1">
			<data element_type="f16" shape="1, 1, 3072" offset="16359678" size="6144" />
			<output>
				<port id="0" precision="FP16">
					<dim>1</dim>
					<dim>1</dim>
					<dim>3072</dim>
				</port>
			</output>
		</layer>
		<layer id="277" name="Constant_45635" type="Convert" version="opset1">
			<data destination_type="f32" />
			<rt_info>
				<attribute name="decompression" version="0" />
			</rt_info>
			<input>
				<port id="0" precision="FP16">
					<dim>1</dim>
					<dim>1</dim>
					<dim>3072</dim>
				</port>
			</input>
			<output>
				<port id="1" precision="FP32">
					<dim>1</dim>
					<dim>1</dim>
					<dim>3072</dim>
				</port>
			</output>
		</layer>
		<layer id="278" name="Constant_41672" type="Const" version="opset1">
			<data element_type="i64" shape="1" offset="11580992" size="8" />
			<output>
				<port id="0" precision="I64">
					<dim>1</dim>
				</port>
			</output>
		</layer>
		<layer id="279" name="/decoders.0/norm3/Div" type="MVN" version="opset6">
			<data eps="9.999999960041972e-13" normalize_variance="true" eps_mode="INSIDE_SQRT" />
			<input>
				<port id="0" precision="FP32">
					<dim>-1</dim>
					<dim>-1</dim>
					<dim>768</dim>
				</port>
				<port id="1" precision="I64">
					<dim>1</dim>
				</port>
			</input>
			<output>
				<port id="2" precision="FP32" names="/decoders.0/norm3/Div_output_0">
					<dim>-1</dim>
					<dim>-1</dim>
					<dim>768</dim>
				</port>
			</output>
		</layer>
		<layer id="280" name="Constant_45633_compressed" type="Const" version="opset1">
			<data element_type="f16" shape="1, 1, 768" offset="16365822" size="1536" />
			<output>
				<port id="0" precision="FP16">
					<dim>1</dim>
					<dim>1</dim>
					<dim>768</dim>
				</port>
			</output>
		</layer>
		<layer id="281" name="Constant_45633" type="Convert" version="opset1">
			<data destination_type="f32" />
			<rt_info>
				<attribute name="decompression" version="0" />
			</rt_info>
			<input>
				<port id="0" precision="FP16">
					<dim>1</dim>
					<dim>1</dim>
					<dim>768</dim>
				</port>
			</input>
			<output>
				<port id="1" precision="FP32">
					<dim>1</dim>
					<dim>1</dim>
					<dim>768</dim>
				</port>
			</output>
		</layer>
		<layer id="282" name="/decoders.0/norm3/Mul" type="Multiply" version="opset1">
			<data auto_broadcast="numpy" />
			<input>
				<port id="0" precision="FP32">
					<dim>-1</dim>
					<dim>-1</dim>
					<dim>768</dim>
				</port>
				<port id="1" precision="FP32">
					<dim>1</dim>
					<dim>1</dim>
					<dim>768</dim>
				</port>
			</input>
			<output>
				<port id="2" precision="FP32" names="/decoders.0/norm3/Mul_output_0">
					<dim>-1</dim>
					<dim>-1</dim>
					<dim>768</dim>
				</port>
			</output>
		</layer>
		<layer id="283" name="Constant_45634_compressed" type="Const" version="opset1">
			<data element_type="f16" shape="1, 1, 768" offset="16367358" size="1536" />
			<output>
				<port id="0" precision="FP16">
					<dim>1</dim>
					<dim>1</dim>
					<dim>768</dim>
				</port>
			</output>
		</layer>
		<layer id="284" name="Constant_45634" type="Convert" version="opset1">
			<data destination_type="f32" />
			<rt_info>
				<attribute name="decompression" version="0" />
			</rt_info>
			<input>
				<port id="0" precision="FP16">
					<dim>1</dim>
					<dim>1</dim>
					<dim>768</dim>
				</port>
			</input>
			<output>
				<port id="1" precision="FP32">
					<dim>1</dim>
					<dim>1</dim>
					<dim>768</dim>
				</port>
			</output>
		</layer>
		<layer id="285" name="/decoders.0/norm3/Add_1" type="Add" version="opset1">
			<data auto_broadcast="numpy" />
			<input>
				<port id="0" precision="FP32">
					<dim>-1</dim>
					<dim>-1</dim>
					<dim>768</dim>
				</port>
				<port id="1" precision="FP32">
					<dim>1</dim>
					<dim>1</dim>
					<dim>768</dim>
				</port>
			</input>
			<output>
				<port id="2" precision="FP32" names="/decoders.0/norm3/Add_1_output_0">
					<dim>-1</dim>
					<dim>-1</dim>
					<dim>768</dim>
				</port>
			</output>
		</layer>
		<layer id="286" name="/decoders.0/norm3/Add_1_0_0/nncf_smooth_quant/scale" type="Const" version="opset1">
			<data element_type="f32" shape="1, 1, 768" offset="16368894" size="3072" />
			<output>
				<port id="0" precision="FP32">
					<dim>1</dim>
					<dim>1</dim>
					<dim>768</dim>
				</port>
			</output>
		</layer>
		<layer id="287" name="/decoders.0/norm3/Add_1_0_0/nncf_smooth_quant" type="Multiply" version="opset1">
			<data auto_broadcast="numpy" />
			<input>
				<port id="0" precision="FP32">
					<dim>-1</dim>
					<dim>-1</dim>
					<dim>768</dim>
				</port>
				<port id="1" precision="FP32">
					<dim>1</dim>
					<dim>1</dim>
					<dim>768</dim>
				</port>
			</input>
			<output>
				<port id="2" precision="FP32">
					<dim>-1</dim>
					<dim>-1</dim>
					<dim>768</dim>
				</port>
			</output>
		</layer>
		<layer id="288" name="/decoders.0/norm3/Add_1_0_0/nncf_smooth_quant/fq_output_0/input_low" type="Const" version="opset1">
			<data element_type="f32" shape="" offset="16371966" size="4" />
			<output>
				<port id="0" precision="FP32" />
			</output>
		</layer>
		<layer id="289" name="/decoders.0/norm3/Add_1_0_0/nncf_smooth_quant/fq_output_0/input_high" type="Const" version="opset1">
			<data element_type="f32" shape="" offset="16371970" size="4" />
			<output>
				<port id="0" precision="FP32" />
			</output>
		</layer>
		<layer id="290" name="/decoders.0/norm3/Add_1_0_0/nncf_smooth_quant/fq_output_0/output_low" type="Const" version="opset1">
			<data element_type="f32" shape="" offset="16371966" size="4" />
			<output>
				<port id="0" precision="FP32" />
			</output>
		</layer>
		<layer id="291" name="/decoders.0/norm3/Add_1_0_0/nncf_smooth_quant/fq_output_0/output_high" type="Const" version="opset1">
			<data element_type="f32" shape="" offset="16371970" size="4" />
			<output>
				<port id="0" precision="FP32" />
			</output>
		</layer>
		<layer id="292" name="/decoders.0/norm3/Add_1_0_0/nncf_smooth_quant/fq_output_0" type="FakeQuantize" version="opset1">
			<data levels="256" auto_broadcast="numpy" />
			<input>
				<port id="0" precision="FP32">
					<dim>-1</dim>
					<dim>-1</dim>
					<dim>768</dim>
				</port>
				<port id="1" precision="FP32" />
				<port id="2" precision="FP32" />
				<port id="3" precision="FP32" />
				<port id="4" precision="FP32" />
			</input>
			<output>
				<port id="5" precision="FP32">
					<dim>-1</dim>
					<dim>-1</dim>
					<dim>768</dim>
				</port>
			</output>
		</layer>
		<layer id="293" name="Constant_1468772" type="Const" version="opset1">
			<data element_type="i8" shape="3072, 768" offset="16371974" size="2359296" />
			<output>
				<port id="0" precision="I8">
					<dim>3072</dim>
					<dim>768</dim>
				</port>
			</output>
		</layer>
		<layer id="294" name="Convert_1468773" type="Convert" version="opset1">
			<data destination_type="f32" />
			<input>
				<port id="0" precision="I8">
					<dim>3072</dim>
					<dim>768</dim>
				</port>
			</input>
			<output>
				<port id="1" precision="FP32">
					<dim>3072</dim>
					<dim>768</dim>
				</port>
			</output>
		</layer>
		<layer id="295" name="Constant_1468774" type="Const" version="opset1">
			<data element_type="f32" shape="3072, 1" offset="18731270" size="12288" />
			<output>
				<port id="0" precision="FP32">
					<dim>3072</dim>
					<dim>1</dim>
				</port>
			</output>
		</layer>
		<layer id="296" name="/decoders.0/feed_forward/w_1/MatMul/fq_weights_1" type="Multiply" version="opset1">
			<data auto_broadcast="numpy" />
			<input>
				<port id="0" precision="FP32">
					<dim>3072</dim>
					<dim>768</dim>
				</port>
				<port id="1" precision="FP32">
					<dim>3072</dim>
					<dim>1</dim>
				</port>
			</input>
			<output>
				<port id="2" precision="FP32">
					<dim>3072</dim>
					<dim>768</dim>
				</port>
			</output>
		</layer>
		<layer id="297" name="/decoders.0/feed_forward/w_1/MatMul" type="MatMul" version="opset1">
			<data transpose_a="false" transpose_b="true" />
			<input>
				<port id="0" precision="FP32">
					<dim>-1</dim>
					<dim>-1</dim>
					<dim>768</dim>
				</port>
				<port id="1" precision="FP32">
					<dim>3072</dim>
					<dim>768</dim>
				</port>
			</input>
			<output>
				<port id="2" precision="FP32" names="/decoders.0/feed_forward/w_1/MatMul_output_0">
					<dim>-1</dim>
					<dim>-1</dim>
					<dim>3072</dim>
				</port>
			</output>
		</layer>
		<layer id="298" name="/decoders.0/feed_forward/w_1/Add" type="Add" version="opset1">
			<data auto_broadcast="numpy" />
			<input>
				<port id="0" precision="FP32">
					<dim>1</dim>
					<dim>1</dim>
					<dim>3072</dim>
				</port>
				<port id="1" precision="FP32">
					<dim>-1</dim>
					<dim>-1</dim>
					<dim>3072</dim>
				</port>
			</input>
			<output>
				<port id="2" precision="FP32" names="/decoders.0/feed_forward/w_1/Add_output_0">
					<dim>-1</dim>
					<dim>-1</dim>
					<dim>3072</dim>
				</port>
			</output>
		</layer>
		<layer id="299" name="/decoders.0/feed_forward/Relu" type="ReLU" version="opset1">
			<input>
				<port id="0" precision="FP32">
					<dim>-1</dim>
					<dim>-1</dim>
					<dim>3072</dim>
				</port>
			</input>
			<output>
				<port id="1" precision="FP32" names="/decoders.0/feed_forward/Relu_output_0">
					<dim>-1</dim>
					<dim>-1</dim>
					<dim>3072</dim>
				</port>
			</output>
		</layer>
		<layer id="300" name="/decoders.0/feed_forward/Relu_0_0/nncf_smooth_quant/scale" type="Const" version="opset1">
			<data element_type="f32" shape="1, 1, 3072" offset="18743558" size="12288" />
			<output>
				<port id="0" precision="FP32">
					<dim>1</dim>
					<dim>1</dim>
					<dim>3072</dim>
				</port>
			</output>
		</layer>
		<layer id="301" name="/decoders.0/feed_forward/Relu_0_0/nncf_smooth_quant" type="Multiply" version="opset1">
			<data auto_broadcast="numpy" />
			<input>
				<port id="0" precision="FP32">
					<dim>-1</dim>
					<dim>-1</dim>
					<dim>3072</dim>
				</port>
				<port id="1" precision="FP32">
					<dim>1</dim>
					<dim>1</dim>
					<dim>3072</dim>
				</port>
			</input>
			<output>
				<port id="2" precision="FP32">
					<dim>-1</dim>
					<dim>-1</dim>
					<dim>3072</dim>
				</port>
			</output>
		</layer>
		<layer id="302" name="/decoders.0/feed_forward/Relu_0_0/nncf_smooth_quant/fq_output_0/input_low" type="Const" version="opset1">
			<data element_type="f32" shape="" offset="11577862" size="4" />
			<output>
				<port id="0" precision="FP32" />
			</output>
		</layer>
		<layer id="303" name="/decoders.0/feed_forward/Relu_0_0/nncf_smooth_quant/fq_output_0/input_high" type="Const" version="opset1">
			<data element_type="f32" shape="" offset="18755846" size="4" />
			<output>
				<port id="0" precision="FP32" />
			</output>
		</layer>
		<layer id="304" name="/decoders.0/feed_forward/Relu_0_0/nncf_smooth_quant/fq_output_0/output_low" type="Const" version="opset1">
			<data element_type="f32" shape="" offset="11577862" size="4" />
			<output>
				<port id="0" precision="FP32" />
			</output>
		</layer>
		<layer id="305" name="/decoders.0/feed_forward/Relu_0_0/nncf_smooth_quant/fq_output_0/output_high" type="Const" version="opset1">
			<data element_type="f32" shape="" offset="18755846" size="4" />
			<output>
				<port id="0" precision="FP32" />
			</output>
		</layer>
		<layer id="306" name="/decoders.0/feed_forward/Relu_0_0/nncf_smooth_quant/fq_output_0" type="FakeQuantize" version="opset1">
			<data levels="256" auto_broadcast="numpy" />
			<input>
				<port id="0" precision="FP32">
					<dim>-1</dim>
					<dim>-1</dim>
					<dim>3072</dim>
				</port>
				<port id="1" precision="FP32" />
				<port id="2" precision="FP32" />
				<port id="3" precision="FP32" />
				<port id="4" precision="FP32" />
			</input>
			<output>
				<port id="5" precision="FP32">
					<dim>-1</dim>
					<dim>-1</dim>
					<dim>3072</dim>
				</port>
			</output>
		</layer>
		<layer id="307" name="Constant_1468777" type="Const" version="opset1">
			<data element_type="i8" shape="768, 3072" offset="18755850" size="2359296" />
			<output>
				<port id="0" precision="I8">
					<dim>768</dim>
					<dim>3072</dim>
				</port>
			</output>
		</layer>
		<layer id="308" name="Convert_1468778" type="Convert" version="opset1">
			<data destination_type="f32" />
			<input>
				<port id="0" precision="I8">
					<dim>768</dim>
					<dim>3072</dim>
				</port>
			</input>
			<output>
				<port id="1" precision="FP32">
					<dim>768</dim>
					<dim>3072</dim>
				</port>
			</output>
		</layer>
		<layer id="309" name="Constant_1468779" type="Const" version="opset1">
			<data element_type="f32" shape="768, 1" offset="21115146" size="3072" />
			<output>
				<port id="0" precision="FP32">
					<dim>768</dim>
					<dim>1</dim>
				</port>
			</output>
		</layer>
		<layer id="310" name="/decoders.0/feed_forward/w_2/MatMul/fq_weights_1" type="Multiply" version="opset1">
			<data auto_broadcast="numpy" />
			<input>
				<port id="0" precision="FP32">
					<dim>768</dim>
					<dim>3072</dim>
				</port>
				<port id="1" precision="FP32">
					<dim>768</dim>
					<dim>1</dim>
				</port>
			</input>
			<output>
				<port id="2" precision="FP32">
					<dim>768</dim>
					<dim>3072</dim>
				</port>
			</output>
		</layer>
		<layer id="311" name="/decoders.0/feed_forward/w_2/MatMul" type="MatMul" version="opset1">
			<data transpose_a="false" transpose_b="true" />
			<input>
				<port id="0" precision="FP32">
					<dim>-1</dim>
					<dim>-1</dim>
					<dim>3072</dim>
				</port>
				<port id="1" precision="FP32">
					<dim>768</dim>
					<dim>3072</dim>
				</port>
			</input>
			<output>
				<port id="2" precision="FP32" names="/decoders.0/feed_forward/w_2/MatMul_output_0">
					<dim>-1</dim>
					<dim>-1</dim>
					<dim>768</dim>
				</port>
			</output>
		</layer>
		<layer id="312" name="/decoders.0/feed_forward/w_2/Add" type="Add" version="opset1">
			<data auto_broadcast="numpy" />
			<input>
				<port id="0" precision="FP32">
					<dim>1</dim>
					<dim>1</dim>
					<dim>768</dim>
				</port>
				<port id="1" precision="FP32">
					<dim>-1</dim>
					<dim>-1</dim>
					<dim>768</dim>
				</port>
			</input>
			<output>
				<port id="2" precision="FP32" names="/decoders.0/feed_forward/w_2/Add_output_0">
					<dim>-1</dim>
					<dim>-1</dim>
					<dim>768</dim>
				</port>
			</output>
		</layer>
		<layer id="313" name="/decoders.0/Add_2" type="Add" version="opset1">
			<data auto_broadcast="numpy" />
			<input>
				<port id="0" precision="FP32">
					<dim>-1</dim>
					<dim>-1</dim>
					<dim>768</dim>
				</port>
				<port id="1" precision="FP32">
					<dim>-1</dim>
					<dim>-1</dim>
					<dim>768</dim>
				</port>
			</input>
			<output>
				<port id="2" precision="FP32" names="/decoders.0/Add_2_output_0">
					<dim>-1</dim>
					<dim>-1</dim>
					<dim>768</dim>
				</port>
			</output>
		</layer>
		<layer id="314" name="cache_out_0" type="Concat" version="opset1">
			<data axis="1" />
			<input>
				<port id="0" precision="FP32">
					<dim>-1</dim>
					<dim>-1</dim>
					<dim>768</dim>
				</port>
				<port id="1" precision="FP32">
					<dim>-1</dim>
					<dim>-1</dim>
					<dim>768</dim>
				</port>
			</input>
			<output>
				<port id="2" precision="FP32" names="cache_out_0">
					<dim>-1</dim>
					<dim>-1</dim>
					<dim>768</dim>
				</port>
			</output>
		</layer>
		<layer id="315" name="Constant_44323" type="Const" version="opset1">
			<data element_type="i64" shape="2" offset="11577882" size="16" />
			<rt_info>
				<attribute name="precise" version="0" />
			</rt_info>
			<output>
				<port id="0" precision="I64">
					<dim>2</dim>
				</port>
			</output>
		</layer>
		<layer id="316" name="Constant_44326" type="Const" version="opset1">
			<data element_type="i64" shape="2" offset="11577898" size="16" />
			<rt_info>
				<attribute name="precise" version="0" />
			</rt_info>
			<output>
				<port id="0" precision="I64">
					<dim>2</dim>
				</port>
			</output>
		</layer>
		<layer id="317" name="Constant_44329" type="Const" version="opset1">
			<data element_type="i64" shape="2" offset="11577866" size="16" />
			<rt_info>
				<attribute name="precise" version="0" />
			</rt_info>
			<output>
				<port id="0" precision="I64">
					<dim>2</dim>
				</port>
			</output>
		</layer>
		<layer id="318" name="/decoders.1/Slice_1" type="StridedSlice" version="opset1">
			<data begin_mask="1, 0" end_mask="1, 0" new_axis_mask="" shrink_axis_mask="" ellipsis_mask="" />
			<input>
				<port id="0" precision="FP32">
					<dim>-1</dim>
					<dim>-1</dim>
					<dim>768</dim>
				</port>
				<port id="1" precision="I64">
					<dim>2</dim>
				</port>
				<port id="2" precision="I64">
					<dim>2</dim>
				</port>
				<port id="3" precision="I64">
					<dim>2</dim>
				</port>
			</input>
			<output>
				<port id="4" precision="FP32" names="/decoders.1/Slice_1_output_0">
					<dim>-1</dim>
					<dim>-1</dim>
					<dim>768</dim>
				</port>
			</output>
		</layer>
		<layer id="319" name="Constant_45643_compressed" type="Const" version="opset1">
			<data element_type="f16" shape="1, 1, 768" offset="21118218" size="1536" />
			<output>
				<port id="0" precision="FP16">
					<dim>1</dim>
					<dim>1</dim>
					<dim>768</dim>
				</port>
			</output>
		</layer>
		<layer id="320" name="Constant_45643" type="Convert" version="opset1">
			<data destination_type="f32" />
			<rt_info>
				<attribute name="decompression" version="0" />
			</rt_info>
			<input>
				<port id="0" precision="FP16">
					<dim>1</dim>
					<dim>1</dim>
					<dim>768</dim>
				</port>
			</input>
			<output>
				<port id="1" precision="FP32">
					<dim>1</dim>
					<dim>1</dim>
					<dim>768</dim>
				</port>
			</output>
		</layer>
		<layer id="321" name="/decoders.1/self_attn/Constant_13_compressed" type="Const" version="opset1">
			<data element_type="f16" shape="" offset="11579450" size="2" />
			<output>
				<port id="0" precision="FP16" names="/decoders.1/self_attn/Constant_13_output_0" />
			</output>
		</layer>
		<layer id="322" name="/decoders.1/self_attn/Constant_13" type="Convert" version="opset1">
			<data destination_type="f32" />
			<rt_info>
				<attribute name="decompression" version="0" />
			</rt_info>
			<input>
				<port id="0" precision="FP16" />
			</input>
			<output>
				<port id="1" precision="FP32" />
			</output>
		</layer>
		<layer id="323" name="/decoders.1/self_attn/Constant_12" type="Const" version="opset1">
			<data element_type="f32" shape="" offset="11579452" size="4" />
			<output>
				<port id="0" precision="FP32" names="/decoders.1/self_attn/Constant_12_output_0" />
			</output>
		</layer>
		<layer id="324" name="Constant_45639_compressed" type="Const" version="opset1">
			<data element_type="f16" shape="1, 1, 768" offset="21119754" size="1536" />
			<output>
				<port id="0" precision="FP16">
					<dim>1</dim>
					<dim>1</dim>
					<dim>768</dim>
				</port>
			</output>
		</layer>
		<layer id="325" name="Constant_45639" type="Convert" version="opset1">
			<data destination_type="f32" />
			<rt_info>
				<attribute name="decompression" version="0" />
			</rt_info>
			<input>
				<port id="0" precision="FP16">
					<dim>1</dim>
					<dim>1</dim>
					<dim>768</dim>
				</port>
			</input>
			<output>
				<port id="1" precision="FP32">
					<dim>1</dim>
					<dim>1</dim>
					<dim>768</dim>
				</port>
			</output>
		</layer>
		<layer id="326" name="Constant_41692" type="Const" version="opset1">
			<data element_type="i64" shape="1" offset="11580992" size="8" />
			<output>
				<port id="0" precision="I64">
					<dim>1</dim>
				</port>
			</output>
		</layer>
		<layer id="327" name="/decoders.1/norm1/Div" type="MVN" version="opset6">
			<data eps="9.999999960041972e-13" normalize_variance="true" eps_mode="INSIDE_SQRT" />
			<input>
				<port id="0" precision="FP32">
					<dim>-1</dim>
					<dim>-1</dim>
					<dim>768</dim>
				</port>
				<port id="1" precision="I64">
					<dim>1</dim>
				</port>
			</input>
			<output>
				<port id="2" precision="FP32" names="/decoders.1/norm1/Div_output_0">
					<dim>-1</dim>
					<dim>-1</dim>
					<dim>768</dim>
				</port>
			</output>
		</layer>
		<layer id="328" name="Constant_45637_compressed" type="Const" version="opset1">
			<data element_type="f16" shape="1, 1, 768" offset="21121290" size="1536" />
			<output>
				<port id="0" precision="FP16">
					<dim>1</dim>
					<dim>1</dim>
					<dim>768</dim>
				</port>
			</output>
		</layer>
		<layer id="329" name="Constant_45637" type="Convert" version="opset1">
			<data destination_type="f32" />
			<rt_info>
				<attribute name="decompression" version="0" />
			</rt_info>
			<input>
				<port id="0" precision="FP16">
					<dim>1</dim>
					<dim>1</dim>
					<dim>768</dim>
				</port>
			</input>
			<output>
				<port id="1" precision="FP32">
					<dim>1</dim>
					<dim>1</dim>
					<dim>768</dim>
				</port>
			</output>
		</layer>
		<layer id="330" name="/decoders.1/norm1/Mul" type="Multiply" version="opset1">
			<data auto_broadcast="numpy" />
			<input>
				<port id="0" precision="FP32">
					<dim>-1</dim>
					<dim>-1</dim>
					<dim>768</dim>
				</port>
				<port id="1" precision="FP32">
					<dim>1</dim>
					<dim>1</dim>
					<dim>768</dim>
				</port>
			</input>
			<output>
				<port id="2" precision="FP32" names="/decoders.1/norm1/Mul_output_0">
					<dim>-1</dim>
					<dim>-1</dim>
					<dim>768</dim>
				</port>
			</output>
		</layer>
		<layer id="331" name="Constant_45638_compressed" type="Const" version="opset1">
			<data element_type="f16" shape="1, 1, 768" offset="21122826" size="1536" />
			<output>
				<port id="0" precision="FP16">
					<dim>1</dim>
					<dim>1</dim>
					<dim>768</dim>
				</port>
			</output>
		</layer>
		<layer id="332" name="Constant_45638" type="Convert" version="opset1">
			<data destination_type="f32" />
			<rt_info>
				<attribute name="decompression" version="0" />
			</rt_info>
			<input>
				<port id="0" precision="FP16">
					<dim>1</dim>
					<dim>1</dim>
					<dim>768</dim>
				</port>
			</input>
			<output>
				<port id="1" precision="FP32">
					<dim>1</dim>
					<dim>1</dim>
					<dim>768</dim>
				</port>
			</output>
		</layer>
		<layer id="333" name="/decoders.1/norm1/Add_1" type="Add" version="opset1">
			<data auto_broadcast="numpy" />
			<input>
				<port id="0" precision="FP32">
					<dim>-1</dim>
					<dim>-1</dim>
					<dim>768</dim>
				</port>
				<port id="1" precision="FP32">
					<dim>1</dim>
					<dim>1</dim>
					<dim>768</dim>
				</port>
			</input>
			<output>
				<port id="2" precision="FP32" names="/decoders.1/norm1/Add_1_output_0">
					<dim>-1</dim>
					<dim>-1</dim>
					<dim>768</dim>
				</port>
			</output>
		</layer>
		<layer id="334" name="Constant_44335" type="Const" version="opset1">
			<data element_type="i64" shape="2" offset="11577882" size="16" />
			<rt_info>
				<attribute name="precise" version="0" />
			</rt_info>
			<output>
				<port id="0" precision="I64">
					<dim>2</dim>
				</port>
			</output>
		</layer>
		<layer id="335" name="Constant_44338" type="Const" version="opset1">
			<data element_type="i64" shape="2" offset="11577898" size="16" />
			<rt_info>
				<attribute name="precise" version="0" />
			</rt_info>
			<output>
				<port id="0" precision="I64">
					<dim>2</dim>
				</port>
			</output>
		</layer>
		<layer id="336" name="Constant_44341" type="Const" version="opset1">
			<data element_type="i64" shape="2" offset="11577866" size="16" />
			<rt_info>
				<attribute name="precise" version="0" />
			</rt_info>
			<output>
				<port id="0" precision="I64">
					<dim>2</dim>
				</port>
			</output>
		</layer>
		<layer id="337" name="/decoders.1/Slice" type="StridedSlice" version="opset1">
			<data begin_mask="1, 0" end_mask="1, 0" new_axis_mask="" shrink_axis_mask="" ellipsis_mask="" />
			<input>
				<port id="0" precision="FP32">
					<dim>-1</dim>
					<dim>-1</dim>
					<dim>768</dim>
				</port>
				<port id="1" precision="I64">
					<dim>2</dim>
				</port>
				<port id="2" precision="I64">
					<dim>2</dim>
				</port>
				<port id="3" precision="I64">
					<dim>2</dim>
				</port>
			</input>
			<output>
				<port id="4" precision="FP32" names="/decoders.1/Slice_output_0">
					<dim>-1</dim>
					<dim>-1</dim>
					<dim>768</dim>
				</port>
			</output>
		</layer>
		<layer id="338" name="/decoders.1/Slice_0_0/nncf_smooth_quant/scale" type="Const" version="opset1">
			<data element_type="f32" shape="1, 1, 768" offset="21124362" size="3072" />
			<output>
				<port id="0" precision="FP32">
					<dim>1</dim>
					<dim>1</dim>
					<dim>768</dim>
				</port>
			</output>
		</layer>
		<layer id="339" name="/decoders.1/Slice_0_0/nncf_smooth_quant" type="Multiply" version="opset1">
			<data auto_broadcast="numpy" />
			<input>
				<port id="0" precision="FP32">
					<dim>-1</dim>
					<dim>-1</dim>
					<dim>768</dim>
				</port>
				<port id="1" precision="FP32">
					<dim>1</dim>
					<dim>1</dim>
					<dim>768</dim>
				</port>
			</input>
			<output>
				<port id="2" precision="FP32">
					<dim>-1</dim>
					<dim>-1</dim>
					<dim>768</dim>
				</port>
			</output>
		</layer>
		<layer id="340" name="/decoders.1/Slice_0_0/nncf_smooth_quant/fq_output_0/input_low" type="Const" version="opset1">
			<data element_type="f32" shape="" offset="21127434" size="4" />
			<output>
				<port id="0" precision="FP32" />
			</output>
		</layer>
		<layer id="341" name="/decoders.1/Slice_0_0/nncf_smooth_quant/fq_output_0/input_high" type="Const" version="opset1">
			<data element_type="f32" shape="" offset="21127438" size="4" />
			<output>
				<port id="0" precision="FP32" />
			</output>
		</layer>
		<layer id="342" name="/decoders.1/Slice_0_0/nncf_smooth_quant/fq_output_0/output_low" type="Const" version="opset1">
			<data element_type="f32" shape="" offset="21127434" size="4" />
			<output>
				<port id="0" precision="FP32" />
			</output>
		</layer>
		<layer id="343" name="/decoders.1/Slice_0_0/nncf_smooth_quant/fq_output_0/output_high" type="Const" version="opset1">
			<data element_type="f32" shape="" offset="21127438" size="4" />
			<output>
				<port id="0" precision="FP32" />
			</output>
		</layer>
		<layer id="344" name="/decoders.1/Slice_0_0/nncf_smooth_quant/fq_output_0" type="FakeQuantize" version="opset1">
			<data levels="256" auto_broadcast="numpy" />
			<input>
				<port id="0" precision="FP32">
					<dim>-1</dim>
					<dim>-1</dim>
					<dim>768</dim>
				</port>
				<port id="1" precision="FP32" />
				<port id="2" precision="FP32" />
				<port id="3" precision="FP32" />
				<port id="4" precision="FP32" />
			</input>
			<output>
				<port id="5" precision="FP32">
					<dim>-1</dim>
					<dim>-1</dim>
					<dim>768</dim>
				</port>
			</output>
		</layer>
		<layer id="345" name="Constant_1468782" type="Const" version="opset1">
			<data element_type="i8" shape="768, 768" offset="21127442" size="589824" />
			<output>
				<port id="0" precision="I8">
					<dim>768</dim>
					<dim>768</dim>
				</port>
			</output>
		</layer>
		<layer id="346" name="Convert_1468783" type="Convert" version="opset1">
			<data destination_type="f32" />
			<input>
				<port id="0" precision="I8">
					<dim>768</dim>
					<dim>768</dim>
				</port>
			</input>
			<output>
				<port id="1" precision="FP32">
					<dim>768</dim>
					<dim>768</dim>
				</port>
			</output>
		</layer>
		<layer id="347" name="Constant_1468784" type="Const" version="opset1">
			<data element_type="f32" shape="768, 1" offset="21717266" size="3072" />
			<output>
				<port id="0" precision="FP32">
					<dim>768</dim>
					<dim>1</dim>
				</port>
			</output>
		</layer>
		<layer id="348" name="/decoders.1/self_attn/linear_q/MatMul/fq_weights_1" type="Multiply" version="opset1">
			<data auto_broadcast="numpy" />
			<input>
				<port id="0" precision="FP32">
					<dim>768</dim>
					<dim>768</dim>
				</port>
				<port id="1" precision="FP32">
					<dim>768</dim>
					<dim>1</dim>
				</port>
			</input>
			<output>
				<port id="2" precision="FP32">
					<dim>768</dim>
					<dim>768</dim>
				</port>
			</output>
		</layer>
		<layer id="349" name="/decoders.1/self_attn/linear_q/MatMul" type="MatMul" version="opset1">
			<data transpose_a="false" transpose_b="true" />
			<input>
				<port id="0" precision="FP32">
					<dim>-1</dim>
					<dim>-1</dim>
					<dim>768</dim>
				</port>
				<port id="1" precision="FP32">
					<dim>768</dim>
					<dim>768</dim>
				</port>
			</input>
			<output>
				<port id="2" precision="FP32" names="/decoders.1/self_attn/linear_q/MatMul_output_0">
					<dim>-1</dim>
					<dim>-1</dim>
					<dim>768</dim>
				</port>
			</output>
		</layer>
		<layer id="350" name="/decoders.1/self_attn/linear_q/Add" type="Add" version="opset1">
			<data auto_broadcast="numpy" />
			<input>
				<port id="0" precision="FP32">
					<dim>1</dim>
					<dim>1</dim>
					<dim>768</dim>
				</port>
				<port id="1" precision="FP32">
					<dim>-1</dim>
					<dim>-1</dim>
					<dim>768</dim>
				</port>
			</input>
			<output>
				<port id="2" precision="FP32" names="/decoders.1/self_attn/linear_q/Add_output_0">
					<dim>-1</dim>
					<dim>-1</dim>
					<dim>768</dim>
				</port>
			</output>
		</layer>
		<layer id="351" name="/decoders.1/self_attn/linear_q/Add/fq_output_0/input_low" type="Const" version="opset1">
			<data element_type="f32" shape="" offset="21720338" size="4" />
			<output>
				<port id="0" precision="FP32" />
			</output>
		</layer>
		<layer id="352" name="/decoders.1/self_attn/linear_q/Add/fq_output_0/input_high" type="Const" version="opset1">
			<data element_type="f32" shape="" offset="21720342" size="4" />
			<output>
				<port id="0" precision="FP32" />
			</output>
		</layer>
		<layer id="353" name="/decoders.1/self_attn/linear_q/Add/fq_output_0/output_low" type="Const" version="opset1">
			<data element_type="f32" shape="" offset="21720338" size="4" />
			<output>
				<port id="0" precision="FP32" />
			</output>
		</layer>
		<layer id="354" name="/decoders.1/self_attn/linear_q/Add/fq_output_0/output_high" type="Const" version="opset1">
			<data element_type="f32" shape="" offset="21720342" size="4" />
			<output>
				<port id="0" precision="FP32" />
			</output>
		</layer>
		<layer id="355" name="/decoders.1/self_attn/linear_q/Add/fq_output_0" type="FakeQuantize" version="opset1">
			<data levels="256" auto_broadcast="numpy" />
			<input>
				<port id="0" precision="FP32">
					<dim>-1</dim>
					<dim>-1</dim>
					<dim>768</dim>
				</port>
				<port id="1" precision="FP32" />
				<port id="2" precision="FP32" />
				<port id="3" precision="FP32" />
				<port id="4" precision="FP32" />
			</input>
			<output>
				<port id="5" precision="FP32">
					<dim>-1</dim>
					<dim>-1</dim>
					<dim>768</dim>
				</port>
			</output>
		</layer>
		<layer id="356" name="/decoders.1/self_attn/Shape" type="ShapeOf" version="opset3">
			<data output_type="i64" />
			<input>
				<port id="0" precision="FP32">
					<dim>-1</dim>
					<dim>-1</dim>
					<dim>768</dim>
				</port>
			</input>
			<output>
				<port id="1" precision="I64" names="/decoders.1/self_attn/Shape_output_0">
					<dim>3</dim>
				</port>
			</output>
		</layer>
		<layer id="357" name="Constant_44212" type="Const" version="opset1">
			<data element_type="i64" shape="1" offset="3897828" size="8" />
			<rt_info>
				<attribute name="precise" version="0" />
			</rt_info>
			<output>
				<port id="0" precision="I64">
					<dim>1</dim>
				</port>
			</output>
		</layer>
		<layer id="358" name="Constant_41717" type="Const" version="opset1">
			<data element_type="i64" shape="" offset="3897828" size="8" />
			<rt_info>
				<attribute name="precise" version="0" />
			</rt_info>
			<output>
				<port id="0" precision="I64" />
			</output>
		</layer>
		<layer id="359" name="/decoders.1/self_attn/Gather" type="Gather" version="opset8">
			<data batch_dims="0" />
			<input>
				<port id="0" precision="I64">
					<dim>3</dim>
				</port>
				<port id="1" precision="I64">
					<dim>1</dim>
				</port>
				<port id="2" precision="I64" />
			</input>
			<output>
				<port id="3" precision="I64" names="/decoders.1/self_attn/Gather_output_0,/decoders.1/self_attn/Unsqueeze_1_output_0,/decoders.1/self_attn/Unsqueeze_2_output_0,/decoders.1/self_attn/Unsqueeze_output_0">
					<dim>1</dim>
				</port>
			</output>
		</layer>
		<layer id="360" name="/decoders.1/self_attn/Constant_1" type="Const" version="opset1">
			<data element_type="i64" shape="1" offset="11580992" size="8" />
			<rt_info>
				<attribute name="precise" version="0" />
			</rt_info>
			<output>
				<port id="0" precision="I64" names="/decoders.1/self_attn/Constant_1_output_0">
					<dim>1</dim>
				</port>
			</output>
		</layer>
		<layer id="361" name="/decoders.1/self_attn/Constant_2" type="Const" version="opset1">
			<data element_type="i64" shape="1" offset="12180056" size="8" />
			<rt_info>
				<attribute name="precise" version="0" />
			</rt_info>
			<output>
				<port id="0" precision="I64" names="/decoders.1/self_attn/Constant_2_output_0">
					<dim>1</dim>
				</port>
			</output>
		</layer>
		<layer id="362" name="/decoders.1/self_attn/Constant_3" type="Const" version="opset1">
			<data element_type="i64" shape="1" offset="12180064" size="8" />
			<rt_info>
				<attribute name="precise" version="0" />
			</rt_info>
			<output>
				<port id="0" precision="I64" names="/decoders.1/self_attn/Constant_3_output_0">
					<dim>1</dim>
				</port>
			</output>
		</layer>
		<layer id="363" name="/decoders.1/self_attn/Concat" type="Concat" version="opset1">
			<data axis="0" />
			<input>
				<port id="0" precision="I64">
					<dim>1</dim>
				</port>
				<port id="1" precision="I64">
					<dim>1</dim>
				</port>
				<port id="2" precision="I64">
					<dim>1</dim>
				</port>
				<port id="3" precision="I64">
					<dim>1</dim>
				</port>
			</input>
			<output>
				<port id="4" precision="I64" names="/decoders.1/self_attn/Concat_1_output_0,/decoders.1/self_attn/Concat_2_output_0,/decoders.1/self_attn/Concat_output_0">
					<dim>4</dim>
				</port>
			</output>
		</layer>
		<layer id="364" name="/decoders.1/self_attn/Reshape" type="Reshape" version="opset1">
			<data special_zero="true" />
			<input>
				<port id="0" precision="FP32">
					<dim>-1</dim>
					<dim>-1</dim>
					<dim>768</dim>
				</port>
				<port id="1" precision="I64">
					<dim>4</dim>
				</port>
			</input>
			<output>
				<port id="2" precision="FP32" names="/decoders.1/self_attn/Reshape_output_0">
					<dim>-1</dim>
					<dim>-1</dim>
					<dim>12</dim>
					<dim>64</dim>
				</port>
			</output>
		</layer>
		<layer id="365" name="Constant_41749" type="Const" version="opset1">
			<data element_type="i64" shape="4" offset="12180072" size="32" />
			<output>
				<port id="0" precision="I64">
					<dim>4</dim>
				</port>
			</output>
		</layer>
		<layer id="366" name="/decoders.1/self_attn/Transpose" type="Transpose" version="opset1">
			<input>
				<port id="0" precision="FP32">
					<dim>-1</dim>
					<dim>-1</dim>
					<dim>12</dim>
					<dim>64</dim>
				</port>
				<port id="1" precision="I64">
					<dim>4</dim>
				</port>
			</input>
			<output>
				<port id="2" precision="FP32" names="/decoders.1/self_attn/Transpose_output_0">
					<dim>-1</dim>
					<dim>12</dim>
					<dim>-1</dim>
					<dim>64</dim>
				</port>
			</output>
		</layer>
		<layer id="367" name="Constant_45640_compressed" type="Const" version="opset1">
			<data element_type="f16" shape="1, 1, 768" offset="21720346" size="1536" />
			<output>
				<port id="0" precision="FP16">
					<dim>1</dim>
					<dim>1</dim>
					<dim>768</dim>
				</port>
			</output>
		</layer>
		<layer id="368" name="Constant_45640" type="Convert" version="opset1">
			<data destination_type="f32" />
			<rt_info>
				<attribute name="decompression" version="0" />
			</rt_info>
			<input>
				<port id="0" precision="FP16">
					<dim>1</dim>
					<dim>1</dim>
					<dim>768</dim>
				</port>
			</input>
			<output>
				<port id="1" precision="FP32">
					<dim>1</dim>
					<dim>1</dim>
					<dim>768</dim>
				</port>
			</output>
		</layer>
		<layer id="369" name="/decoders.1/norm1/Add_1_0_0/nncf_smooth_quant/scale" type="Const" version="opset1">
			<data element_type="f32" shape="1, 1, 768" offset="21721882" size="3072" />
			<output>
				<port id="0" precision="FP32">
					<dim>1</dim>
					<dim>1</dim>
					<dim>768</dim>
				</port>
			</output>
		</layer>
		<layer id="370" name="/decoders.1/norm1/Add_1_0_0/nncf_smooth_quant" type="Multiply" version="opset1">
			<data auto_broadcast="numpy" />
			<input>
				<port id="0" precision="FP32">
					<dim>-1</dim>
					<dim>-1</dim>
					<dim>768</dim>
				</port>
				<port id="1" precision="FP32">
					<dim>1</dim>
					<dim>1</dim>
					<dim>768</dim>
				</port>
			</input>
			<output>
				<port id="2" precision="FP32">
					<dim>-1</dim>
					<dim>-1</dim>
					<dim>768</dim>
				</port>
			</output>
		</layer>
		<layer id="371" name="/decoders.1/norm1/Add_1_0_0/nncf_smooth_quant/fq_output_0/input_low" type="Const" version="opset1">
			<data element_type="f32" shape="" offset="21724954" size="4" />
			<output>
				<port id="0" precision="FP32" />
			</output>
		</layer>
		<layer id="372" name="/decoders.1/norm1/Add_1_0_0/nncf_smooth_quant/fq_output_0/input_high" type="Const" version="opset1">
			<data element_type="f32" shape="" offset="21724958" size="4" />
			<output>
				<port id="0" precision="FP32" />
			</output>
		</layer>
		<layer id="373" name="/decoders.1/norm1/Add_1_0_0/nncf_smooth_quant/fq_output_0/output_low" type="Const" version="opset1">
			<data element_type="f32" shape="" offset="21724954" size="4" />
			<output>
				<port id="0" precision="FP32" />
			</output>
		</layer>
		<layer id="374" name="/decoders.1/norm1/Add_1_0_0/nncf_smooth_quant/fq_output_0/output_high" type="Const" version="opset1">
			<data element_type="f32" shape="" offset="21724958" size="4" />
			<output>
				<port id="0" precision="FP32" />
			</output>
		</layer>
		<layer id="375" name="/decoders.1/norm1/Add_1_0_0/nncf_smooth_quant/fq_output_0" type="FakeQuantize" version="opset1">
			<data levels="256" auto_broadcast="numpy" />
			<input>
				<port id="0" precision="FP32">
					<dim>-1</dim>
					<dim>-1</dim>
					<dim>768</dim>
				</port>
				<port id="1" precision="FP32" />
				<port id="2" precision="FP32" />
				<port id="3" precision="FP32" />
				<port id="4" precision="FP32" />
			</input>
			<output>
				<port id="5" precision="FP32">
					<dim>-1</dim>
					<dim>-1</dim>
					<dim>768</dim>
				</port>
			</output>
		</layer>
		<layer id="376" name="Constant_1468787" type="Const" version="opset1">
			<data element_type="i8" shape="768, 768" offset="21724962" size="589824" />
			<output>
				<port id="0" precision="I8">
					<dim>768</dim>
					<dim>768</dim>
				</port>
			</output>
		</layer>
		<layer id="377" name="Convert_1468788" type="Convert" version="opset1">
			<data destination_type="f32" />
			<input>
				<port id="0" precision="I8">
					<dim>768</dim>
					<dim>768</dim>
				</port>
			</input>
			<output>
				<port id="1" precision="FP32">
					<dim>768</dim>
					<dim>768</dim>
				</port>
			</output>
		</layer>
		<layer id="378" name="Constant_1468789" type="Const" version="opset1">
			<data element_type="f32" shape="768, 1" offset="22314786" size="3072" />
			<output>
				<port id="0" precision="FP32">
					<dim>768</dim>
					<dim>1</dim>
				</port>
			</output>
		</layer>
		<layer id="379" name="/decoders.1/self_attn/linear_k/MatMul/fq_weights_1" type="Multiply" version="opset1">
			<data auto_broadcast="numpy" />
			<input>
				<port id="0" precision="FP32">
					<dim>768</dim>
					<dim>768</dim>
				</port>
				<port id="1" precision="FP32">
					<dim>768</dim>
					<dim>1</dim>
				</port>
			</input>
			<output>
				<port id="2" precision="FP32">
					<dim>768</dim>
					<dim>768</dim>
				</port>
			</output>
		</layer>
		<layer id="380" name="/decoders.1/self_attn/linear_k/MatMul" type="MatMul" version="opset1">
			<data transpose_a="false" transpose_b="true" />
			<input>
				<port id="0" precision="FP32">
					<dim>-1</dim>
					<dim>-1</dim>
					<dim>768</dim>
				</port>
				<port id="1" precision="FP32">
					<dim>768</dim>
					<dim>768</dim>
				</port>
			</input>
			<output>
				<port id="2" precision="FP32" names="/decoders.1/self_attn/linear_k/MatMul_output_0">
					<dim>-1</dim>
					<dim>-1</dim>
					<dim>768</dim>
				</port>
			</output>
		</layer>
		<layer id="381" name="/decoders.1/self_attn/linear_k/Add" type="Add" version="opset1">
			<data auto_broadcast="numpy" />
			<input>
				<port id="0" precision="FP32">
					<dim>1</dim>
					<dim>1</dim>
					<dim>768</dim>
				</port>
				<port id="1" precision="FP32">
					<dim>-1</dim>
					<dim>-1</dim>
					<dim>768</dim>
				</port>
			</input>
			<output>
				<port id="2" precision="FP32" names="/decoders.1/self_attn/linear_k/Add_output_0">
					<dim>-1</dim>
					<dim>-1</dim>
					<dim>768</dim>
				</port>
			</output>
		</layer>
		<layer id="382" name="/decoders.1/self_attn/Reshape_1" type="Reshape" version="opset1">
			<data special_zero="true" />
			<input>
				<port id="0" precision="FP32">
					<dim>-1</dim>
					<dim>-1</dim>
					<dim>768</dim>
				</port>
				<port id="1" precision="I64">
					<dim>4</dim>
				</port>
			</input>
			<output>
				<port id="2" precision="FP32" names="/decoders.1/self_attn/Reshape_1_output_0">
					<dim>-1</dim>
					<dim>-1</dim>
					<dim>12</dim>
					<dim>64</dim>
				</port>
			</output>
		</layer>
		<layer id="383" name="Constant_41753" type="Const" version="opset1">
			<data element_type="i64" shape="4" offset="12777616" size="32" />
			<output>
				<port id="0" precision="I64">
					<dim>4</dim>
				</port>
			</output>
		</layer>
		<layer id="384" name="/decoders.1/self_attn/Transpose_2" type="Transpose" version="opset1">
			<input>
				<port id="0" precision="FP32">
					<dim>-1</dim>
					<dim>-1</dim>
					<dim>12</dim>
					<dim>64</dim>
				</port>
				<port id="1" precision="I64">
					<dim>4</dim>
				</port>
			</input>
			<output>
				<port id="2" precision="FP32" names="/decoders.1/self_attn/Transpose_2_output_0">
					<dim>-1</dim>
					<dim>12</dim>
					<dim>64</dim>
					<dim>-1</dim>
				</port>
			</output>
		</layer>
		<layer id="385" name="Constant_45641_compressed" type="Const" version="opset1">
			<data element_type="f16" shape="1, 1, 1, 1" offset="12777648" size="2" />
			<output>
				<port id="0" precision="FP16">
…
		<edge from-layer="1017" from-port="2" to-layer="1037" to-port="0" />
		<edge from-layer="1018" from-port="0" to-layer="1019" to-port="0" />
		<edge from-layer="1019" from-port="1" to-layer="1025" to-port="0" />
		<edge from-layer="1020" from-port="0" to-layer="1021" to-port="0" />
		<edge from-layer="1021" from-port="1" to-layer="1023" to-port="0" />
		<edge from-layer="1022" from-port="0" to-layer="1023" to-port="1" />
		<edge from-layer="1023" from-port="2" to-layer="1024" to-port="1" />
		<edge from-layer="1024" from-port="2" to-layer="1025" to-port="1" />
		<edge from-layer="1025" from-port="2" to-layer="1026" to-port="0" />
		<edge from-layer="1026" from-port="2" to-layer="1028" to-port="0" />
		<edge from-layer="1027" from-port="0" to-layer="1028" to-port="1" />
		<edge from-layer="1028" from-port="2" to-layer="1031" to-port="0" />
		<edge from-layer="1029" from-port="0" to-layer="1030" to-port="0" />
		<edge from-layer="1030" from-port="1" to-layer="1031" to-port="1" />
		<edge from-layer="1031" from-port="2" to-layer="1036" to-port="0" />
		<edge from-layer="1032" from-port="0" to-layer="1036" to-port="1" />
		<edge from-layer="1033" from-port="0" to-layer="1036" to-port="2" />
		<edge from-layer="1034" from-port="0" to-layer="1036" to-port="3" />
		<edge from-layer="1035" from-port="0" to-layer="1036" to-port="4" />
		<edge from-layer="1036" from-port="5" to-layer="1037" to-port="1" />
		<edge from-layer="1037" from-port="2" to-layer="1038" to-port="0" />
		<edge from-layer="1038" from-port="1" to-layer="1050" to-port="0" />
		<edge from-layer="1039" from-port="0" to-layer="1040" to-port="0" />
		<edge from-layer="1040" from-port="1" to-layer="1046" to-port="0" />
		<edge from-layer="1041" from-port="0" to-layer="1042" to-port="0" />
		<edge from-layer="1042" from-port="1" to-layer="1044" to-port="0" />
		<edge from-layer="1043" from-port="0" to-layer="1044" to-port="1" />
		<edge from-layer="1044" from-port="2" to-layer="1045" to-port="1" />
		<edge from-layer="1045" from-port="2" to-layer="1046" to-port="1" />
		<edge from-layer="1046" from-port="2" to-layer="1047" to-port="0" />
		<edge from-layer="1047" from-port="2" to-layer="1049" to-port="0" />
		<edge from-layer="1048" from-port="0" to-layer="1049" to-port="1" />
		<edge from-layer="1049" from-port="2" to-layer="1053" to-port="0" />
		<edge from-layer="1049" from-port="2" to-layer="1050" to-port="1" />
		<edge from-layer="1050" from-port="2" to-layer="1052" to-port="0" />
		<edge from-layer="1051" from-port="0" to-layer="1052" to-port="1" />
		<edge from-layer="1052" from-port="2" to-layer="1060" to-port="0" />
		<edge from-layer="1053" from-port="1" to-layer="1056" to-port="0" />
		<edge from-layer="1054" from-port="0" to-layer="1056" to-port="1" />
		<edge from-layer="1055" from-port="0" to-layer="1056" to-port="2" />
		<edge from-layer="1056" from-port="3" to-layer="1059" to-port="0" />
		<edge from-layer="1057" from-port="0" to-layer="1059" to-port="1" />
		<edge from-layer="1058" from-port="0" to-layer="1059" to-port="2" />
		<edge from-layer="1059" from-port="3" to-layer="1060" to-port="1" />
		<edge from-layer="1060" from-port="2" to-layer="1062" to-port="0" />
		<edge from-layer="1061" from-port="0" to-layer="1062" to-port="1" />
		<edge from-layer="1062" from-port="2" to-layer="1067" to-port="0" />
		<edge from-layer="1063" from-port="0" to-layer="1067" to-port="1" />
		<edge from-layer="1064" from-port="0" to-layer="1067" to-port="2" />
		<edge from-layer="1065" from-port="0" to-layer="1067" to-port="3" />
		<edge from-layer="1066" from-port="0" to-layer="1067" to-port="4" />
		<edge from-layer="1067" from-port="5" to-layer="1072" to-port="0" />
		<edge from-layer="1068" from-port="0" to-layer="1069" to-port="0" />
		<edge from-layer="1069" from-port="1" to-layer="1071" to-port="0" />
		<edge from-layer="1070" from-port="0" to-layer="1071" to-port="1" />
		<edge from-layer="1071" from-port="2" to-layer="1072" to-port="1" />
		<edge from-layer="1072" from-port="2" to-layer="1073" to-port="1" />
		<edge from-layer="1073" from-port="2" to-layer="1074" to-port="1" />
		<edge from-layer="1074" from-port="2" to-layer="1114" to-port="0" />
		<edge from-layer="1074" from-port="2" to-layer="1080" to-port="0" />
		<edge from-layer="1075" from-port="0" to-layer="1076" to-port="0" />
		<edge from-layer="1076" from-port="1" to-layer="1113" to-port="0" />
		<edge from-layer="1077" from-port="0" to-layer="1078" to-port="0" />
		<edge from-layer="1078" from-port="1" to-layer="1099" to-port="0" />
		<edge from-layer="1079" from-port="0" to-layer="1080" to-port="1" />
		<edge from-layer="1080" from-port="2" to-layer="1083" to-port="0" />
		<edge from-layer="1081" from-port="0" to-layer="1082" to-port="0" />
		<edge from-layer="1082" from-port="1" to-layer="1083" to-port="1" />
		<edge from-layer="1083" from-port="2" to-layer="1086" to-port="0" />
		<edge from-layer="1084" from-port="0" to-layer="1085" to-port="0" />
		<edge from-layer="1085" from-port="1" to-layer="1086" to-port="1" />
		<edge from-layer="1086" from-port="2" to-layer="1088" to-port="0" />
		<edge from-layer="1087" from-port="0" to-layer="1088" to-port="1" />
		<edge from-layer="1088" from-port="2" to-layer="1093" to-port="0" />
		<edge from-layer="1089" from-port="0" to-layer="1093" to-port="1" />
		<edge from-layer="1090" from-port="0" to-layer="1093" to-port="2" />
		<edge from-layer="1091" from-port="0" to-layer="1093" to-port="3" />
		<edge from-layer="1092" from-port="0" to-layer="1093" to-port="4" />
		<edge from-layer="1093" from-port="5" to-layer="1098" to-port="0" />
		<edge from-layer="1094" from-port="0" to-layer="1095" to-port="0" />
		<edge from-layer="1095" from-port="1" to-layer="1097" to-port="0" />
		<edge from-layer="1096" from-port="0" to-layer="1097" to-port="1" />
		<edge from-layer="1097" from-port="2" to-layer="1098" to-port="1" />
		<edge from-layer="1098" from-port="2" to-layer="1099" to-port="1" />
		<edge from-layer="1099" from-port="2" to-layer="1100" to-port="0" />
		<edge from-layer="1100" from-port="1" to-layer="1102" to-port="0" />
		<edge from-layer="1101" from-port="0" to-layer="1102" to-port="1" />
		<edge from-layer="1102" from-port="2" to-layer="1107" to-port="0" />
		<edge from-layer="1103" from-port="0" to-layer="1107" to-port="1" />
		<edge from-layer="1104" from-port="0" to-layer="1107" to-port="2" />
		<edge from-layer="1105" from-port="0" to-layer="1107" to-port="3" />
		<edge from-layer="1106" from-port="0" to-layer="1107" to-port="4" />
		<edge from-layer="1107" from-port="5" to-layer="1112" to-port="0" />
		<edge from-layer="1108" from-port="0" to-layer="1109" to-port="0" />
		<edge from-layer="1109" from-port="1" to-layer="1111" to-port="0" />
		<edge from-layer="1110" from-port="0" to-layer="1111" to-port="1" />
		<edge from-layer="1111" from-port="2" to-layer="1112" to-port="1" />
		<edge from-layer="1112" from-port="2" to-layer="1113" to-port="1" />
		<edge from-layer="1113" from-port="2" to-layer="1114" to-port="1" />
		<edge from-layer="1114" from-port="2" to-layer="1115" to-port="1" />
		<edge from-layer="1115" from-port="2" to-layer="1128" to-port="0" />
		<edge from-layer="1115" from-port="2" to-layer="1652" to-port="0" />
		<edge from-layer="1115" from-port="2" to-layer="1119" to-port="0" />
		<edge from-layer="1116" from-port="0" to-layer="1119" to-port="1" />
		<edge from-layer="1117" from-port="0" to-layer="1119" to-port="2" />
		<edge from-layer="1118" from-port="0" to-layer="1119" to-port="3" />
		<edge from-layer="1119" from-port="4" to-layer="1243" to-port="0" />
		<edge from-layer="1120" from-port="0" to-layer="1121" to-port="0" />
		<edge from-layer="1121" from-port="1" to-layer="1242" to-port="0" />
		<edge from-layer="1122" from-port="0" to-layer="1123" to-port="0" />
		<edge from-layer="1123" from-port="1" to-layer="1197" to-port="1" />
		<edge from-layer="1124" from-port="0" to-layer="1195" to-port="1" />
		<edge from-layer="1125" from-port="0" to-layer="1126" to-port="0" />
		<edge from-layer="1126" from-port="1" to-layer="1151" to-port="0" />
		<edge from-layer="1127" from-port="0" to-layer="1128" to-port="1" />
		<edge from-layer="1128" from-port="2" to-layer="1131" to-port="0" />
		<edge from-layer="1129" from-port="0" to-layer="1130" to-port="0" />
		<edge from-layer="1130" from-port="1" to-layer="1131" to-port="1" />
		<edge from-layer="1131" from-port="2" to-layer="1134" to-port="0" />
		<edge from-layer="1132" from-port="0" to-layer="1133" to-port="0" />
		<edge from-layer="1133" from-port="1" to-layer="1134" to-port="1" />
		<edge from-layer="1134" from-port="2" to-layer="1138" to-port="0" />
		<edge from-layer="1134" from-port="2" to-layer="1171" to-port="0" />
		<edge from-layer="1135" from-port="0" to-layer="1138" to-port="1" />
		<edge from-layer="1136" from-port="0" to-layer="1138" to-port="2" />
		<edge from-layer="1137" from-port="0" to-layer="1138" to-port="3" />
		<edge from-layer="1138" from-port="4" to-layer="1157" to-port="0" />
		<edge from-layer="1138" from-port="4" to-layer="1140" to-port="0" />
		<edge from-layer="1139" from-port="0" to-layer="1140" to-port="1" />
		<edge from-layer="1140" from-port="2" to-layer="1145" to-port="0" />
		<edge from-layer="1141" from-port="0" to-layer="1145" to-port="1" />
		<edge from-layer="1142" from-port="0" to-layer="1145" to-port="2" />
		<edge from-layer="1143" from-port="0" to-layer="1145" to-port="3" />
		<edge from-layer="1144" from-port="0" to-layer="1145" to-port="4" />
		<edge from-layer="1145" from-port="5" to-layer="1150" to-port="0" />
		<edge from-layer="1146" from-port="0" to-layer="1147" to-port="0" />
		<edge from-layer="1147" from-port="1" to-layer="1149" to-port="0" />
		<edge from-layer="1148" from-port="0" to-layer="1149" to-port="1" />
		<edge from-layer="1149" from-port="2" to-layer="1150" to-port="1" />
		<edge from-layer="1150" from-port="2" to-layer="1151" to-port="1" />
		<edge from-layer="1151" from-port="2" to-layer="1156" to-port="0" />
		<edge from-layer="1152" from-port="0" to-layer="1156" to-port="1" />
		<edge from-layer="1153" from-port="0" to-layer="1156" to-port="2" />
		<edge from-layer="1154" from-port="0" to-layer="1156" to-port="3" />
		<edge from-layer="1155" from-port="0" to-layer="1156" to-port="4" />
		<edge from-layer="1156" from-port="5" to-layer="1165" to-port="0" />
		<edge from-layer="1157" from-port="1" to-layer="1160" to-port="0" />
		<edge from-layer="1158" from-port="0" to-layer="1160" to-port="1" />
		<edge from-layer="1159" from-port="0" to-layer="1160" to-port="2" />
		<edge from-layer="1160" from-port="3" to-layer="1164" to-port="0" />
		<edge from-layer="1161" from-port="0" to-layer="1164" to-port="1" />
		<edge from-layer="1162" from-port="0" to-layer="1164" to-port="2" />
		<edge from-layer="1163" from-port="0" to-layer="1164" to-port="3" />
		<edge from-layer="1164" from-port="4" to-layer="1216" to-port="1" />
		<edge from-layer="1164" from-port="4" to-layer="1165" to-port="1" />
		<edge from-layer="1164" from-port="4" to-layer="1183" to-port="1" />
		<edge from-layer="1165" from-port="2" to-layer="1167" to-port="0" />
		<edge from-layer="1166" from-port="0" to-layer="1167" to-port="1" />
		<edge from-layer="1167" from-port="2" to-layer="1194" to-port="0" />
		<edge from-layer="1168" from-port="0" to-layer="1169" to-port="0" />
		<edge from-layer="1169" from-port="1" to-layer="1182" to-port="0" />
		<edge from-layer="1170" from-port="0" to-layer="1171" to-port="1" />
		<edge from-layer="1171" from-port="2" to-layer="1176" to-port="0" />
		<edge from-layer="1172" from-port="0" to-layer="1176" to-port="1" />
		<edge from-layer="1173" from-port="0" to-layer="1176" to-port="2" />
		<edge from-layer="1174" from-port="0" to-layer="1176" to-port="3" />
		<edge from-layer="1175" from-port="0" to-layer="1176" to-port="4" />
		<edge from-layer="1176" from-port="5" to-layer="1209" to-port="0" />
		<edge from-layer="1176" from-port="5" to-layer="1181" to-port="0" />
		<edge from-layer="1177" from-port="0" to-layer="1178" to-port="0" />
		<edge from-layer="1178" from-port="1" to-layer="1180" to-port="0" />
		<edge from-layer="1179" from-port="0" to-layer="1180" to-port="1" />
		<edge from-layer="1180" from-port="2" to-layer="1181" to-port="1" />
		<edge from-layer="1181" from-port="2" to-layer="1182" to-port="1" />
		<edge from-layer="1182" from-port="2" to-layer="1183" to-port="0" />
		<edge from-layer="1183" from-port="2" to-layer="1185" to-port="0" />
		<edge from-layer="1184" from-port="0" to-layer="1185" to-port="1" />
		<edge from-layer="1185" from-port="2" to-layer="1188" to-port="0" />
		<edge from-layer="1186" from-port="0" to-layer="1187" to-port="0" />
		<edge from-layer="1187" from-port="1" to-layer="1188" to-port="1" />
		<edge from-layer="1188" from-port="2" to-layer="1193" to-port="0" />
		<edge from-layer="1189" from-port="0" to-layer="1193" to-port="1" />
		<edge from-layer="1190" from-port="0" to-layer="1193" to-port="2" />
		<edge from-layer="1191" from-port="0" to-layer="1193" to-port="3" />
		<edge from-layer="1192" from-port="0" to-layer="1193" to-port="4" />
		<edge from-layer="1193" from-port="5" to-layer="1194" to-port="1" />
		<edge from-layer="1194" from-port="2" to-layer="1195" to-port="2" />
		<edge from-layer="1195" from-port="3" to-layer="1196" to-port="0" />
		<edge from-layer="1196" from-port="1" to-layer="1197" to-port="2" />
		<edge from-layer="1197" from-port="3" to-layer="1202" to-port="0" />
		<edge from-layer="1198" from-port="0" to-layer="1202" to-port="1" />
		<edge from-layer="1199" from-port="0" to-layer="1202" to-port="2" />
		<edge from-layer="1200" from-port="0" to-layer="1202" to-port="3" />
		<edge from-layer="1201" from-port="0" to-layer="1202" to-port="4" />
		<edge from-layer="1202" from-port="5" to-layer="1219" to-port="0" />
		<edge from-layer="1203" from-port="0" to-layer="1204" to-port="0" />
		<edge from-layer="1204" from-port="1" to-layer="1210" to-port="0" />
		<edge from-layer="1205" from-port="0" to-layer="1206" to-port="0" />
		<edge from-layer="1206" from-port="1" to-layer="1208" to-port="0" />
		<edge from-layer="1207" from-port="0" to-layer="1208" to-port="1" />
		<edge from-layer="1208" from-port="2" to-layer="1209" to-port="1" />
		<edge from-layer="1209" from-port="2" to-layer="1210" to-port="1" />
		<edge from-layer="1210" from-port="2" to-layer="1215" to-port="0" />
		<edge from-layer="1211" from-port="0" to-layer="1215" to-port="1" />
		<edge from-layer="1212" from-port="0" to-layer="1215" to-port="2" />
		<edge from-layer="1213" from-port="0" to-layer="1215" to-port="3" />
		<edge from-layer="1214" from-port="0" to-layer="1215" to-port="4" />
		<edge from-layer="1215" from-port="5" to-layer="1216" to-port="0" />
		<edge from-layer="1216" from-port="2" to-layer="1218" to-port="0" />
		<edge from-layer="1217" from-port="0" to-layer="1218" to-port="1" />
		<edge from-layer="1218" from-port="2" to-layer="1219" to-port="1" />
		<edge from-layer="1218" from-port="2" to-layer="1222" to-port="0" />
		<edge from-layer="1219" from-port="2" to-layer="1221" to-port="0" />
		<edge from-layer="1220" from-port="0" to-layer="1221" to-port="1" />
		<edge from-layer="1221" from-port="2" to-layer="1229" to-port="0" />
		<edge from-layer="1222" from-port="1" to-layer="1225" to-port="0" />
		<edge from-layer="1223" from-port="0" to-layer="1225" to-port="1" />
		<edge from-layer="1224" from-port="0" to-layer="1225" to-port="2" />
		<edge from-layer="1225" from-port="3" to-layer="1228" to-port="0" />
		<edge from-layer="1226" from-port="0" to-layer="1228" to-port="1" />
		<edge from-layer="1227" from-port="0" to-layer="1228" to-port="2" />
		<edge from-layer="1228" from-port="3" to-layer="1229" to-port="1" />
		<edge from-layer="1229" from-port="2" to-layer="1231" to-port="0" />
		<edge from-layer="1230" from-port="0" to-layer="1231" to-port="1" />
		<edge from-layer="1231" from-port="2" to-layer="1236" to-port="0" />
		<edge from-layer="1232" from-port="0" to-layer="1236" to-port="1" />
		<edge from-layer="1233" from-port="0" to-layer="1236" to-port="2" />
		<edge from-layer="1234" from-port="0" to-layer="1236" to-port="3" />
		<edge from-layer="1235" from-port="0" to-layer="1236" to-port="4" />
		<edge from-layer="1236" from-port="5" to-layer="1241" to-port="0" />
		<edge from-layer="1237" from-port="0" to-layer="1238" to-port="0" />
		<edge from-layer="1238" from-port="1" to-layer="1240" to-port="0" />
		<edge from-layer="1239" from-port="0" to-layer="1240" to-port="1" />
		<edge from-layer="1240" from-port="2" to-layer="1241" to-port="1" />
		<edge from-layer="1241" from-port="2" to-layer="1242" to-port="1" />
		<edge from-layer="1242" from-port="2" to-layer="1243" to-port="1" />
		<edge from-layer="1243" from-port="2" to-layer="1341" to-port="0" />
		<edge from-layer="1243" from-port="2" to-layer="1249" to-port="0" />
		<edge from-layer="1244" from-port="0" to-layer="1245" to-port="0" />
		<edge from-layer="1245" from-port="1" to-layer="1340" to-port="0" />
		<edge from-layer="1246" from-port="0" to-layer="1247" to-port="0" />
		<edge from-layer="1247" from-port="1" to-layer="1268" to-port="0" />
		<edge from-layer="1248" from-port="0" to-layer="1249" to-port="1" />
		<edge from-layer="1249" from-port="2" to-layer="1252" to-port="0" />
		<edge from-layer="1250" from-port="0" to-layer="1251" to-port="0" />
		<edge from-layer="1251" from-port="1" to-layer="1252" to-port="1" />
		<edge from-layer="1252" from-port="2" to-layer="1255" to-port="0" />
		<edge from-layer="1253" from-port="0" to-layer="1254" to-port="0" />
		<edge from-layer="1254" from-port="1" to-layer="1255" to-port="1" />
		<edge from-layer="1255" from-port="2" to-layer="1257" to-port="0" />
		<edge from-layer="1255" from-port="2" to-layer="1274" to-port="0" />
		<edge from-layer="1256" from-port="0" to-layer="1257" to-port="1" />
		<edge from-layer="1257" from-port="2" to-layer="1262" to-port="0" />
		<edge from-layer="1258" from-port="0" to-layer="1262" to-port="1" />
		<edge from-layer="1259" from-port="0" to-layer="1262" to-port="2" />
		<edge from-layer="1260" from-port="0" to-layer="1262" to-port="3" />
		<edge from-layer="1261" from-port="0" to-layer="1262" to-port="4" />
		<edge from-layer="1262" from-port="5" to-layer="1267" to-port="0" />
		<edge from-layer="1263" from-port="0" to-layer="1264" to-port="0" />
		<edge from-layer="1264" from-port="1" to-layer="1266" to-port="0" />
		<edge from-layer="1265" from-port="0" to-layer="1266" to-port="1" />
		<edge from-layer="1266" from-port="2" to-layer="1267" to-port="1" />
		<edge from-layer="1267" from-port="2" to-layer="1268" to-port="1" />
		<edge from-layer="1268" from-port="2" to-layer="1273" to-port="0" />
		<edge from-layer="1269" from-port="0" to-layer="1273" to-port="1" />
		<edge from-layer="1270" from-port="0" to-layer="1273" to-port="2" />
		<edge from-layer="1271" from-port="0" to-layer="1273" to-port="3" />
		<edge from-layer="1272" from-port="0" to-layer="1273" to-port="4" />
		<edge from-layer="1273" from-port="5" to-layer="1282" to-port="0" />
		<edge from-layer="1274" from-port="1" to-layer="1277" to-port="0" />
		<edge from-layer="1275" from-port="0" to-layer="1277" to-port="1" />
		<edge from-layer="1276" from-port="0" to-layer="1277" to-port="2" />
		<edge from-layer="1277" from-port="3" to-layer="1281" to-port="0" />
		<edge from-layer="1278" from-port="0" to-layer="1281" to-port="1" />
		<edge from-layer="1279" from-port="0" to-layer="1281" to-port="2" />
		<edge from-layer="1280" from-port="0" to-layer="1281" to-port="3" />
		<edge from-layer="1281" from-port="4" to-layer="1293" to-port="1" />
		<edge from-layer="1281" from-port="4" to-layer="1282" to-port="1" />
		<edge from-layer="1281" from-port="4" to-layer="1314" to-port="1" />
		<edge from-layer="1282" from-port="2" to-layer="1284" to-port="0" />
		<edge from-layer="1283" from-port="0" to-layer="1284" to-port="1" />
		<edge from-layer="1284" from-port="2" to-layer="1304" to-port="0" />
		<edge from-layer="1285" from-port="0" to-layer="1286" to-port="0" />
		<edge from-layer="1286" from-port="1" to-layer="1292" to-port="0" />
		<edge from-layer="1287" from-port="0" to-layer="1288" to-port="0" />
		<edge from-layer="1288" from-port="1" to-layer="1290" to-port="0" />
		<edge from-layer="1289" from-port="0" to-layer="1290" to-port="1" />
		<edge from-layer="1290" from-port="2" to-layer="1291" to-port="1" />
		<edge from-layer="1291" from-port="2" to-layer="1292" to-port="1" />
		<edge from-layer="1292" from-port="2" to-layer="1293" to-port="0" />
		<edge from-layer="1293" from-port="2" to-layer="1295" to-port="0" />
		<edge from-layer="1294" from-port="0" to-layer="1295" to-port="1" />
		<edge from-layer="1295" from-port="2" to-layer="1298" to-port="0" />
		<edge from-layer="1296" from-port="0" to-layer="1297" to-port="0" />
		<edge from-layer="1297" from-port="1" to-layer="1298" to-port="1" />
		<edge from-layer="1298" from-port="2" to-layer="1303" to-port="0" />
		<edge from-layer="1299" from-port="0" to-layer="1303" to-port="1" />
		<edge from-layer="1300" from-port="0" to-layer="1303" to-port="2" />
		<edge from-layer="1301" from-port="0" to-layer="1303" to-port="3" />
		<edge from-layer="1302" from-port="0" to-layer="1303" to-port="4" />
		<edge from-layer="1303" from-port="5" to-layer="1304" to-port="1" />
		<edge from-layer="1304" from-port="2" to-layer="1305" to-port="0" />
		<edge from-layer="1305" from-port="1" to-layer="1317" to-port="0" />
		<edge from-layer="1306" from-port="0" to-layer="1307" to-port="0" />
		<edge from-layer="1307" from-port="1" to-layer="1313" to-port="0" />
		<edge from-layer="1308" from-port="0" to-layer="1309" to-port="0" />
		<edge from-layer="1309" from-port="1" to-layer="1311" to-port="0" />
		<edge from-layer="1310" from-port="0" to-layer="1311" to-port="1" />
		<edge from-layer="1311" from-port="2" to-layer="1312" to-port="1" />
		<edge from-layer="1312" from-port="2" to-layer="1313" to-port="1" />
		<edge from-layer="1313" from-port="2" to-layer="1314" to-port="0" />
		<edge from-layer="1314" from-port="2" to-layer="1316" to-port="0" />
		<edge from-layer="1315" from-port="0" to-layer="1316" to-port="1" />
		<edge from-layer="1316" from-port="2" to-layer="1320" to-port="0" />
		<edge from-layer="1316" from-port="2" to-layer="1317" to-port="1" />
		<edge from-layer="1317" from-port="2" to-layer="1319" to-port="0" />
		<edge from-layer="1318" from-port="0" to-layer="1319" to-port="1" />
		<edge from-layer="1319" from-port="2" to-layer="1327" to-port="0" />
		<edge from-layer="1320" from-port="1" to-layer="1323" to-port="0" />
		<edge from-layer="1321" from-port="0" to-layer="1323" to-port="1" />
		<edge from-layer="1322" from-port="0" to-layer="1323" to-port="2" />
		<edge from-layer="1323" from-port="3" to-layer="1326" to-port="0" />
		<edge from-layer="1324" from-port="0" to-layer="1326" to-port="1" />
		<edge from-layer="1325" from-port="0" to-layer="1326" to-port="2" />
		<edge from-layer="1326" from-port="3" to-layer="1327" to-port="1" />
		<edge from-layer="1327" from-port="2" to-layer="1329" to-port="0" />
		<edge from-layer="1328" from-port="0" to-layer="1329" to-port="1" />
		<edge from-layer="1329" from-port="2" to-layer="1334" to-port="0" />
		<edge from-layer="1330" from-port="0" to-layer="1334" to-port="1" />
		<edge from-layer="1331" from-port="0" to-layer="1334" to-port="2" />
		<edge from-layer="1332" from-port="0" to-layer="1334" to-port="3" />
		<edge from-layer="1333" from-port="0" to-layer="1334" to-port="4" />
		<edge from-layer="1334" from-port="5" to-layer="1339" to-port="0" />
		<edge from-layer="1335" from-port="0" to-layer="1336" to-port="0" />
		<edge from-layer="1336" from-port="1" to-layer="1338" to-port="0" />
		<edge from-layer="1337" from-port="0" to-layer="1338" to-port="1" />
		<edge from-layer="1338" from-port="2" to-layer="1339" to-port="1" />
		<edge from-layer="1339" from-port="2" to-layer="1340" to-port="1" />
		<edge from-layer="1340" from-port="2" to-layer="1341" to-port="1" />
		<edge from-layer="1341" from-port="2" to-layer="1381" to-port="0" />
		<edge from-layer="1341" from-port="2" to-layer="1347" to-port="0" />
		<edge from-layer="1342" from-port="0" to-layer="1343" to-port="0" />
		<edge from-layer="1343" from-port="1" to-layer="1380" to-port="0" />
		<edge from-layer="1344" from-port="0" to-layer="1345" to-port="0" />
		<edge from-layer="1345" from-port="1" to-layer="1366" to-port="0" />
		<edge from-layer="1346" from-port="0" to-layer="1347" to-port="1" />
		<edge from-layer="1347" from-port="2" to-layer="1350" to-port="0" />
		<edge from-layer="1348" from-port="0" to-layer="1349" to-port="0" />
		<edge from-layer="1349" from-port="1" to-layer="1350" to-port="1" />
		<edge from-layer="1350" from-port="2" to-layer="1353" to-port="0" />
		<edge from-layer="1351" from-port="0" to-layer="1352" to-port="0" />
		<edge from-layer="1352" from-port="1" to-layer="1353" to-port="1" />
		<edge from-layer="1353" from-port="2" to-layer="1355" to-port="0" />
		<edge from-layer="1354" from-port="0" to-layer="1355" to-port="1" />
		<edge from-layer="1355" from-port="2" to-layer="1360" to-port="0" />
		<edge from-layer="1356" from-port="0" to-layer="1360" to-port="1" />
		<edge from-layer="1357" from-port="0" to-layer="1360" to-port="2" />
		<edge from-layer="1358" from-port="0" to-layer="1360" to-port="3" />
		<edge from-layer="1359" from-port="0" to-layer="1360" to-port="4" />
		<edge from-layer="1360" from-port="5" to-layer="1365" to-port="0" />
		<edge from-layer="1361" from-port="0" to-layer="1362" to-port="0" />
		<edge from-layer="1362" from-port="1" to-layer="1364" to-port="0" />
		<edge from-layer="1363" from-port="0" to-layer="1364" to-port="1" />
		<edge from-layer="1364" from-port="2" to-layer="1365" to-port="1" />
		<edge from-layer="1365" from-port="2" to-layer="1366" to-port="1" />
		<edge from-layer="1366" from-port="2" to-layer="1367" to-port="0" />
		<edge from-layer="1367" from-port="1" to-layer="1369" to-port="0" />
		<edge from-layer="1368" from-port="0" to-layer="1369" to-port="1" />
		<edge from-layer="1369" from-port="2" to-layer="1374" to-port="0" />
		<edge from-layer="1370" from-port="0" to-layer="1374" to-port="1" />
		<edge from-layer="1371" from-port="0" to-layer="1374" to-port="2" />
		<edge from-layer="1372" from-port="0" to-layer="1374" to-port="3" />
		<edge from-layer="1373" from-port="0" to-layer="1374" to-port="4" />
		<edge from-layer="1374" from-port="5" to-layer="1379" to-port="0" />
		<edge from-layer="1375" from-port="0" to-layer="1376" to-port="0" />
		<edge from-layer="1376" from-port="1" to-layer="1378" to-port="0" />
		<edge from-layer="1377" from-port="0" to-layer="1378" to-port="1" />
		<edge from-layer="1378" from-port="2" to-layer="1379" to-port="1" />
		<edge from-layer="1379" from-port="2" to-layer="1380" to-port="1" />
		<edge from-layer="1380" from-port="2" to-layer="1381" to-port="1" />
		<edge from-layer="1381" from-port="2" to-layer="1382" to-port="1" />
		<edge from-layer="1382" from-port="2" to-layer="1395" to-port="0" />
		<edge from-layer="1382" from-port="2" to-layer="1651" to-port="0" />
		<edge from-layer="1382" from-port="2" to-layer="1386" to-port="0" />
		<edge from-layer="1383" from-port="0" to-layer="1386" to-port="1" />
		<edge from-layer="1384" from-port="0" to-layer="1386" to-port="2" />
		<edge from-layer="1385" from-port="0" to-layer="1386" to-port="3" />
		<edge from-layer="1386" from-port="4" to-layer="1510" to-port="0" />
		<edge from-layer="1387" from-port="0" to-layer="1388" to-port="0" />
		<edge from-layer="1388" from-port="1" to-layer="1509" to-port="0" />
		<edge from-layer="1389" from-port="0" to-layer="1390" to-port="0" />
		<edge from-layer="1390" from-port="1" to-layer="1464" to-port="1" />
		<edge from-layer="1391" from-port="0" to-layer="1462" to-port="1" />
		<edge from-layer="1392" from-port="0" to-layer="1393" to-port="0" />
		<edge from-layer="1393" from-port="1" to-layer="1418" to-port="0" />
		<edge from-layer="1394" from-port="0" to-layer="1395" to-port="1" />
		<edge from-layer="1395" from-port="2" to-layer="1398" to-port="0" />
		<edge from-layer="1396" from-port="0" to-layer="1397" to-port="0" />
		<edge from-layer="1397" from-port="1" to-layer="1398" to-port="1" />
		<edge from-layer="1398" from-port="2" to-layer="1401" to-port="0" />
		<edge from-layer="1399" from-port="0" to-layer="1400" to-port="0" />
		<edge from-layer="1400" from-port="1" to-layer="1401" to-port="1" />
		<edge from-layer="1401" from-port="2" to-layer="1438" to-port="0" />
		<edge from-layer="1401" from-port="2" to-layer="1405" to-port="0" />
		<edge from-layer="1402" from-port="0" to-layer="1405" to-port="1" />
		<edge from-layer="1403" from-port="0" to-layer="1405" to-port="2" />
		<edge from-layer="1404" from-port="0" to-layer="1405" to-port="3" />
		<edge from-layer="1405" from-port="4" to-layer="1407" to-port="0" />
		<edge from-layer="1405" from-port="4" to-layer="1424" to-port="0" />
		<edge from-layer="1406" from-port="0" to-layer="1407" to-port="1" />
		<edge from-layer="1407" from-port="2" to-layer="1412" to-port="0" />
		<edge from-layer="1408" from-port="0" to-layer="1412" to-port="1" />
		<edge from-layer="1409" from-port="0" to-layer="1412" to-port="2" />
		<edge from-layer="1410" from-port="0" to-layer="1412" to-port="3" />
		<edge from-layer="1411" from-port="0" to-layer="1412" to-port="4" />
		<edge from-layer="1412" from-port="5" to-layer="1417" to-port="0" />
		<edge from-layer="1413" from-port="0" to-layer="1414" to-port="0" />
		<edge from-layer="1414" from-port="1" to-layer="1416" to-port="0" />
		<edge from-layer="1415" from-port="0" to-layer="1416" to-port="1" />
		<edge from-layer="1416" from-port="2" to-layer="1417" to-port="1" />
		<edge from-layer="1417" from-port="2" to-layer="1418" to-port="1" />
		<edge from-layer="1418" from-port="2" to-layer="1423" to-port="0" />
		<edge from-layer="1419" from-port="0" to-layer="1423" to-port="1" />
		<edge from-layer="1420" from-port="0" to-layer="1423" to-port="2" />
		<edge from-layer="1421" from-port="0" to-layer="1423" to-port="3" />
		<edge from-layer="1422" from-port="0" to-layer="1423" to-port="4" />
		<edge from-layer="1423" from-port="5" to-layer="1432" to-port="0" />
		<edge from-layer="1424" from-port="1" to-layer="1427" to-port="0" />
		<edge from-layer="1425" from-port="0" to-layer="1427" to-port="1" />
		<edge from-layer="1426" from-port="0" to-layer="1427" to-port="2" />
		<edge from-layer="1427" from-port="3" to-layer="1431" to-port="0" />
		<edge from-layer="1428" from-port="0" to-layer="1431" to-port="1" />
		<edge from-layer="1429" from-port="0" to-layer="1431" to-port="2" />
		<edge from-layer="1430" from-port="0" to-layer="1431" to-port="3" />
		<edge from-layer="1431" from-port="4" to-layer="1483" to-port="1" />
		<edge from-layer="1431" from-port="4" to-layer="1450" to-port="1" />
		<edge from-layer="1431" from-port="4" to-layer="1432" to-port="1" />
		<edge from-layer="1432" from-port="2" to-layer="1434" to-port="0" />
		<edge from-layer="1433" from-port="0" to-layer="1434" to-port="1" />
		<edge from-layer="1434" from-port="2" to-layer="1461" to-port="0" />
		<edge from-layer="1435" from-port="0" to-layer="1436" to-port="0" />
		<edge from-layer="1436" from-port="1" to-layer="1449" to-port="0" />
		<edge from-layer="1437" from-port="0" to-layer="1438" to-port="1" />
		<edge from-layer="1438" from-port="2" to-layer="1443" to-port="0" />
		<edge from-layer="1439" from-port="0" to-layer="1443" to-port="1" />
		<edge from-layer="1440" from-port="0" to-layer="1443" to-port="2" />
		<edge from-layer="1441" from-port="0" to-layer="1443" to-port="3" />
		<edge from-layer="1442" from-port="0" to-layer="1443" to-port="4" />
		<edge from-layer="1443" from-port="5" to-layer="1448" to-port="0" />
		<edge from-layer="1443" from-port="5" to-layer="1476" to-port="0" />
		<edge from-layer="1444" from-port="0" to-layer="1445" to-port="0" />
		<edge from-layer="1445" from-port="1" to-layer="1447" to-port="0" />
		<edge from-layer="1446" from-port="0" to-layer="1447" to-port="1" />
		<edge from-layer="1447" from-port="2" to-layer="1448" to-port="1" />
		<edge from-layer="1448" from-port="2" to-layer="1449" to-port="1" />
		<edge from-layer="1449" from-port="2" to-layer="1450" to-port="0" />
		<edge from-layer="1450" from-port="2" to-layer="1452" to-port="0" />
		<edge from-layer="1451" from-port="0" to-layer="1452" to-port="1" />
		<edge from-layer="1452" from-port="2" to-layer="1455" to-port="0" />
		<edge from-layer="1453" from-port="0" to-layer="1454" to-port="0" />
		<edge from-layer="1454" from-port="1" to-layer="1455" to-port="1" />
		<edge from-layer="1455" from-port="2" to-layer="1460" to-port="0" />
		<edge from-layer="1456" from-port="0" to-layer="1460" to-port="1" />
		<edge from-layer="1457" from-port="0" to-layer="1460" to-port="2" />
		<edge from-layer="1458" from-port="0" to-layer="1460" to-port="3" />
		<edge from-layer="1459" from-port="0" to-layer="1460" to-port="4" />
		<edge from-layer="1460" from-port="5" to-layer="1461" to-port="1" />
		<edge from-layer="1461" from-port="2" to-layer="1462" to-port="2" />
		<edge from-layer="1462" from-port="3" to-layer="1463" to-port="0" />
		<edge from-layer="1463" from-port="1" to-layer="1464" to-port="2" />
		<edge from-layer="1464" from-port="3" to-layer="1469" to-port="0" />
		<edge from-layer="1465" from-port="0" to-layer="1469" to-port="1" />
		<edge from-layer="1466" from-port="0" to-layer="1469" to-port="2" />
		<edge from-layer="1467" from-port="0" to-layer="1469" to-port="3" />
		<edge from-layer="1468" from-port="0" to-layer="1469" to-port="4" />
		<edge from-layer="1469" from-port="5" to-layer="1486" to-port="0" />
		<edge from-layer="1470" from-port="0" to-layer="1471" to-port="0" />
		<edge from-layer="1471" from-port="1" to-layer="1477" to-port="0" />
		<edge from-layer="1472" from-port="0" to-layer="1473" to-port="0" />
		<edge from-layer="1473" from-port="1" to-layer="1475" to-port="0" />
		<edge from-layer="1474" from-port="0" to-layer="1475" to-port="1" />
		<edge from-layer="1475" from-port="2" to-layer="1476" to-port="1" />
		<edge from-layer="1476" from-port="2" to-layer="1477" to-port="1" />
		<edge from-layer="1477" from-port="2" to-layer="1482" to-port="0" />
		<edge from-layer="1478" from-port="0" to-layer="1482" to-port="1" />
		<edge from-layer="1479" from-port="0" to-layer="1482" to-port="2" />
		<edge from-layer="1480" from-port="0" to-layer="1482" to-port="3" />
		<edge from-layer="1481" from-port="0" to-layer="1482" to-port="4" />
		<edge from-layer="1482" from-port="5" to-layer="1483" to-port="0" />
		<edge from-layer="1483" from-port="2" to-layer="1485" to-port="0" />
		<edge from-layer="1484" from-port="0" to-layer="1485" to-port="1" />
		<edge from-layer="1485" from-port="2" to-layer="1489" to-port="0" />
		<edge from-layer="1485" from-port="2" to-layer="1486" to-port="1" />
		<edge from-layer="1486" from-port="2" to-layer="1488" to-port="0" />
		<edge from-layer="1487" from-port="0" to-layer="1488" to-port="1" />
		<edge from-layer="1488" from-port="2" to-layer="1496" to-port="0" />
		<edge from-layer="1489" from-port="1" to-layer="1492" to-port="0" />
		<edge from-layer="1490" from-port="0" to-layer="1492" to-port="1" />
		<edge from-layer="1491" from-port="0" to-layer="1492" to-port="2" />
		<edge from-layer="1492" from-port="3" to-layer="1495" to-port="0" />
		<edge from-layer="1493" from-port="0" to-layer="1495" to-port="1" />
		<edge from-layer="1494" from-port="0" to-layer="1495" to-port="2" />
		<edge from-layer="1495" from-port="3" to-layer="1496" to-port="1" />
		<edge from-layer="1496" from-port="2" to-layer="1498" to-port="0" />
		<edge from-layer="1497" from-port="0" to-layer="1498" to-port="1" />
		<edge from-layer="1498" from-port="2" to-layer="1503" to-port="0" />
		<edge from-layer="1499" from-port="0" to-layer="1503" to-port="1" />
		<edge from-layer="1500" from-port="0" to-layer="1503" to-port="2" />
		<edge from-layer="1501" from-port="0" to-layer="1503" to-port="3" />
		<edge from-layer="1502" from-port="0" to-layer="1503" to-port="4" />
		<edge from-layer="1503" from-port="5" to-layer="1508" to-port="0" />
		<edge from-layer="1504" from-port="0" to-layer="1505" to-port="0" />
		<edge from-layer="1505" from-port="1" to-layer="1507" to-port="0" />
		<edge from-layer="1506" from-port="0" to-layer="1507" to-port="1" />
		<edge from-layer="1507" from-port="2" to-layer="1508" to-port="1" />
		<edge from-layer="1508" from-port="2" to-layer="1509" to-port="1" />
		<edge from-layer="1509" from-port="2" to-layer="1510" to-port="1" />
		<edge from-layer="1510" from-port="2" to-layer="1516" to-port="0" />
		<edge from-layer="1510" from-port="2" to-layer="1608" to-port="0" />
		<edge from-layer="1511" from-port="0" to-layer="1512" to-port="0" />
		<edge from-layer="1512" from-port="1" to-layer="1607" to-port="0" />
		<edge from-layer="1513" from-port="0" to-layer="1514" to-port="0" />
		<edge from-layer="1514" from-port="1" to-layer="1535" to-port="0" />
		<edge from-layer="1515" from-port="0" to-layer="1516" to-port="1" />
		<edge from-layer="1516" from-port="2" to-layer="1519" to-port="0" />
		<edge from-layer="1517" from-port="0" to-layer="1518" to-port="0" />
		<edge from-layer="1518" from-port="1" to-layer="1519" to-port="1" />
		<edge from-layer="1519" from-port="2" to-layer="1522" to-port="0" />
		<edge from-layer="1520" from-port="0" to-layer="1521" to-port="0" />
		<edge from-layer="1521" from-port="1" to-layer="1522" to-port="1" />
		<edge from-layer="1522" from-port="2" to-layer="1524" to-port="0" />
		<edge from-layer="1522" from-port="2" to-layer="1541" to-port="0" />
		<edge from-layer="1523" from-port="0" to-layer="1524" to-port="1" />
		<edge from-layer="1524" from-port="2" to-layer="1529" to-port="0" />
		<edge from-layer="1525" from-port="0" to-layer="1529" to-port="1" />
		<edge from-layer="1526" from-port="0" to-layer="1529" to-port="2" />
		<edge from-layer="1527" from-port="0" to-layer="1529" to-port="3" />
		<edge from-layer="1528" from-port="0" to-layer="1529" to-port="4" />
		<edge from-layer="1529" from-port="5" to-layer="1534" to-port="0" />
		<edge from-layer="1530" from-port="0" to-layer="1531" to-port="0" />
		<edge from-layer="1531" from-port="1" to-layer="1533" to-port="0" />
		<edge from-layer="1532" from-port="0" to-layer="1533" to-port="1" />
		<edge from-layer="1533" from-port="2" to-layer="1534" to-port="1" />
		<edge from-layer="1534" from-port="2" to-layer="1535" to-port="1" />
		<edge from-layer="1535" from-port="2" to-layer="1540" to-port="0" />
		<edge from-layer="1536" from-port="0" to-layer="1540" to-port="1" />
		<edge from-layer="1537" from-port="0" to-layer="1540" to-port="2" />
		<edge from-layer="1538" from-port="0" to-layer="1540" to-port="3" />
		<edge from-layer="1539" from-port="0" to-layer="1540" to-port="4" />
		<edge from-layer="1540" from-port="5" to-layer="1549" to-port="0" />
		<edge from-layer="1541" from-port="1" to-layer="1544" to-port="0" />
		<edge from-layer="1542" from-port="0" to-layer="1544" to-port="1" />
		<edge from-layer="1543" from-port="0" to-layer="1544" to-port="2" />
		<edge from-layer="1544" from-port="3" to-layer="1548" to-port="0" />
		<edge from-layer="1545" from-port="0" to-layer="1548" to-port="1" />
		<edge from-layer="1546" from-port="0" to-layer="1548" to-port="2" />
		<edge from-layer="1547" from-port="0" to-layer="1548" to-port="3" />
		<edge from-layer="1548" from-port="4" to-layer="1549" to-port="1" />
		<edge from-layer="1548" from-port="4" to-layer="1581" to-port="1" />
		<edge from-layer="1548" from-port="4" to-layer="1560" to-port="1" />
		<edge from-layer="1549" from-port="2" to-layer="1551" to-port="0" />
		<edge from-layer="1550" from-port="0" to-layer="1551" to-port="1" />
		<edge from-layer="1551" from-port="2" to-layer="1571" to-port="0" />
		<edge from-layer="1552" from-port="0" to-layer="1553" to-port="0" />
		<edge from-layer="1553" from-port="1" to-layer="1559" to-port="0" />
		<edge from-layer="1554" from-port="0" to-layer="1555" to-port="0" />
		<edge from-layer="1555" from-port="1" to-layer="1557" to-port="0" />
		<edge from-layer="1556" from-port="0" to-layer="1557" to-port="1" />
		<edge from-layer="1557" from-port="2" to-layer="1558" to-port="1" />
		<edge from-layer="1558" from-port="2" to-layer="1559" to-port="1" />
		<edge from-layer="1559" from-port="2" to-layer="1560" to-port="0" />
		<edge from-layer="1560" from-port="2" to-layer="1562" to-port="0" />
		<edge from-layer="1561" from-port="0" to-layer="1562" to-port="1" />
		<edge from-layer="1562" from-port="2" to-layer="1565" to-port="0" />
		<edge from-layer="1563" from-port="0" to-layer="1564" to-port="0" />
		<edge from-layer="1564" from-port="1" to-layer="1565" to-port="1" />
		<edge from-layer="1565" from-port="2" to-layer="1570" to-port="0" />
		<edge from-layer="1566" from-port="0" to-layer="1570" to-port="1" />
		<edge from-layer="1567" from-port="0" to-layer="1570" to-port="2" />
		<edge from-layer="1568" from-port="0" to-layer="1570" to-port="3" />
		<edge from-layer="1569" from-port="0" to-layer="1570" to-port="4" />
		<edge from-layer="1570" from-port="5" to-layer="1571" to-port="1" />
		<edge from-layer="1571" from-port="2" to-layer="1572" to-port="0" />
		<edge from-layer="1572" from-port="1" to-layer="1584" to-port="0" />
		<edge from-layer="1573" from-port="0" to-layer="1574" to-port="0" />
		<edge from-layer="1574" from-port="1" to-layer="1580" to-port="0" />
		<edge from-layer="1575" from-port="0" to-layer="1576" to-port="0" />
		<edge from-layer="1576" from-port="1" to-layer="1578" to-port="0" />
		<edge from-layer="1577" from-port="0" to-layer="1578" to-port="1" />
		<edge from-layer="1578" from-port="2" to-layer="1579" to-port="1" />
		<edge from-layer="1579" from-port="2" to-layer="1580" to-port="1" />
		<edge from-layer="1580" from-port="2" to-layer="1581" to-port="0" />
		<edge from-layer="1581" from-port="2" to-layer="1583" to-port="0" />
		<edge from-layer="1582" from-port="0" to-layer="1583" to-port="1" />
		<edge from-layer="1583" from-port="2" to-layer="1587" to-port="0" />
		<edge from-layer="1583" from-port="2" to-layer="1584" to-port="1" />
		<edge from-layer="1584" from-port="2" to-layer="1586" to-port="0" />
		<edge from-layer="1585" from-port="0" to-layer="1586" to-port="1" />
		<edge from-layer="1586" from-port="2" to-layer="1594" to-port="0" />
		<edge from-layer="1587" from-port="1" to-layer="1590" to-port="0" />
		<edge from-layer="1588" from-port="0" to-layer="1590" to-port="1" />
		<edge from-layer="1589" from-port="0" to-layer="1590" to-port="2" />
		<edge from-layer="1590" from-port="3" to-layer="1593" to-port="0" />
		<edge from-layer="1591" from-port="0" to-layer="1593" to-port="1" />
		<edge from-layer="1592" from-port="0" to-layer="1593" to-port="2" />
		<edge from-layer="1593" from-port="3" to-layer="1594" to-port="1" />
		<edge from-layer="1594" from-port="2" to-layer="1596" to-port="0" />
		<edge from-layer="1595" from-port="0" to-layer="1596" to-port="1" />
		<edge from-layer="1596" from-port="2" to-layer="1601" to-port="0" />
		<edge from-layer="1597" from-port="0" to-layer="1601" to-port="1" />
		<edge from-layer="1598" from-port="0" to-layer="1601" to-port="2" />
		<edge from-layer="1599" from-port="0" to-layer="1601" to-port="3" />
		<edge from-layer="1600" from-port="0" to-layer="1601" to-port="4" />
		<edge from-layer="1601" from-port="5" to-layer="1606" to-port="0" />
		<edge from-layer="1602" from-port="0" to-layer="1603" to-port="0" />
		<edge from-layer="1603" from-port="1" to-layer="1605" to-port="0" />
		<edge from-layer="1604" from-port="0" to-layer="1605" to-port="1" />
		<edge from-layer="1605" from-port="2" to-layer="1606" to-port="1" />
		<edge from-layer="1606" from-port="2" to-layer="1607" to-port="1" />
		<edge from-layer="1607" from-port="2" to-layer="1608" to-port="1" />
		<edge from-layer="1608" from-port="2" to-layer="1614" to-port="0" />
		<edge from-layer="1608" from-port="2" to-layer="1648" to-port="0" />
		<edge from-layer="1609" from-port="0" to-layer="1610" to-port="0" />
		<edge from-layer="1610" from-port="1" to-layer="1647" to-port="0" />
		<edge from-layer="1611" from-port="0" to-layer="1612" to-port="0" />
		<edge from-layer="1612" from-port="1" to-layer="1633" to-port="0" />
		<edge from-layer="1613" from-port="0" to-layer="1614" to-port="1" />
		<edge from-layer="1614" from-port="2" to-layer="1617" to-port="0" />
		<edge from-layer="1615" from-port="0" to-layer="1616" to-port="0" />
		<edge from-layer="1616" from-port="1" to-layer="1617" to-port="1" />
		<edge from-layer="1617" from-port="2" to-layer="1620" to-port="0" />
		<edge from-layer="1618" from-port="0" to-layer="1619" to-port="0" />
		<edge from-layer="1619" from-port="1" to-layer="1620" to-port="1" />
		<edge from-layer="1620" from-port="2" to-layer="1622" to-port="0" />
		<edge from-layer="1621" from-port="0" to-layer="1622" to-port="1" />
		<edge from-layer="1622" from-port="2" to-layer="1627" to-port="0" />
		<edge from-layer="1623" from-port="0" to-layer="1627" to-port="1" />
		<edge from-layer="1624" from-port="0" to-layer="1627" to-port="2" />
		<edge from-layer="1625" from-port="0" to-layer="1627" to-port="3" />
		<edge from-layer="1626" from-port="0" to-layer="1627" to-port="4" />
		<edge from-layer="1627" from-port="5" to-layer="1632" to-port="0" />
		<edge from-layer="1628" from-port="0" to-layer="1629" to-port="0" />
		<edge from-layer="1629" from-port="1" to-layer="1631" to-port="0" />
		<edge from-layer="1630" from-port="0" to-layer="1631" to-port="1" />
		<edge from-layer="1631" from-port="2" to-layer="1632" to-port="1" />
		<edge from-layer="1632" from-port="2" to-layer="1633" to-port="1" />
		<edge from-layer="1633" from-port="2" to-layer="1634" to-port="0" />
		<edge from-layer="1634" from-port="1" to-layer="1636" to-port="0" />
		<edge from-layer="1635" from-port="0" to-layer="1636" to-port="1" />
		<edge from-layer="1636" from-port="2" to-layer="1641" to-port="0" />
		<edge from-layer="1637" from-port="0" to-layer="1641" to-port="1" />
		<edge from-layer="1638" from-port="0" to-layer="1641" to-port="2" />
		<edge from-layer="1639" from-port="0" to-layer="1641" to-port="3" />
		<edge from-layer="1640" from-port="0" to-layer="1641" to-port="4" />
		<edge from-layer="1641" from-port="5" to-layer="1646" to-port="0" />
		<edge from-layer="1642" from-port="0" to-layer="1643" to-port="0" />
		<edge from-layer="1643" from-port="1" to-layer="1645" to-port="0" />
		<edge from-layer="1644" from-port="0" to-layer="1645" to-port="1" />
		<edge from-layer="1645" from-port="2" to-layer="1646" to-port="1" />
		<edge from-layer="1646" from-port="2" to-layer="1647" to-port="1" />
		<edge from-layer="1647" from-port="2" to-layer="1648" to-port="1" />
		<edge from-layer="1648" from-port="2" to-layer="1649" to-port="1" />
		<edge from-layer="1649" from-port="2" to-layer="1650" to-port="0" />
		<edge from-layer="1649" from-port="2" to-layer="1658" to-port="0" />
		<edge from-layer="1656" from-port="0" to-layer="1658" to-port="1" />
		<edge from-layer="1657" from-port="0" to-layer="1658" to-port="2" />
		<edge from-layer="1658" from-port="3" to-layer="1660" to-port="0" />
		<edge from-layer="1659" from-port="0" to-layer="1660" to-port="1" />
		<edge from-layer="1660" from-port="2" to-layer="1663" to-port="0" />
		<edge from-layer="1661" from-port="0" to-layer="1662" to-port="0" />
		<edge from-layer="1662" from-port="1" to-layer="1663" to-port="1" />
		<edge from-layer="1663" from-port="2" to-layer="1666" to-port="0" />
		<edge from-layer="1664" from-port="0" to-layer="1665" to-port="0" />
		<edge from-layer="1665" from-port="1" to-layer="1666" to-port="1" />
		<edge from-layer="1666" from-port="2" to-layer="1668" to-port="0" />
		<edge from-layer="1667" from-port="0" to-layer="1668" to-port="1" />
		<edge from-layer="1668" from-port="2" to-layer="1673" to-port="0" />
		<edge from-layer="1669" from-port="0" to-layer="1673" to-port="1" />
		<edge from-layer="1670" from-port="0" to-layer="1673" to-port="2" />
		<edge from-layer="1671" from-port="0" to-layer="1673" to-port="3" />
		<edge from-layer="1672" from-port="0" to-layer="1673" to-port="4" />
		<edge from-layer="1673" from-port="5" to-layer="1678" to-port="0" />
		<edge from-layer="1674" from-port="0" to-layer="1675" to-port="0" />
		<edge from-layer="1675" from-port="1" to-layer="1677" to-port="0" />
		<edge from-layer="1676" from-port="0" to-layer="1677" to-port="1" />
		<edge from-layer="1677" from-port="2" to-layer="1678" to-port="1" />
		<edge from-layer="1678" from-port="2" to-layer="1681" to-port="0" />
		<edge from-layer="1679" from-port="0" to-layer="1680" to-port="0" />
		<edge from-layer="1680" from-port="1" to-layer="1681" to-port="1" />
		<edge from-layer="1681" from-port="2" to-layer="1683" to-port="0" />
		<edge from-layer="1681" from-port="2" to-layer="1685" to-port="0" />
		<edge from-layer="1682" from-port="0" to-layer="1683" to-port="1" />
		<edge from-layer="1683" from-port="2" to-layer="1684" to-port="0" />
		<edge from-layer="1684" from-port="1" to-layer="1686" to-port="0" />
		<edge from-layer="1685" from-port="1" to-layer="1686" to-port="1" />
		<edge from-layer="1686" from-port="2" to-layer="1687" to-port="0" />
	</edges>
	<rt_info>
		<Runtime_version value="2024.1.0-15008-f4afc983258-releases/2024/1" />
		<conversion_parameters>
			<input_model value="DIR/decoder.onnx" />
			<is_python_object value="False" />
		</conversion_parameters>
		<nncf>
			<friendly_names_were_updated value="True" />
			<quantization>
				<advanced_parameters value="{}" />
				<fast_bias_correction value="True" />
				<ignored_scope value="None" />
				<model_type value="transformer" />
				<preset value="QuantizationPreset.PERFORMANCE" />
				<subset_size value="300" />
				<target_device value="ANY" />
			</quantization>
		</nncf>
	</rt_info>
</net>
