<?xml version="1.0"?>
<net name="main_graph" version="11">
	<layers>
		<layer id="0" name="input" type="Parameter" version="opset1">
			<data shape="1,?,768" element_type="f32" />
			<output>
				<port id="0" precision="FP32" names="input">
					<dim>1</dim>
					<dim>-1</dim>
					<dim>768</dim>
				</port>
			</output>
		</layer>
		<layer id="1" name="Constant_29190_compressed" type="Const" version="opset1">
			<data element_type="f16" shape="1, 1, 1" offset="0" size="2" />
			<output>
				<port id="0" precision="FP16">
					<dim>1</dim>
					<dim>1</dim>
					<dim>1</dim>
				</port>
			</output>
		</layer>
		<layer id="2" name="Constant_29190" type="Convert" version="opset1">
			<data destination_type="f32" />
			<rt_info>
				<attribute name="decompression" version="0" />
			</rt_info>
			<input>
				<port id="0" precision="FP16">
					<dim>1</dim>
					<dim>1</dim>
					<dim>1</dim>
				</port>
			</input>
			<output>
				<port id="1" precision="FP32">
					<dim>1</dim>
					<dim>1</dim>
					<dim>1</dim>
				</port>
			</output>
		</layer>
		<layer id="3" name="/encoder/embed/embed.0/Mul" type="Multiply" version="opset1">
			<data auto_broadcast="numpy" />
			<input>
				<port id="0" precision="FP32">
					<dim>1</dim>
					<dim>-1</dim>
					<dim>768</dim>
				</port>
				<port id="1" precision="FP32">
					<dim>1</dim>
					<dim>1</dim>
					<dim>1</dim>
				</port>
			</input>
			<output>
				<port id="2" precision="FP32" names="/encoder/embed/embed.0/Mul_output_0">
					<dim>1</dim>
					<dim>-1</dim>
					<dim>768</dim>
				</port>
			</output>
		</layer>
		<layer id="4" name="Constant_29193_compressed" type="Const" version="opset1">
			<data element_type="f16" shape="1, 1, 3072" offset="2" size="6144" />
			<output>
				<port id="0" precision="FP16">
					<dim>1</dim>
					<dim>1</dim>
					<dim>3072</dim>
				</port>
			</output>
		</layer>
		<layer id="5" name="Constant_29193" type="Convert" version="opset1">
			<data destination_type="f32" />
			<rt_info>
				<attribute name="decompression" version="0" />
			</rt_info>
			<input>
				<port id="0" precision="FP16">
					<dim>1</dim>
					<dim>1</dim>
					<dim>3072</dim>
				</port>
			</input>
			<output>
				<port id="1" precision="FP32">
					<dim>1</dim>
					<dim>1</dim>
					<dim>3072</dim>
				</port>
			</output>
		</layer>
		<layer id="6" name="Constant_626" type="Const" version="opset1">
			<data element_type="i64" shape="1" offset="6146" size="8" />
			<output>
				<port id="0" precision="I64">
					<dim>1</dim>
				</port>
			</output>
		</layer>
		<layer id="7" name="/encoder/encoders/encoders.0/norm_ff_macaron/Div" type="MVN" version="opset6">
			<data eps="9.999999960041972e-13" normalize_variance="true" eps_mode="INSIDE_SQRT" />
			<input>
				<port id="0" precision="FP32">
					<dim>1</dim>
					<dim>-1</dim>
					<dim>768</dim>
				</port>
				<port id="1" precision="I64">
					<dim>1</dim>
				</port>
			</input>
			<output>
				<port id="2" precision="FP32" names="/encoder/encoders/encoders.0/norm_ff_macaron/Div_output_0">
					<dim>1</dim>
					<dim>-1</dim>
					<dim>768</dim>
				</port>
			</output>
		</layer>
		<layer id="8" name="Constant_29191_compressed" type="Const" version="opset1">
			<data element_type="f16" shape="1, 1, 768" offset="6154" size="1536" />
			<output>
				<port id="0" precision="FP16">
					<dim>1</dim>
					<dim>1</dim>
					<dim>768</dim>
				</port>
			</output>
		</layer>
		<layer id="9" name="Constant_29191" type="Convert" version="opset1">
			<data destination_type="f32" />
			<rt_info>
				<attribute name="decompression" version="0" />
			</rt_info>
			<input>
				<port id="0" precision="FP16">
					<dim>1</dim>
					<dim>1</dim>
					<dim>768</dim>
				</port>
			</input>
			<output>
				<port id="1" precision="FP32">
					<dim>1</dim>
					<dim>1</dim>
					<dim>768</dim>
				</port>
			</output>
		</layer>
		<layer id="10" name="/encoder/encoders/encoders.0/norm_ff_macaron/Mul" type="Multiply" version="opset1">
			<data auto_broadcast="numpy" />
			<input>
				<port id="0" precision="FP32">
					<dim>1</dim>
					<dim>-1</dim>
					<dim>768</dim>
				</port>
				<port id="1" precision="FP32">
					<dim>1</dim>
					<dim>1</dim>
					<dim>768</dim>
				</port>
			</input>
			<output>
				<port id="2" precision="FP32" names="/encoder/encoders/encoders.0/norm_ff_macaron/Mul_output_0">
					<dim>1</dim>
					<dim>-1</dim>
					<dim>768</dim>
				</port>
			</output>
		</layer>
		<layer id="11" name="Constant_29192_compressed" type="Const" version="opset1">
			<data element_type="f16" shape="1, 1, 768" offset="7690" size="1536" />
			<output>
				<port id="0" precision="FP16">
					<dim>1</dim>
					<dim>1</dim>
					<dim>768</dim>
				</port>
			</output>
		</layer>
		<layer id="12" name="Constant_29192" type="Convert" version="opset1">
			<data destination_type="f32" />
			<rt_info>
				<attribute name="decompression" version="0" />
			</rt_info>
			<input>
				<port id="0" precision="FP16">
					<dim>1</dim>
					<dim>1</dim>
					<dim>768</dim>
				</port>
			</input>
			<output>
				<port id="1" precision="FP32">
					<dim>1</dim>
					<dim>1</dim>
					<dim>768</dim>
				</port>
			</output>
		</layer>
		<layer id="13" name="/encoder/encoders/encoders.0/norm_ff_macaron/Add_1" type="Add" version="opset1">
			<data auto_broadcast="numpy" />
			<input>
				<port id="0" precision="FP32">
					<dim>1</dim>
					<dim>-1</dim>
					<dim>768</dim>
				</port>
				<port id="1" precision="FP32">
					<dim>1</dim>
					<dim>1</dim>
					<dim>768</dim>
				</port>
			</input>
			<output>
				<port id="2" precision="FP32" names="/encoder/encoders/encoders.0/norm_ff_macaron/Add_1_output_0">
					<dim>1</dim>
					<dim>-1</dim>
					<dim>768</dim>
				</port>
			</output>
		</layer>
		<layer id="14" name="/encoder/encoders/encoders.0/norm_ff_macaron/Add_1_0_0/nncf_smooth_quant/scale" type="Const" version="opset1">
			<data element_type="f32" shape="1, 1, 768" offset="9226" size="3072" />
			<output>
				<port id="0" precision="FP32">
					<dim>1</dim>
					<dim>1</dim>
					<dim>768</dim>
				</port>
			</output>
		</layer>
		<layer id="15" name="/encoder/encoders/encoders.0/norm_ff_macaron/Add_1_0_0/nncf_smooth_quant" type="Multiply" version="opset1">
			<data auto_broadcast="numpy" />
			<input>
				<port id="0" precision="FP32">
					<dim>1</dim>
					<dim>-1</dim>
					<dim>768</dim>
				</port>
				<port id="1" precision="FP32">
					<dim>1</dim>
					<dim>1</dim>
					<dim>768</dim>
				</port>
			</input>
			<output>
				<port id="2" precision="FP32">
					<dim>1</dim>
					<dim>-1</dim>
					<dim>768</dim>
				</port>
			</output>
		</layer>
		<layer id="16" name="/encoder/encoders/encoders.0/norm_ff_macaron/Add_1_0_0/nncf_smooth_quant/fq_output_0/input_low" type="Const" version="opset1">
			<data element_type="f32" shape="" offset="12298" size="4" />
			<output>
				<port id="0" precision="FP32" />
			</output>
		</layer>
		<layer id="17" name="/encoder/encoders/encoders.0/norm_ff_macaron/Add_1_0_0/nncf_smooth_quant/fq_output_0/input_high" type="Const" version="opset1">
			<data element_type="f32" shape="" offset="12302" size="4" />
			<output>
				<port id="0" precision="FP32" />
			</output>
		</layer>
		<layer id="18" name="/encoder/encoders/encoders.0/norm_ff_macaron/Add_1_0_0/nncf_smooth_quant/fq_output_0/output_low" type="Const" version="opset1">
			<data element_type="f32" shape="" offset="12298" size="4" />
			<output>
				<port id="0" precision="FP32" />
			</output>
		</layer>
		<layer id="19" name="/encoder/encoders/encoders.0/norm_ff_macaron/Add_1_0_0/nncf_smooth_quant/fq_output_0/output_high" type="Const" version="opset1">
			<data element_type="f32" shape="" offset="12302" size="4" />
			<output>
				<port id="0" precision="FP32" />
			</output>
		</layer>
		<layer id="20" name="/encoder/encoders/encoders.0/norm_ff_macaron/Add_1_0_0/nncf_smooth_quant/fq_output_0" type="FakeQuantize" version="opset1">
			<data levels="256" auto_broadcast="numpy" />
			<input>
				<port id="0" precision="FP32">
					<dim>1</dim>
					<dim>-1</dim>
					<dim>768</dim>
				</port>
				<port id="1" precision="FP32" />
				<port id="2" precision="FP32" />
				<port id="3" precision="FP32" />
				<port id="4" precision="FP32" />
			</input>
			<output>
				<port id="5" precision="FP32">
					<dim>1</dim>
					<dim>-1</dim>
					<dim>768</dim>
				</port>
			</output>
		</layer>
		<layer id="21" name="Constant_1041805" type="Const" version="opset1">
			<data element_type="i8" shape="3072, 768" offset="12306" size="2359296" />
			<output>
				<port id="0" precision="I8">
					<dim>3072</dim>
					<dim>768</dim>
				</port>
			</output>
		</layer>
		<layer id="22" name="Convert_1041806" type="Convert" version="opset1">
			<data destination_type="f32" />
			<input>
				<port id="0" precision="I8">
					<dim>3072</dim>
					<dim>768</dim>
				</port>
			</input>
			<output>
				<port id="1" precision="FP32">
					<dim>3072</dim>
					<dim>768</dim>
				</port>
			</output>
		</layer>
		<layer id="23" name="Constant_1041807" type="Const" version="opset1">
			<data element_type="f32" shape="3072, 1" offset="2371602" size="12288" />
			<output>
				<port id="0" precision="FP32">
					<dim>3072</dim>
					<dim>1</dim>
				</port>
			</output>
		</layer>
		<layer id="24" name="/encoder/encoders/encoders.0/feed_forward_macaron/w_1/MatMul/fq_weights_1" type="Multiply" version="opset1">
			<data auto_broadcast="numpy" />
			<input>
				<port id="0" precision="FP32">
					<dim>3072</dim>
					<dim>768</dim>
				</port>
				<port id="1" precision="FP32">
					<dim>3072</dim>
					<dim>1</dim>
				</port>
			</input>
			<output>
				<port id="2" precision="FP32">
					<dim>3072</dim>
					<dim>768</dim>
				</port>
			</output>
		</layer>
		<layer id="25" name="/encoder/encoders/encoders.0/feed_forward_macaron/w_1/MatMul" type="MatMul" version="opset1">
			<data transpose_a="false" transpose_b="true" />
			<input>
				<port id="0" precision="FP32">
					<dim>1</dim>
					<dim>-1</dim>
					<dim>768</dim>
				</port>
				<port id="1" precision="FP32">
					<dim>3072</dim>
					<dim>768</dim>
				</port>
			</input>
			<output>
				<port id="2" precision="FP32" names="/encoder/encoders/encoders.0/feed_forward_macaron/w_1/MatMul_output_0">
					<dim>1</dim>
					<dim>-1</dim>
					<dim>3072</dim>
				</port>
			</output>
		</layer>
		<layer id="26" name="/encoder/encoders/encoders.0/feed_forward_macaron/w_1/Add" type="Add" version="opset1">
			<data auto_broadcast="numpy" />
			<input>
				<port id="0" precision="FP32">
					<dim>1</dim>
					<dim>1</dim>
					<dim>3072</dim>
				</port>
				<port id="1" precision="FP32">
					<dim>1</dim>
					<dim>-1</dim>
					<dim>3072</dim>
				</port>
			</input>
			<output>
				<port id="2" precision="FP32" names="/encoder/encoders/encoders.0/feed_forward_macaron/w_1/Add_output_0">
					<dim>1</dim>
					<dim>-1</dim>
					<dim>3072</dim>
				</port>
			</output>
		</layer>
		<layer id="27" name="/encoder/encoders/encoders.0/feed_forward_macaron/Relu" type="ReLU" version="opset1">
			<input>
				<port id="0" precision="FP32">
					<dim>1</dim>
					<dim>-1</dim>
					<dim>3072</dim>
				</port>
			</input>
			<output>
				<port id="1" precision="FP32" names="/encoder/encoders/encoders.0/feed_forward_macaron/Relu_output_0">
					<dim>1</dim>
					<dim>-1</dim>
					<dim>3072</dim>
				</port>
			</output>
		</layer>
		<layer id="28" name="/encoder/encoders/encoders.0/feed_forward_macaron/Relu_0_0/nncf_smooth_quant/scale" type="Const" version="opset1">
			<data element_type="f32" shape="1, 1, 3072" offset="2383890" size="12288" />
			<output>
				<port id="0" precision="FP32">
					<dim>1</dim>
					<dim>1</dim>
					<dim>3072</dim>
				</port>
			</output>
		</layer>
		<layer id="29" name="/encoder/encoders/encoders.0/feed_forward_macaron/Relu_0_0/nncf_smooth_quant" type="Multiply" version="opset1">
			<data auto_broadcast="numpy" />
			<input>
				<port id="0" precision="FP32">
					<dim>1</dim>
					<dim>-1</dim>
					<dim>3072</dim>
				</port>
				<port id="1" precision="FP32">
					<dim>1</dim>
					<dim>1</dim>
					<dim>3072</dim>
				</port>
			</input>
			<output>
				<port id="2" precision="FP32">
					<dim>1</dim>
					<dim>-1</dim>
					<dim>3072</dim>
				</port>
			</output>
		</layer>
		<layer id="30" name="/encoder/encoders/encoders.0/feed_forward_macaron/Relu_0_0/nncf_smooth_quant/fq_output_0/input_low" type="Const" version="opset1">
			<data element_type="f32" shape="" offset="2396178" size="4" />
			<output>
				<port id="0" precision="FP32" />
			</output>
		</layer>
		<layer id="31" name="/encoder/encoders/encoders.0/feed_forward_macaron/Relu_0_0/nncf_smooth_quant/fq_output_0/input_high" type="Const" version="opset1">
			<data element_type="f32" shape="" offset="2396182" size="4" />
			<output>
				<port id="0" precision="FP32" />
			</output>
		</layer>
		<layer id="32" name="/encoder/encoders/encoders.0/feed_forward_macaron/Relu_0_0/nncf_smooth_quant/fq_output_0/output_low" type="Const" version="opset1">
			<data element_type="f32" shape="" offset="2396178" size="4" />
			<output>
				<port id="0" precision="FP32" />
			</output>
		</layer>
		<layer id="33" name="/encoder/encoders/encoders.0/feed_forward_macaron/Relu_0_0/nncf_smooth_quant/fq_output_0/output_high" type="Const" version="opset1">
			<data element_type="f32" shape="" offset="2396182" size="4" />
			<output>
				<port id="0" precision="FP32" />
			</output>
		</layer>
		<layer id="34" name="/encoder/encoders/encoders.0/feed_forward_macaron/Relu_0_0/nncf_smooth_quant/fq_output_0" type="FakeQuantize" version="opset1">
			<data levels="256" auto_broadcast="numpy" />
			<input>
				<port id="0" precision="FP32">
					<dim>1</dim>
					<dim>-1</dim>
					<dim>3072</dim>
				</port>
				<port id="1" precision="FP32" />
				<port id="2" precision="FP32" />
				<port id="3" precision="FP32" />
				<port id="4" precision="FP32" />
			</input>
			<output>
				<port id="5" precision="FP32">
					<dim>1</dim>
					<dim>-1</dim>
					<dim>3072</dim>
				</port>
			</output>
		</layer>
		<layer id="35" name="Constant_1041810" type="Const" version="opset1">
			<data element_type="i8" shape="768, 3072" offset="2396186" size="2359296" />
			<output>
				<port id="0" precision="I8">
					<dim>768</dim>
					<dim>3072</dim>
				</port>
			</output>
		</layer>
		<layer id="36" name="Convert_1041811" type="Convert" version="opset1">
			<data destination_type="f32" />
			<input>
				<port id="0" precision="I8">
					<dim>768</dim>
					<dim>3072</dim>
				</port>
			</input>
			<output>
				<port id="1" precision="FP32">
					<dim>768</dim>
					<dim>3072</dim>
				</port>
			</output>
		</layer>
		<layer id="37" name="Constant_1041812" type="Const" version="opset1">
			<data element_type="f32" shape="768, 1" offset="4755482" size="3072" />
			<output>
				<port id="0" precision="FP32">
					<dim>768</dim>
					<dim>1</dim>
				</port>
			</output>
		</layer>
		<layer id="38" name="Multiply_28369/fq_weights_1" type="Multiply" version="opset1">
			<data auto_broadcast="numpy" />
			<input>
				<port id="0" precision="FP32">
					<dim>768</dim>
					<dim>3072</dim>
				</port>
				<port id="1" precision="FP32">
					<dim>768</dim>
					<dim>1</dim>
				</port>
			</input>
			<output>
				<port id="2" precision="FP32">
					<dim>768</dim>
					<dim>3072</dim>
				</port>
			</output>
		</layer>
		<layer id="39" name="Multiply_28369" type="MatMul" version="opset1">
			<data transpose_a="false" transpose_b="true" />
			<input>
				<port id="0" precision="FP32">
					<dim>1</dim>
					<dim>-1</dim>
					<dim>3072</dim>
				</port>
				<port id="1" precision="FP32">
					<dim>768</dim>
					<dim>3072</dim>
				</port>
			</input>
			<output>
				<port id="2" precision="FP32">
					<dim>1</dim>
					<dim>-1</dim>
					<dim>768</dim>
				</port>
			</output>
		</layer>
		<layer id="40" name="Constant_29194_compressed" type="Const" version="opset1">
			<data element_type="f16" shape="1, 1, 768" offset="4758554" size="1536" />
			<output>
				<port id="0" precision="FP16">
					<dim>1</dim>
					<dim>1</dim>
					<dim>768</dim>
				</port>
			</output>
		</layer>
		<layer id="41" name="Constant_29194" type="Convert" version="opset1">
			<data destination_type="f32" />
			<rt_info>
				<attribute name="decompression" version="0" />
			</rt_info>
			<input>
				<port id="0" precision="FP16">
					<dim>1</dim>
					<dim>1</dim>
					<dim>768</dim>
				</port>
			</input>
			<output>
				<port id="1" precision="FP32">
					<dim>1</dim>
					<dim>1</dim>
					<dim>768</dim>
				</port>
			</output>
		</layer>
		<layer id="42" name="/encoder/encoders/encoders.0/Mul" type="Add" version="opset1">
			<data auto_broadcast="numpy" />
			<input>
				<port id="0" precision="FP32">
					<dim>1</dim>
					<dim>-1</dim>
					<dim>768</dim>
				</port>
				<port id="1" precision="FP32">
					<dim>1</dim>
					<dim>1</dim>
					<dim>768</dim>
				</port>
			</input>
			<output>
				<port id="2" precision="FP32" names="/encoder/encoders/encoders.0/Mul_output_0">
					<dim>1</dim>
					<dim>-1</dim>
					<dim>768</dim>
				</port>
			</output>
		</layer>
		<layer id="43" name="/encoder/encoders/encoders.0/Add" type="Add" version="opset1">
			<data auto_broadcast="numpy" />
			<input>
				<port id="0" precision="FP32">
					<dim>1</dim>
					<dim>-1</dim>
					<dim>768</dim>
				</port>
				<port id="1" precision="FP32">
					<dim>1</dim>
					<dim>-1</dim>
					<dim>768</dim>
				</port>
			</input>
			<output>
				<port id="2" precision="FP32" names="/encoder/encoders/encoders.0/Add_output_0">
					<dim>1</dim>
					<dim>-1</dim>
					<dim>768</dim>
				</port>
			</output>
		</layer>
		<layer id="44" name="Constant_29203_compressed" type="Const" version="opset1">
			<data element_type="f16" shape="1, 1, 768" offset="4760090" size="1536" />
			<output>
				<port id="0" precision="FP16">
					<dim>1</dim>
					<dim>1</dim>
					<dim>768</dim>
				</port>
			</output>
		</layer>
		<layer id="45" name="Constant_29203" type="Convert" version="opset1">
			<data destination_type="f32" />
			<rt_info>
				<attribute name="decompression" version="0" />
			</rt_info>
			<input>
				<port id="0" precision="FP16">
					<dim>1</dim>
					<dim>1</dim>
					<dim>768</dim>
				</port>
			</input>
			<output>
				<port id="1" precision="FP32">
					<dim>1</dim>
					<dim>1</dim>
					<dim>768</dim>
				</port>
			</output>
		</layer>
		<layer id="46" name="Constant_29197_compressed" type="Const" version="opset1">
			<data element_type="f16" shape="1, 1, 768" offset="4761626" size="1536" />
			<output>
				<port id="0" precision="FP16">
					<dim>1</dim>
					<dim>1</dim>
					<dim>768</dim>
				</port>
			</output>
		</layer>
		<layer id="47" name="Constant_29197" type="Convert" version="opset1">
			<data destination_type="f32" />
			<rt_info>
				<attribute name="decompression" version="0" />
			</rt_info>
			<input>
				<port id="0" precision="FP16">
					<dim>1</dim>
					<dim>1</dim>
					<dim>768</dim>
				</port>
			</input>
			<output>
				<port id="1" precision="FP32">
					<dim>1</dim>
					<dim>1</dim>
					<dim>768</dim>
				</port>
			</output>
		</layer>
		<layer id="48" name="Constant_647" type="Const" version="opset1">
			<data element_type="i64" shape="1" offset="6146" size="8" />
			<output>
				<port id="0" precision="I64">
					<dim>1</dim>
				</port>
			</output>
		</layer>
		<layer id="49" name="/encoder/encoders/encoders.0/norm_mha/Div" type="MVN" version="opset6">
			<data eps="9.999999960041972e-13" normalize_variance="true" eps_mode="INSIDE_SQRT" />
			<input>
				<port id="0" precision="FP32">
					<dim>1</dim>
					<dim>-1</dim>
					<dim>768</dim>
				</port>
				<port id="1" precision="I64">
					<dim>1</dim>
				</port>
			</input>
			<output>
				<port id="2" precision="FP32" names="/encoder/encoders/encoders.0/norm_mha/Div_output_0">
					<dim>1</dim>
					<dim>-1</dim>
					<dim>768</dim>
				</port>
			</output>
		</layer>
		<layer id="50" name="Constant_29195_compressed" type="Const" version="opset1">
			<data element_type="f16" shape="1, 1, 768" offset="4763162" size="1536" />
			<output>
				<port id="0" precision="FP16">
					<dim>1</dim>
					<dim>1</dim>
					<dim>768</dim>
				</port>
			</output>
		</layer>
		<layer id="51" name="Constant_29195" type="Convert" version="opset1">
			<data destination_type="f32" />
			<rt_info>
				<attribute name="decompression" version="0" />
			</rt_info>
			<input>
				<port id="0" precision="FP16">
					<dim>1</dim>
					<dim>1</dim>
					<dim>768</dim>
				</port>
			</input>
			<output>
				<port id="1" precision="FP32">
					<dim>1</dim>
					<dim>1</dim>
					<dim>768</dim>
				</port>
			</output>
		</layer>
		<layer id="52" name="/encoder/encoders/encoders.0/norm_mha/Mul" type="Multiply" version="opset1">
			<data auto_broadcast="numpy" />
			<input>
				<port id="0" precision="FP32">
					<dim>1</dim>
					<dim>-1</dim>
					<dim>768</dim>
				</port>
				<port id="1" precision="FP32">
					<dim>1</dim>
					<dim>1</dim>
					<dim>768</dim>
				</port>
			</input>
			<output>
				<port id="2" precision="FP32" names="/encoder/encoders/encoders.0/norm_mha/Mul_output_0">
					<dim>1</dim>
					<dim>-1</dim>
					<dim>768</dim>
				</port>
			</output>
		</layer>
		<layer id="53" name="Constant_29196_compressed" type="Const" version="opset1">
			<data element_type="f16" shape="1, 1, 768" offset="4764698" size="1536" />
			<output>
				<port id="0" precision="FP16">
					<dim>1</dim>
					<dim>1</dim>
					<dim>768</dim>
				</port>
			</output>
		</layer>
		<layer id="54" name="Constant_29196" type="Convert" version="opset1">
			<data destination_type="f32" />
			<rt_info>
				<attribute name="decompression" version="0" />
			</rt_info>
			<input>
				<port id="0" precision="FP16">
					<dim>1</dim>
					<dim>1</dim>
					<dim>768</dim>
				</port>
			</input>
			<output>
				<port id="1" precision="FP32">
					<dim>1</dim>
					<dim>1</dim>
					<dim>768</dim>
				</port>
			</output>
		</layer>
		<layer id="55" name="/encoder/encoders/encoders.0/norm_mha/Add_1" type="Add" version="opset1">
			<data auto_broadcast="numpy" />
			<input>
				<port id="0" precision="FP32">
					<dim>1</dim>
					<dim>-1</dim>
					<dim>768</dim>
				</port>
				<port id="1" precision="FP32">
					<dim>1</dim>
					<dim>1</dim>
					<dim>768</dim>
				</port>
			</input>
			<output>
				<port id="2" precision="FP32" names="/encoder/encoders/encoders.0/norm_mha/Add_1_output_0">
					<dim>1</dim>
					<dim>-1</dim>
					<dim>768</dim>
				</port>
			</output>
		</layer>
		<layer id="56" name="/encoder/encoders/encoders.0/norm_mha/Add_1_0_0/nncf_smooth_quant/scale" type="Const" version="opset1">
			<data element_type="f32" shape="1, 1, 768" offset="4766234" size="3072" />
			<output>
				<port id="0" precision="FP32">
					<dim>1</dim>
					<dim>1</dim>
					<dim>768</dim>
				</port>
			</output>
		</layer>
		<layer id="57" name="/encoder/encoders/encoders.0/norm_mha/Add_1_0_0/nncf_smooth_quant" type="Multiply" version="opset1">
			<data auto_broadcast="numpy" />
			<input>
				<port id="0" precision="FP32">
					<dim>1</dim>
					<dim>-1</dim>
					<dim>768</dim>
				</port>
				<port id="1" precision="FP32">
					<dim>1</dim>
					<dim>1</dim>
					<dim>768</dim>
				</port>
			</input>
			<output>
				<port id="2" precision="FP32">
					<dim>1</dim>
					<dim>-1</dim>
					<dim>768</dim>
				</port>
			</output>
		</layer>
		<layer id="58" name="/encoder/encoders/encoders.0/norm_mha/Add_1_0_0/nncf_smooth_quant/fq_output_0/input_low" type="Const" version="opset1">
			<data element_type="f32" shape="" offset="4769306" size="4" />
			<output>
				<port id="0" precision="FP32" />
			</output>
		</layer>
		<layer id="59" name="/encoder/encoders/encoders.0/norm_mha/Add_1_0_0/nncf_smooth_quant/fq_output_0/input_high" type="Const" version="opset1">
			<data element_type="f32" shape="" offset="4769310" size="4" />
			<output>
				<port id="0" precision="FP32" />
			</output>
		</layer>
		<layer id="60" name="/encoder/encoders/encoders.0/norm_mha/Add_1_0_0/nncf_smooth_quant/fq_output_0/output_low" type="Const" version="opset1">
			<data element_type="f32" shape="" offset="4769306" size="4" />
			<output>
				<port id="0" precision="FP32" />
			</output>
		</layer>
		<layer id="61" name="/encoder/encoders/encoders.0/norm_mha/Add_1_0_0/nncf_smooth_quant/fq_output_0/output_high" type="Const" version="opset1">
			<data element_type="f32" shape="" offset="4769310" size="4" />
			<output>
				<port id="0" precision="FP32" />
			</output>
		</layer>
		<layer id="62" name="/encoder/encoders/encoders.0/norm_mha/Add_1_0_0/nncf_smooth_quant/fq_output_0" type="FakeQuantize" version="opset1">
			<data levels="256" auto_broadcast="numpy" />
			<input>
				<port id="0" precision="FP32">
					<dim>1</dim>
					<dim>-1</dim>
					<dim>768</dim>
				</port>
				<port id="1" precision="FP32" />
				<port id="2" precision="FP32" />
				<port id="3" precision="FP32" />
				<port id="4" precision="FP32" />
			</input>
			<output>
				<port id="5" precision="FP32">
					<dim>1</dim>
					<dim>-1</dim>
					<dim>768</dim>
				</port>
			</output>
		</layer>
		<layer id="63" name="Constant_1041815" type="Const" version="opset1">
			<data element_type="i8" shape="768, 768" offset="4769314" size="589824" />
			<output>
				<port id="0" precision="I8">
					<dim>768</dim>
					<dim>768</dim>
				</port>
			</output>
		</layer>
		<layer id="64" name="Convert_1041816" type="Convert" version="opset1">
			<data destination_type="f32" />
			<input>
				<port id="0" precision="I8">
					<dim>768</dim>
					<dim>768</dim>
				</port>
			</input>
			<output>
				<port id="1" precision="FP32">
					<dim>768</dim>
					<dim>768</dim>
				</port>
			</output>
		</layer>
		<layer id="65" name="Constant_1041817" type="Const" version="opset1">
			<data element_type="f32" shape="768, 1" offset="5359138" size="3072" />
			<output>
				<port id="0" precision="FP32">
					<dim>768</dim>
					<dim>1</dim>
				</port>
			</output>
		</layer>
		<layer id="66" name="/encoder/encoders/encoders.0/self_attn/linear_q/MatMul/fq_weights_1" type="Multiply" version="opset1">
			<data auto_broadcast="numpy" />
			<input>
				<port id="0" precision="FP32">
					<dim>768</dim>
					<dim>768</dim>
				</port>
				<port id="1" precision="FP32">
					<dim>768</dim>
					<dim>1</dim>
				</port>
			</input>
			<output>
				<port id="2" precision="FP32">
					<dim>768</dim>
					<dim>768</dim>
				</port>
			</output>
		</layer>
		<layer id="67" name="/encoder/encoders/encoders.0/self_attn/linear_q/MatMul" type="MatMul" version="opset1">
			<data transpose_a="false" transpose_b="true" />
			<input>
				<port id="0" precision="FP32">
					<dim>1</dim>
					<dim>-1</dim>
					<dim>768</dim>
				</port>
				<port id="1" precision="FP32">
					<dim>768</dim>
					<dim>768</dim>
				</port>
			</input>
			<output>
				<port id="2" precision="FP32" names="/encoder/encoders/encoders.0/self_attn/linear_q/MatMul_output_0">
					<dim>1</dim>
					<dim>-1</dim>
					<dim>768</dim>
				</port>
			</output>
		</layer>
		<layer id="68" name="/encoder/encoders/encoders.0/self_attn/linear_q/Add" type="Add" version="opset1">
			<data auto_broadcast="numpy" />
			<input>
				<port id="0" precision="FP32">
					<dim>1</dim>
					<dim>1</dim>
					<dim>768</dim>
				</port>
				<port id="1" precision="FP32">
					<dim>1</dim>
					<dim>-1</dim>
					<dim>768</dim>
				</port>
			</input>
			<output>
				<port id="2" precision="FP32" names="/encoder/encoders/encoders.0/self_attn/linear_q/Add_output_0">
					<dim>1</dim>
					<dim>-1</dim>
					<dim>768</dim>
				</port>
			</output>
		</layer>
		<layer id="69" name="/encoder/encoders/encoders.0/self_attn/Shape" type="ShapeOf" version="opset3">
			<data output_type="i64" />
			<input>
				<port id="0" precision="FP32">
					<dim>1</dim>
					<dim>-1</dim>
					<dim>768</dim>
				</port>
			</input>
			<output>
				<port id="1" precision="I64" names="/encoder/encoders/encoders.0/self_attn/Shape_output_0">
					<dim>3</dim>
				</port>
			</output>
		</layer>
		<layer id="70" name="Constant_19767" type="Const" version="opset1">
			<data element_type="i64" shape="1" offset="5362210" size="8" />
			<rt_info>
				<attribute name="precise" version="0" />
			</rt_info>
			<output>
				<port id="0" precision="I64">
					<dim>1</dim>
				</port>
			</output>
		</layer>
		<layer id="71" name="Constant_662" type="Const" version="opset1">
			<data element_type="i64" shape="" offset="5362210" size="8" />
			<rt_info>
				<attribute name="precise" version="0" />
			</rt_info>
			<output>
				<port id="0" precision="I64" />
			</output>
		</layer>
		<layer id="72" name="/encoder/encoders/encoders.0/self_attn/Gather" type="Gather" version="opset8">
			<data batch_dims="0" />
			<input>
				<port id="0" precision="I64">
					<dim>3</dim>
				</port>
				<port id="1" precision="I64">
					<dim>1</dim>
				</port>
				<port id="2" precision="I64" />
			</input>
			<output>
				<port id="3" precision="I64" names="/encoder/encoders/encoders.0/self_attn/Gather_output_0,/encoder/encoders/encoders.0/self_attn/Unsqueeze_1_output_0,/encoder/encoders/encoders.0/self_attn/Unsqueeze_2_output_0,/encoder/encoders/encoders.0/self_attn/Unsqueeze_output_0">
					<dim>1</dim>
				</port>
			</output>
		</layer>
		<layer id="73" name="/encoder/encoders/encoders.0/self_attn/Constant_1" type="Const" version="opset1">
			<data element_type="i64" shape="1" offset="6146" size="8" />
			<rt_info>
				<attribute name="precise" version="0" />
			</rt_info>
			<output>
				<port id="0" precision="I64" names="/encoder/encoders/encoders.0/self_attn/Constant_1_output_0">
					<dim>1</dim>
				</port>
			</output>
		</layer>
		<layer id="74" name="/encoder/encoders/encoders.0/self_attn/Constant_2" type="Const" version="opset1">
			<data element_type="i64" shape="1" offset="5362218" size="8" />
			<rt_info>
				<attribute name="precise" version="0" />
			</rt_info>
			<output>
				<port id="0" precision="I64" names="/encoder/encoders/encoders.0/self_attn/Constant_2_output_0">
					<dim>1</dim>
				</port>
			</output>
		</layer>
		<layer id="75" name="/encoder/encoders/encoders.0/self_attn/Constant_3" type="Const" version="opset1">
			<data element_type="i64" shape="1" offset="5362226" size="8" />
			<rt_info>
				<attribute name="precise" version="0" />
			</rt_info>
			<output>
				<port id="0" precision="I64" names="/encoder/encoders/encoders.0/self_attn/Constant_3_output_0">
					<dim>1</dim>
				</port>
			</output>
		</layer>
		<layer id="76" name="/encoder/encoders/encoders.0/self_attn/Concat" type="Concat" version="opset1">
			<data axis="0" />
			<input>
				<port id="0" precision="I64">
					<dim>1</dim>
				</port>
				<port id="1" precision="I64">
					<dim>1</dim>
				</port>
				<port id="2" precision="I64">
					<dim>1</dim>
				</port>
				<port id="3" precision="I64">
					<dim>1</dim>
				</port>
			</input>
			<output>
				<port id="4" precision="I64" names="/encoder/encoders/encoders.0/self_attn/Concat_1_output_0,/encoder/encoders/encoders.0/self_attn/Concat_2_output_0,/encoder/encoders/encoders.0/self_attn/Concat_output_0">
					<dim>4</dim>
				</port>
			</output>
		</layer>
		<layer id="77" name="/encoder/encoders/encoders.0/self_attn/Reshape" type="Reshape" version="opset1">
			<data special_zero="true" />
			<input>
				<port id="0" precision="FP32">
					<dim>1</dim>
					<dim>-1</dim>
					<dim>768</dim>
				</port>
				<port id="1" precision="I64">
					<dim>4</dim>
				</port>
			</input>
			<output>
				<port id="2" precision="FP32" names="/encoder/encoders/encoders.0/self_attn/Reshape_output_0">
					<dim>1</dim>
					<dim>-1</dim>
					<dim>12</dim>
					<dim>64</dim>
				</port>
			</output>
		</layer>
		<layer id="78" name="Constant_29198_compressed" type="Const" version="opset1">
			<data element_type="f16" shape="1, 1, 12, 64" offset="5362234" size="1536" />
			<output>
				<port id="0" precision="FP16">
					<dim>1</dim>
					<dim>1</dim>
					<dim>12</dim>
					<dim>64</dim>
				</port>
			</output>
		</layer>
		<layer id="79" name="Constant_29198" type="Convert" version="opset1">
			<data destination_type="f32" />
			<rt_info>
				<attribute name="decompression" version="0" />
			</rt_info>
			<input>
				<port id="0" precision="FP16">
					<dim>1</dim>
					<dim>1</dim>
					<dim>12</dim>
					<dim>64</dim>
				</port>
			</input>
			<output>
				<port id="1" precision="FP32">
					<dim>1</dim>
					<dim>1</dim>
					<dim>12</dim>
					<dim>64</dim>
				</port>
			</output>
		</layer>
		<layer id="80" name="/encoder/encoders/encoders.0/self_attn/Add" type="Add" version="opset1">
			<data auto_broadcast="numpy" />
			<input>
				<port id="0" precision="FP32">
					<dim>1</dim>
					<dim>-1</dim>
					<dim>12</dim>
					<dim>64</dim>
				</port>
				<port id="1" precision="FP32">
					<dim>1</dim>
					<dim>1</dim>
					<dim>12</dim>
					<dim>64</dim>
				</port>
			</input>
			<output>
				<port id="2" precision="FP32" names="/encoder/encoders/encoders.0/self_attn/Add_output_0">
					<dim>1</dim>
					<dim>-1</dim>
					<dim>12</dim>
					<dim>64</dim>
				</port>
			</output>
		</layer>
		<layer id="81" name="/encoder/encoders/encoders.0/self_attn/Add/fq_output_0/input_low" type="Const" version="opset1">
			<data element_type="f32" shape="" offset="5363770" size="4" />
			<output>
				<port id="0" precision="FP32" />
			</output>
		</layer>
		<layer id="82" name="/encoder/encoders/encoders.0/self_attn/Add/fq_output_0/input_high" type="Const" version="opset1">
			<data element_type="f32" shape="" offset="5363774" size="4" />
			<output>
				<port id="0" precision="FP32" />
			</output>
		</layer>
		<layer id="83" name="/encoder/encoders/encoders.0/self_attn/Add/fq_output_0/output_low" type="Const" version="opset1">
			<data element_type="f32" shape="" offset="5363770" size="4" />
			<output>
				<port id="0" precision="FP32" />
			</output>
		</layer>
		<layer id="84" name="/encoder/encoders/encoders.0/self_attn/Add/fq_output_0/output_high" type="Const" version="opset1">
			<data element_type="f32" shape="" offset="5363774" size="4" />
			<output>
				<port id="0" precision="FP32" />
			</output>
		</layer>
		<layer id="85" name="/encoder/encoders/encoders.0/self_attn/Add/fq_output_0" type="FakeQuantize" version="opset1">
			<data levels="256" auto_broadcast="numpy" />
			<input>
				<port id="0" precision="FP32">
					<dim>1</dim>
					<dim>-1</dim>
					<dim>12</dim>
					<dim>64</dim>
				</port>
				<port id="1" precision="FP32" />
				<port id="2" precision="FP32" />
				<port id="3" precision="FP32" />
				<port id="4" precision="FP32" />
			</input>
			<output>
				<port id="5" precision="FP32">
					<dim>1</dim>
					<dim>-1</dim>
					<dim>12</dim>
					<dim>64</dim>
				</port>
			</output>
		</layer>
		<layer id="86" name="Constant_776" type="Const" version="opset1">
			<data element_type="i64" shape="4" offset="5363778" size="32" />
			<output>
				<port id="0" precision="I64">
					<dim>4</dim>
				</port>
			</output>
		</layer>
		<layer id="87" name="/encoder/encoders/encoders.0/self_attn/Transpose_1" type="Transpose" version="opset1">
			<input>
				<port id="0" precision="FP32">
					<dim>1</dim>
					<dim>-1</dim>
					<dim>12</dim>
					<dim>64</dim>
				</port>
				<port id="1" precision="I64">
					<dim>4</dim>
				</port>
			</input>
			<output>
				<port id="2" precision="FP32" names="/encoder/encoders/encoders.0/self_attn/Transpose_1_output_0">
					<dim>1</dim>
					<dim>12</dim>
					<dim>-1</dim>
					<dim>64</dim>
				</port>
			</output>
		</layer>
		<layer id="88" name="Constant_29199_compressed" type="Const" version="opset1">
			<data element_type="f16" shape="1, 1, 768" offset="5363810" size="1536" />
			<output>
				<port id="0" precision="FP16">
					<dim>1</dim>
					<dim>1</dim>
					<dim>768</dim>
				</port>
			</output>
		</layer>
		<layer id="89" name="Constant_29199" type="Convert" version="opset1">
			<data destination_type="f32" />
			<rt_info>
				<attribute name="decompression" version="0" />
			</rt_info>
			<input>
				<port id="0" precision="FP16">
					<dim>1</dim>
					<dim>1</dim>
					<dim>768</dim>
				</port>
			</input>
			<output>
				<port id="1" precision="FP32">
					<dim>1</dim>
					<dim>1</dim>
					<dim>768</dim>
				</port>
			</output>
		</layer>
		<layer id="90" name="Constant_1041820" type="Const" version="opset1">
			<data element_type="i8" shape="768, 768" offset="5365346" size="589824" />
			<output>
				<port id="0" precision="I8">
					<dim>768</dim>
					<dim>768</dim>
				</port>
			</output>
		</layer>
		<layer id="91" name="Convert_1041821" type="Convert" version="opset1">
			<data destination_type="f32" />
			<input>
				<port id="0" precision="I8">
					<dim>768</dim>
					<dim>768</dim>
				</port>
			</input>
			<output>
				<port id="1" precision="FP32">
					<dim>768</dim>
					<dim>768</dim>
				</port>
			</output>
		</layer>
		<layer id="92" name="Constant_1041822" type="Const" version="opset1">
			<data element_type="f32" shape="768, 1" offset="5955170" size="3072" />
			<output>
				<port id="0" precision="FP32">
					<dim>768</dim>
					<dim>1</dim>
				</port>
			</output>
		</layer>
		<layer id="93" name="/encoder/encoders/encoders.0/self_attn/linear_k/MatMul/fq_weights_1" type="Multiply" version="opset1">
			<data auto_broadcast="numpy" />
			<input>
				<port id="0" precision="FP32">
					<dim>768</dim>
					<dim>768</dim>
				</port>
				<port id="1" precision="FP32">
					<dim>768</dim>
					<dim>1</dim>
				</port>
			</input>
			<output>
				<port id="2" precision="FP32">
					<dim>768</dim>
					<dim>768</dim>
				</port>
			</output>
		</layer>
		<layer id="94" name="/encoder/encoders/encoders.0/self_attn/linear_k/MatMul" type="MatMul" version="opset1">
			<data transpose_a="false" transpose_b="true" />
			<input>
				<port id="0" precision="FP32">
					<dim>1</dim>
					<dim>-1</dim>
					<dim>768</dim>
				</port>
				<port id="1" precision="FP32">
					<dim>768</dim>
					<dim>768</dim>
				</port>
			</input>
			<output>
				<port id="2" precision="FP32" names="/encoder/encoders/encoders.0/self_attn/linear_k/MatMul_output_0">
					<dim>1</dim>
					<dim>-1</dim>
					<dim>768</dim>
				</port>
			</output>
		</layer>
		<layer id="95" name="/encoder/encoders/encoders.0/self_attn/linear_k/Add" type="Add" version="opset1">
			<data auto_broadcast="numpy" />
			<input>
				<port id="0" precision="FP32">
					<dim>1</dim>
					<dim>1</dim>
					<dim>768</dim>
				</port>
				<port id="1" precision="FP32">
					<dim>1</dim>
					<dim>-1</dim>
					<dim>768</dim>
				</port>
			</input>
			<output>
				<port id="2" precision="FP32" names="/encoder/encoders/encoders.0/self_attn/linear_k/Add_output_0">
					<dim>1</dim>
					<dim>-1</dim>
					<dim>768</dim>
				</port>
			</output>
		</layer>
		<layer id="96" name="/encoder/encoders/encoders.0/self_attn/linear_k/Add/fq_output_0/input_low" type="Const" version="opset1">
			<data element_type="f32" shape="" offset="5958242" size="4" />
			<output>
				<port id="0" precision="FP32" />
			</output>
		</layer>
		<layer id="97" name="/encoder/encoders/encoders.0/self_attn/linear_k/Add/fq_output_0/input_high" type="Const" version="opset1">
			<data element_type="f32" shape="" offset="5958246" size="4" />
			<output>
				<port id="0" precision="FP32" />
			</output>
		</layer>
		<layer id="98" name="/encoder/encoders/encoders.0/self_attn/linear_k/Add/fq_output_0/output_low" type="Const" version="opset1">
			<data element_type="f32" shape="" offset="5958242" size="4" />
			<output>
				<port id="0" precision="FP32" />
			</output>
		</layer>
		<layer id="99" name="/encoder/encoders/encoders.0/self_attn/linear_k/Add/fq_output_0/output_high" type="Const" version="opset1">
			<data element_type="f32" shape="" offset="5958246" size="4" />
			<output>
				<port id="0" precision="FP32" />
			</output>
		</layer>
		<layer id="100" name="/encoder/encoders/encoders.0/self_attn/linear_k/Add/fq_output_0" type="FakeQuantize" version="opset1">
			<data levels="256" auto_broadcast="numpy" />
			<input>
				<port id="0" precision="FP32">
					<dim>1</dim>
					<dim>-1</dim>
					<dim>768</dim>
				</port>
				<port id="1" precision="FP32" />
				<port id="2" precision="FP32" />
				<port id="3" precision="FP32" />
				<port id="4" precision="FP32" />
			</input>
			<output>
				<port id="5" precision="FP32">
					<dim>1</dim>
					<dim>-1</dim>
					<dim>768</dim>
				</port>
			</output>
		</layer>
		<layer id="101" name="/encoder/encoders/encoders.0/self_attn/Reshape_1" type="Reshape" version="opset1">
			<data special_zero="true" />
			<input>
				<port id="0" precision="FP32">
					<dim>1</dim>
					<dim>-1</dim>
					<dim>768</dim>
				</port>
				<port id="1" precision="I64">
					<dim>4</dim>
				</port>
			</input>
			<output>
				<port id="2" precision="FP32" names="/encoder/encoders/encoders.0/self_attn/Reshape_1_output_0">
					<dim>1</dim>
					<dim>-1</dim>
					<dim>12</dim>
					<dim>64</dim>
				</port>
			</output>
		</layer>
		<layer id="102" name="Constant_781" type="Const" version="opset1">
			<data element_type="i64" shape="4" offset="5958250" size="32" />
			<output>
				<port id="0" precision="I64">
					<dim>4</dim>
				</port>
			</output>
		</layer>
		<layer id="103" name="/encoder/encoders/encoders.0/self_attn/Transpose_3" type="Transpose" version="opset1">
			<input>
				<port id="0" precision="FP32">
					<dim>1</dim>
					<dim>-1</dim>
					<dim>12</dim>
					<dim>64</dim>
				</port>
				<port id="1" precision="I64">
					<dim>4</dim>
				</port>
			</input>
			<output>
				<port id="2" precision="FP32" names="/encoder/encoders/encoders.0/self_attn/Transpose_3_output_0">
					<dim>1</dim>
					<dim>12</dim>
					<dim>64</dim>
					<dim>-1</dim>
				</port>
			</output>
		</layer>
		<layer id="104" name="/encoder/encoders/encoders.0/self_attn/MatMul" type="MatMul" version="opset1">
			<data transpose_a="false" transpose_b="false" />
			<input>
				<port id="0" precision="FP32">
					<dim>1</dim>
					<dim>12</dim>
					<dim>-1</dim>
					<dim>64</dim>
				</port>
				<port id="1" precision="FP32">
					<dim>1</dim>
					<dim>12</dim>
					<dim>64</dim>
					<dim>-1</dim>
				</port>
			</input>
			<output>
				<port id="2" precision="FP32" names="/encoder/encoders/encoders.0/self_attn/MatMul_output_0">
					<dim>1</dim>
					<dim>12</dim>
					<dim>-1</dim>
					<dim>-1</dim>
				</port>
			</output>
		</layer>
		<layer id="105" name="Constant_808_compressed" type="Const" version="opset1">
			<data element_type="f16" shape="" offset="5958282" size="2" />
			<output>
				<port id="0" precision="FP16" />
			</output>
		</layer>
		<layer id="106" name="Constant_808" type="Convert" version="opset1">
			<data destination_type="f32" />
			<rt_info>
				<attribute name="decompression" version="0" />
			</rt_info>
			<input>
				<port id="0" precision="FP16" />
			</input>
			<output>
				<port id="1" precision="FP32" />
			</output>
		</layer>
		<layer id="107" name="Constant_29200_compressed" type="Const" version="opset1">
			<data element_type="f16" shape="1, 1, 12, 64" offset="5958284" size="1536" />
			<output>
				<port id="0" precision="FP16">
					<dim>1</dim>
					<dim>1</dim>
					<dim>12</dim>
					<dim>64</dim>
				</port>
			</output>
		</layer>
		<layer id="108" name="Constant_29200" type="Convert" version="opset1">
			<data destination_type="f32" />
			<rt_info>
				<attribute name="decompression" version="0" />
			</rt_info>
			<input>
				<port id="0" precision="FP16">
					<dim>1</dim>
					<dim>1</dim>
					<dim>12</dim>
					<dim>64</dim>
				</port>
			</input>
			<output>
				<port id="1" precision="FP32">
					<dim>1</dim>
					<dim>1</dim>
					<dim>12</dim>
					<dim>64</dim>
				</port>
			</output>
		</layer>
		<layer id="109" name="/encoder/encoders/encoders.0/self_attn/Add_1" type="Add" version="opset1">
			<data auto_broadcast="numpy" />
			<input>
				<port id="0" precision="FP32">
					<dim>1</dim>
					<dim>-1</dim>
					<dim>12</dim>
					<dim>64</dim>
				</port>
				<port id="1" precision="FP32">
					<dim>1</dim>
					<dim>1</dim>
					<dim>12</dim>
					<dim>64</dim>
				</port>
			</input>
			<output>
				<port id="2" precision="FP32" names="/encoder/encoders/encoders.0/self_attn/Add_1_output_0">
					<dim>1</dim>
					<dim>-1</dim>
					<dim>12</dim>
					<dim>64</dim>
				</port>
			</output>
		</layer>
		<layer id="110" name="/encoder/encoders/encoders.0/self_attn/Add_1/fq_output_0/input_low" type="Const" version="opset1">
			<data element_type="f32" shape="" offset="5959820" size="4" />
			<output>
				<port id="0" precision="FP32" />
			</output>
		</layer>
		<layer id="111" name="/encoder/encoders/encoders.0/self_attn/Add_1/fq_output_0/input_high" type="Const" version="opset1">
			<data element_type="f32" shape="" offset="5959824" size="4" />
			<output>
				<port id="0" precision="FP32" />
			</output>
		</layer>
		<layer id="112" name="/encoder/encoders/encoders.0/self_attn/Add_1/fq_output_0/output_low" type="Const" version="opset1">
			<data element_type="f32" shape="" offset="5959820" size="4" />
			<output>
				<port id="0" precision="FP32" />
			</output>
		</layer>
		<layer id="113" name="/encoder/encoders/encoders.0/self_attn/Add_1/fq_output_0/output_high" type="Const" version="opset1">
			<data element_type="f32" shape="" offset="5959824" size="4" />
			<output>
				<port id="0" precision="FP32" />
			</output>
		</layer>
		<layer id="114" name="/encoder/encoders/encoders.0/self_attn/Add_1/fq_output_0" type="FakeQuantize" version="opset1">
			<data levels="256" auto_broadcast="numpy" />
			<input>
				<port id="0" precision="FP32">
					<dim>1</dim>
					<dim>-1</dim>
					<dim>12</dim>
					<dim>64</dim>
				</port>
				<port id="1" precision="FP32" />
				<port id="2" precision="FP32" />
				<port id="3" precision="FP32" />
				<port id="4" precision="FP32" />
			</input>
			<output>
				<port id="5" precision="FP32">
					<dim>1</dim>
					<dim>-1</dim>
					<dim>12</dim>
					<dim>64</dim>
				</port>
			</output>
		</layer>
		<layer id="115" name="Constant_779" type="Const" version="opset1">
			<data element_type="i64" shape="4" offset="5363778" size="32" />
			<output>
				<port id="0" precision="I64">
					<dim>4</dim>
				</port>
			</output>
		</layer>
		<layer id="116" name="/encoder/encoders/encoders.0/self_attn/Transpose_2" type="Transpose" version="opset1">
			<input>
				<port id="0" precision="FP32">
					<dim>1</dim>
					<dim>-1</dim>
					<dim>12</dim>
					<dim>64</dim>
				</port>
				<port id="1" precision="I64">
					<dim>4</dim>
				</port>
			</input>
			<output>
				<port id="2" precision="FP32" names="/encoder/encoders/encoders.0/self_attn/Transpose_2_output_0">
					<dim>1</dim>
					<dim>12</dim>
					<dim>-1</dim>
					<dim>64</dim>
				</port>
			</output>
		</layer>
		<layer id="117" name="Constant_586_compressed" type="Const" version="opset1">
			<data element_type="f16" shape="1, 9999, 768" offset="5959828" size="15358464" />
			<output>
				<port id="0" precision="FP16" names="onnx::Slice_495">
					<dim>1</dim>
					<dim>9999</dim>
					<dim>768</dim>
				</port>
			</output>
		</layer>
		<layer id="118" name="Constant_586" type="Convert" version="opset1">
			<data destination_type="f32" />
			<rt_info>
				<attribute name="decompression" version="0" />
			</rt_info>
			<input>
				<port id="0" precision="FP16">
					<dim>1</dim>
					<dim>9999</dim>
					<dim>768</dim>
				</port>
			</input>
			<output>
				<port id="1" precision="FP32">
					<dim>1</dim>
					<dim>9999</dim>
					<dim>768</dim>
				</port>
			</output>
		</layer>
		<layer id="119" name="Constant_22318" type="Const" version="opset1">
			<data element_type="i64" shape="2" offset="21318292" size="16" />
			<rt_info>
				<attribute name="precise" version="0" />
			</rt_info>
			<output>
				<port id="0" precision="I64">
					<dim>2</dim>
				</port>
			</output>
		</layer>
		<layer id="120" name="Constant_22317" type="Const" version="opset1">
			<data element_type="i64" shape="1" offset="21318308" size="8" />
			<rt_info>
				<attribute name="precise" version="0" />
			</rt_info>
			<output>
				<port id="0" precision="I64">
					<dim>1</dim>
				</port>
			</output>
		</layer>
		<layer id="121" name="/encoder/embed/embed.0/Constant_2" type="Const" version="opset1">
			<data element_type="i64" shape="" offset="21318316" size="8" />
			<rt_info>
				<attribute name="precise" version="0" />
			</rt_info>
			<output>
				<port id="0" precision="I64" names="/encoder/embed/embed.0/Constant_2_output_0" />
			</output>
		</layer>
		<layer id="122" name="/encoder/embed/embed.0/Shape" type="ShapeOf" version="opset3">
			<data output_type="i64" />
			<input>
				<port id="0" precision="FP32">
					<dim>1</dim>
					<dim>-1</dim>
					<dim>768</dim>
				</port>
			</input>
			<output>
				<port id="1" precision="I64" names="/encoder/embed/embed.0/Shape_output_0">
					<dim>3</dim>
				</port>
			</output>
		</layer>
		<layer id="123" name="/encoder/embed/embed.0/Constant_1" type="Const" version="opset1">
			<data element_type="i64" shape="" offset="21318308" size="8" />
			<rt_info>
				<attribute name="precise" version="0" />
			</rt_info>
			<output>
				<port id="0" precision="I64" names="/encoder/embed/embed.0/Constant_1_output_0" />
			</output>
		</layer>
		<layer id="124" name="Constant_428" type="Const" version="opset1">
			<data element_type="i64" shape="" offset="5362210" size="8" />
			<rt_info>
				<attribute name="precise" version="0" />
			</rt_info>
			<output>
				<port id="0" precision="I64" />
			</output>
		</layer>
		<layer id="125" name="/encoder/embed/embed.0/Gather" type="Gather" version="opset8">
			<data batch_dims="0" />
			<input>
				<port id="0" precision="I64">
					<dim>3</dim>
				</port>
				<port id="1" precision="I64" />
				<port id="2" precision="I64" />
			</input>
			<output>
				<port id="3" precision="I64" names="/encoder/embed/embed.0/Gather_output_0" />
			</output>
		</layer>
		<layer id="126" name="/encoder/embed/embed.0/Sub" type="Subtract" version="opset1">
			<data auto_broadcast="numpy" />
			<input>
				<port id="0" precision="I64" />
				<port id="1" precision="I64" />
			</input>
			<output>
				<port id="2" precision="I64" names="/encoder/embed/embed.0/Sub_output_0" />
			</output>
		</layer>
		<layer id="127" name="/encoder/embed/embed.0/Constant_3" type="Const" version="opset1">
			<data element_type="i64" shape="" offset="21318308" size="8" />
			<rt_info>
				<attribute name="precise" version="0" />
			</rt_info>
			<output>
				<port id="0" precision="I64" names="/encoder/embed/embed.0/Constant_3_output_0" />
			</output>
		</layer>
		<layer id="128" name="/encoder/embed/embed.0/Add" type="Add" version="opset1">
			<data auto_broadcast="numpy" />
			<input>
				<port id="0" precision="I64" />
				<port id="1" precision="I64" />
			</input>
			<output>
				<port id="2" precision="I64" names="/encoder/embed/embed.0/Add_output_0" />
			</output>
		</layer>
		<layer id="129" name="Constant_438" type="Const" version="opset1">
			<data element_type="i64" shape="1" offset="5362210" size="8" />
			<rt_info>
				<attribute name="precise" version="0" />
			</rt_info>
			<output>
				<port id="0" precision="I64">
					<dim>1</dim>
				</port>
			</output>
		</layer>
		<layer id="130" name="/encoder/embed/embed.0/Unsqueeze" type="Unsqueeze" version="opset1">
			<input>
				<port id="0" precision="I64" />
				<port id="1" precision="I64">
					<dim>1</dim>
				</port>
			</input>
			<output>
				<port id="2" precision="I64" names="/encoder/embed/embed.0/Unsqueeze_output_0">
					<dim>1</dim>
				</port>
			</output>
		</layer>
		<layer id="131" name="Constant_22316" type="Const" version="opset1">
			<data element_type="i32" shape="1" offset="2396178" size="4" />
			<rt_info>
				<attribute name="precise" version="0" />
			</rt_info>
			<output>
				<port id="0" precision="I32">
					<dim>1</dim>
				</port>
			</output>
		</layer>
		<layer id="132" name="ScatterUpdate_22319" type="ScatterUpdate" version="opset3">
			<input>
				<port id="0" precision="I64">
					<dim>2</dim>
				</port>
				<port id="1" precision="I64">
					<dim>1</dim>
				</port>
				<port id="2" precision="I64">
					<dim>1</dim>
				</port>
				<port id="3" precision="I32">
					<dim>1</dim>
				</port>
			</input>
			<output>
				<port id="4" precision="I64">
					<dim>2</dim>
				</port>
			</output>
		</layer>
		<layer id="133" name="Constant_22320" type="Const" version="opset1">
			<data element_type="i64" shape="2" offset="21318292" size="16" />
			<rt_info>
				<attribute name="precise" version="0" />
			</rt_info>
			<output>
				<port id="0" precision="I64">
					<dim>2</dim>
				</port>
			</output>
		</layer>
		<layer id="134" name="Constant_19727" type="Const" version="opset1">
			<data element_type="i64" shape="1" offset="21318316" size="8" />
			<rt_info>
				<attribute name="precise" version="0" />
			</rt_info>
			<output>
				<port id="0" precision="I64">
					<dim>1</dim>
				</port>
			</output>
		</layer>
		<layer id="135" name="Constant_440" type="Const" version="opset1">
			<data element_type="i64" shape="1" offset="5362210" size="8" />
			<rt_info>
				<attribute name="precise" version="0" />
			</rt_info>
			<output>
				<port id="0" precision="I64">
					<dim>1</dim>
				</port>
			</output>
		</layer>
		<layer id="136" name="Unsqueeze_19728" type="Unsqueeze" version="opset1">
			<input>
				<port id="0" precision="I64" />
				<port id="1" precision="I64">
					<dim>1</dim>
				</port>
			</input>
			<output>
				<port id="2" precision="I64">
					<dim>1</dim>
				</port>
			</output>
		</layer>
		<layer id="137" name="/encoder/embed/embed.0/Add_1" type="Add" version="opset1">
			<data auto_broadcast="numpy" />
			<input>
				<port id="0" precision="I64">
					<dim>1</dim>
				</port>
				<port id="1" precision="I64">
					<dim>1</dim>
				</port>
			</input>
			<output>
				<port id="2" precision="I64" names="/encoder/embed/embed.0/Add_1_output_0,/encoder/embed/embed.0/Unsqueeze_1_output_0">
					<dim>1</dim>
				</port>
			</output>
		</layer>
		<layer id="138" name="ScatterUpdate_22321" type="ScatterUpdate" version="opset3">
			<input>
				<port id="0" precision="I64">
					<dim>2</dim>
				</port>
				<port id="1" precision="I64">
					<dim>1</dim>
				</port>
				<port id="2" precision="I64">
					<dim>1</dim>
				</port>
				<port id="3" precision="I32">
					<dim>1</dim>
				</port>
			</input>
			<output>
				<port id="4" precision="I64">
					<dim>2</dim>
				</port>
			</output>
		</layer>
		<layer id="139" name="Constant_22324" type="Const" version="opset1">
			<data element_type="i64" shape="2" offset="21318324" size="16" />
			<rt_info>
				<attribute name="precise" version="0" />
			</rt_info>
			<output>
				<port id="0" precision="I64">
					<dim>2</dim>
				</port>
			</output>
		</layer>
		<layer id="140" name="/encoder/embed/embed.0/Slice" type="StridedSlice" version="opset1">
			<data begin_mask="1, 0" end_mask="1, 0" new_axis_mask="" shrink_axis_mask="" ellipsis_mask="" />
			<input>
				<port id="0" precision="FP32">
					<dim>1</dim>
					<dim>9999</dim>
					<dim>768</dim>
				</port>
				<port id="1" precision="I64">
					<dim>2</dim>
				</port>
				<port id="2" precision="I64">
					<dim>2</dim>
				</port>
				<port id="3" precision="I64">
					<dim>2</dim>
				</port>
			</input>
			<output>
				<port id="4" precision="FP32" names="/encoder/embed/embed.0/Slice_output_0">
					<dim>1</dim>
					<dim>-1</dim>
					<dim>768</dim>
				</port>
			</output>
		</layer>
		<layer id="141" name="/encoder/embed/embed.0/Slice_0_0/nncf_smooth_quant/scale" type="Const" version="opset1">
			<data element_type="f32" shape="1, 1, 768" offset="21318340" size="3072" />
			<output>
				<port id="0" precision="FP32">
					<dim>1</dim>
					<dim>1</dim>
					<dim>768</dim>
				</port>
			</output>
		</layer>
		<layer id="142" name="/encoder/embed/embed.0/Slice_0_0/nncf_smooth_quant" type="Multiply" version="opset1">
			<data auto_broadcast="numpy" />
			<input>
				<port id="0" precision="FP32">
					<dim>1</dim>
					<dim>-1</dim>
					<dim>768</dim>
				</port>
				<port id="1" precision="FP32">
					<dim>1</dim>
					<dim>1</dim>
					<dim>768</dim>
				</port>
			</input>
			<output>
				<port id="2" precision="FP32">
					<dim>1</dim>
					<dim>-1</dim>
					<dim>768</dim>
				</port>
			</output>
		</layer>
		<layer id="143" name="Constant_1041825" type="Const" version="opset1">
			<data element_type="i8" shape="768, 768" offset="21321412" size="589824" />
			<output>
				<port id="0" precision="I8">
					<dim>768</dim>
					<dim>768</dim>
				</port>
			</output>
		</layer>
		<layer id="144" name="Convert_1041826" type="Convert" version="opset1">
			<data destination_type="f32" />
			<input>
				<port id="0" precision="I8">
					<dim>768</dim>
					<dim>768</dim>
				</port>
			</input>
			<output>
				<port id="1" precision="FP32">
					<dim>768</dim>
					<dim>768</dim>
				</port>
			</output>
		</layer>
		<layer id="145" name="Constant_1041827" type="Const" version="opset1">
			<data element_type="f32" shape="768, 1" offset="21911236" size="3072" />
			<output>
				<port id="0" precision="FP32">
					<dim>768</dim>
					<dim>1</dim>
				</port>
			</output>
		</layer>
		<layer id="146" name="/encoder/encoders/encoders.0/self_attn/linear_pos/MatMul/fq_weights_1" type="Multiply" version="opset1">
			<data auto_broadcast="numpy" />
			<input>
				<port id="0" precision="FP32">
					<dim>768</dim>
					<dim>768</dim>
				</port>
				<port id="1" precision="FP32">
					<dim>768</dim>
					<dim>1</dim>
				</port>
			</input>
			<output>
				<port id="2" precision="FP32">
					<dim>768</dim>
					<dim>768</dim>
				</port>
			</output>
		</layer>
		<layer id="147" name="/encoder/encoders/encoders.0/self_attn/linear_pos/MatMul" type="MatMul" version="opset1">
			<data transpose_a="false" transpose_b="true" />
			<input>
				<port id="0" precision="FP32">
					<dim>1</dim>
					<dim>-1</dim>
					<dim>768</dim>
				</port>
				<port id="1" precision="FP32">
					<dim>768</dim>
					<dim>768</dim>
				</port>
			</input>
			<output>
				<port id="2" precision="FP32" names="/encoder/encoders/encoders.0/self_attn/linear_pos/MatMul_output_0">
					<dim>1</dim>
					<dim>-1</dim>
					<dim>768</dim>
				</port>
			</output>
		</layer>
		<layer id="148" name="/encoder/encoders/encoders.0/self_attn/Shape_1" type="ShapeOf" version="opset3">
			<data output_type="i64" />
			<input>
				<port id="0" precision="FP32">
					<dim>1</dim>
					<dim>-1</dim>
					<dim>768</dim>
				</port>
			</input>
			<output>
				<port id="1" precision="I64" names="/encoder/encoders/encoders.0/self_attn/Shape_1_output_0">
					<dim>3</dim>
				</port>
			</output>
		</layer>
		<layer id="149" name="Constant_19770" type="Const" version="opset1">
			<data element_type="i64" shape="1" offset="5362210" size="8" />
			<rt_info>
				<attribute name="precise" version="0" />
			</rt_info>
			<output>
				<port id="0" precision="I64">
					<dim>1</dim>
				</port>
			</output>
		</layer>
		<layer id="150" name="Constant_698" type="Const" version="opset1">
			<data element_type="i64" shape="" offset="5362210" size="8" />
			<rt_info>
				<attribute name="precise" version="0" />
			</rt_info>
			<output>
				<port id="0" precision="I64" />
			</output>
		</layer>
		<layer id="151" name="/encoder/encoders/encoders.0/self_attn/Gather_1" type="Gather" version="opset8">
			<data batch_dims="0" />
			<input>
				<port id="0" precision="I64">
					<dim>3</dim>
				</port>
				<port id="1" precision="I64">
					<dim>1</dim>
				</port>
				<port id="2" precision="I64" />
			</input>
			<output>
				<port id="3" precision="I64" names="/encoder/encoders/encoders.0/self_attn/Gather_1_output_0,/encoder/encoders/encoders.0/self_attn/Unsqueeze_10_output_0,/encoder/encoders/encoders.0/self_attn/Unsqueeze_11_output_0,/encoder/encoders/encoders.0/self_attn/Unsqueeze_12_output_0,/encoder/encoders/encoders.0/self_attn/Unsqueeze_13_output_0,/encoder/encoders/encoders.0/self_attn/Unsqueeze_14_output_0,/encoder/encoders/encoders.0/self_attn/Unsqueeze_3_output_0,/encoder/encoders/encoders.0/self_attn/Unsqueeze_4_output_0,/encoder/encoders/encoders.0/self_attn/Unsqueeze_5_output_0,/encoder/encoders/encoders.0/self_attn/Unsqueeze_6_output_0,/encoder/encoders/encoders.0/self_attn/Unsqueeze_7_output_0,/encoder/encoders/encoders.0/self_attn/Unsqueeze_8_output_0,/encoder/encoders/encoders.0/self_attn/Unsqueeze_9_output_0">
					<dim>1</dim>
				</port>
			</output>
		</layer>
		<layer id="152" name="/encoder/encoders/encoders.0/self_attn/Constant_11" type="Const" version="opset1">
			<data element_type="i64" shape="1" offset="6146" size="8" />
			<rt_info>
				<attribute name="precise" version="0" />
			</rt_info>
			<output>
				<port id="0" precision="I64" names="/encoder/encoders/encoders.0/self_attn/Constant_11_output_0">
					<dim>1</dim>
				</port>
			</output>
		</layer>
		<layer id="153" name="/encoder/encoders/encoders.0/self_attn/Constant_12" type="Const" version="opset1">
			<data element_type="i64" shape="1" offset="5362218" size="8" />
			<rt_info>
				<attribute name="precise" version="0" />
			</rt_info>
			<output>
				<port id="0" precision="I64" names="/encoder/encoders/encoders.0/self_attn/Constant_12_output_0">
					<dim>1</dim>
				</port>
			</output>
		</layer>
		<layer id="154" name="/encoder/encoders/encoders.0/self_attn/Constant_13" type="Const" version="opset1">
			<data element_type="i64" shape="1" offset="5362226" size="8" />
			<rt_info>
				<attribute name="precise" version="0" />
			</rt_info>
			<output>
				<port id="0" precision="I64" names="/encoder/encoders/encoders.0/self_attn/Constant_13_output_0">
					<dim>1</dim>
				</port>
			</output>
		</layer>
		<layer id="155" name="/encoder/encoders/encoders.0/self_attn/Concat_3" type="Concat" version="opset1">
			<data axis="0" />
			<input>
				<port id="0" precision="I64">
					<dim>1</dim>
				</port>
				<port id="1" precision="I64">
					<dim>1</dim>
				</port>
				<port id="2" precision="I64">
					<dim>1</dim>
				</port>
				<port id="3" precision="I64">
					<dim>1</dim>
				</port>
			</input>
			<output>
				<port id="4" precision="I64" names="/encoder/encoders/encoders.0/self_attn/Concat_3_output_0,/encoder/encoders/encoders.1/self_attn/Concat_output_0,/encoder/encoders/encoders.10/self_attn/Concat_output_0,/encoder/encoders/encoders.11/self_attn/Concat_output_0,/encoder/encoders/encoders.2/self_attn/Concat_output_0,/encoder/encoders/encoders.3/self_attn/Concat_output_0,/encoder/encoders/encoders.4/self_attn/Concat_output_0,/encoder/encoders/encoders.5/self_attn/Concat_output_0,/encoder/encoders/encoders.6/self_attn/Concat_output_0,/encoder/encoders/encoders.7/self_attn/Concat_output_0,/encoder/encoders/encoders.8/self_attn/Concat_output_0,/encoder/encoders/encoders.9/self_attn/Concat_output_0">
					<dim>4</dim>
				</port>
			</output>
		</layer>
		<layer id="156" name="/encoder/encoders/encoders.0/self_attn/Reshape_3" type="Reshape" version="opset1">
			<data special_zero="true" />
			<input>
				<port id="0" precision="FP32">
					<dim>1</dim>
					<dim>-1</dim>
					<dim>768</dim>
				</port>
				<port id="1" precision="I64">
					<dim>4</dim>
				</port>
			</input>
			<output>
				<port id="2" precision="FP32" names="/encoder/encoders/encoders.0/self_attn/Reshape_3_output_0">
					<dim>1</dim>
					<dim>-1</dim>
					<dim>12</dim>
					<dim>64</dim>
				</port>
			</output>
		</layer>
		<layer id="157" name="Constant_784" type="Const" version="opset1">
			<data element_type="i64" shape="4" offset="5958250" size="32" />
			<output>
				<port id="0" precision="I64">
					<dim>4</dim>
				</port>
			</output>
		</layer>
		<layer id="158" name="/encoder/encoders/encoders.0/self_attn/Transpose_4" type="Transpose" version="opset1">
			<input>
				<port id="0" precision="FP32">
					<dim>1</dim>
					<dim>-1</dim>
					<dim>12</dim>
					<dim>64</dim>
				</port>
				<port id="1" precision="I64">
					<dim>4</dim>
				</port>
			</input>
			<output>
				<port id="2" precision="FP32" names="/encoder/encoders/encoders.0/self_attn/Transpose_4_output_0">
					<dim>1</dim>
					<dim>12</dim>
					<dim>64</dim>
					<dim>-1</dim>
				</port>
			</output>
		</layer>
		<layer id="159" name="/encoder/encoders/encoders.0/self_attn/MatMul_1" type="MatMul" version="opset1">
			<data transpose_a="false" transpose_b="false" />
			<input>
				<port id="0" precision="FP32">
					<dim>1</dim>
					<dim>12</dim>
					<dim>-1</dim>
					<dim>64</dim>
				</port>
				<port id="1" precision="FP32">
					<dim>1</dim>
					<dim>12</dim>
					<dim>64</dim>
					<dim>-1</dim>
				</port>
			</input>
			<output>
				<port id="2" precision="FP32" names="/encoder/encoders/encoders.0/self_attn/MatMul_1_output_0">
					<dim>1</dim>
					<dim>12</dim>
					<dim>-1</dim>
					<dim>-1</dim>
				</port>
			</output>
		</layer>
		<layer id="160" name="/encoder/encoders/encoders.0/self_attn/Shape_2" type="ShapeOf" version="opset3">
			<data output_type="i64" />
			<input>
				<port id="0" precision="FP32">
					<dim>1</dim>
					<dim>12</dim>
					<dim>-1</dim>
					<dim>-1</dim>
				</port>
			</input>
			<output>
				<port id="1" precision="I64" names="/encoder/encoders/encoders.0/self_attn/Shape_2_output_0,/encoder/encoders/encoders.0/self_attn/Shape_3_output_0,/encoder/encoders/encoders.0/self_attn/Shape_4_output_0,/encoder/encoders/encoders.0/self_attn/Shape_5_output_0,/encoder/encoders/encoders.0/self_attn/Shape_6_output_0,/encoder/encoders/encoders.0/self_attn/Shape_7_output_0">
					<dim>4</dim>
				</port>
			</output>
		</layer>
		<layer id="161" name="Constant_19989" type="Const" version="opset1">
			<data element_type="i64" shape="3" offset="21914308" size="24" />
			<rt_info>
				<attribute name="precise" version="0" />
			</rt_info>
			<output>
				<port id="0" precision="I64">
					<dim>3</dim>
				</port>
			</output>
		</layer>
		<layer id="162" name="Constant_19990" type="Const" version="opset1">
			<data element_type="i64" shape="" offset="5362210" size="8" />
			<rt_info>
				<attribute name="precise" version="0" />
			</rt_info>
			<output>
				<port id="0" precision="I64" />
			</output>
		</layer>
		<layer id="163" name="Gather_19991" type="Gather" version="opset8">
			<data batch_dims="0" />
			<input>
				<port id="0" precision="I64">
					<dim>4</dim>
				</port>
				<port id="1" precision="I64">
					<dim>3</dim>
				</port>
				<port id="2" precision="I64" />
			</input>
			<output>
				<port id="3" precision="I64">
					<dim>3</dim>
				</port>
			</output>
		</layer>
		<layer id="164" name="/encoder/encoders/encoders.0/self_attn/Constant_50" type="Const" version="opset1">
			<data element_type="i64" shape="1" offset="21318308" size="8" />
			<rt_info>
				<attribute name="precise" version="0" />
			</rt_info>
			<output>
				<port id="0" precision="I64" names="/encoder/encoders/encoders.0/self_attn/Constant_50_output_0">
					<dim>1</dim>
				</port>
			</output>
		</layer>
		<layer id="165" name="/encoder/encoders/encoders.0/self_attn/Concat_4" type="Concat" version="opset1">
			<data axis="0" />
			<input>
				<port id="0" precision="I64">
					<dim>3</dim>
				</port>
				<port id="1" precision="I64">
					<dim>1</dim>
				</port>
			</input>
			<output>
				<port id="2" precision="I64" names="/encoder/encoders/encoders.0/self_attn/Concat_4_output_0">
					<dim>4</dim>
				</port>
			</output>
		</layer>
		<layer id="166" name="/encoder/encoders/encoders.0/self_attn/ConstantOfShape" type="Broadcast" version="opset3">
			<data mode="numpy" />
			<input>
				<port id="0" precision="FP32" />
				<port id="1" precision="I64">
					<dim>4</dim>
				</port>
			</input>
			<output>
				<port id="2" precision="FP32" names="/encoder/encoders/encoders.0/self_attn/ConstantOfShape_output_0">
					<dim>1</dim>
					<dim>12</dim>
					<dim>-1</dim>
					<dim>1</dim>
				</port>
			</output>
		</layer>
		<layer id="167" name="/encoder/encoders/encoders.0/self_attn/Concat_5" type="Concat" version="opset1">
			<data axis="-1" />
			<input>
				<port id="0" precision="FP32">
					<dim>1</dim>
					<dim>12</dim>
					<dim>-1</dim>
					<dim>1</dim>
				</port>
				<port id="1" precision="FP32">
					<dim>1</dim>
					<dim>12</dim>
					<dim>-1</dim>
					<dim>-1</dim>
				</port>
			</input>
			<output>
				<port id="2" precision="FP32" names="/encoder/encoders/encoders.0/self_attn/Concat_5_output_0">
					<dim>1</dim>
					<dim>12</dim>
					<dim>-1</dim>
					<dim>-1</dim>
				</port>
			</output>
		</layer>
		<layer id="168" name="Constant_19994" type="Const" version="opset1">
			<data element_type="i64" shape="2" offset="21914332" size="16" />
			<rt_info>
				<attribute name="precise" version="0" />
			</rt_info>
			<output>
				<port id="0" precision="I64">
					<dim>2</dim>
				</port>
			</output>
		</layer>
		<layer id="169" name="Constant_19995" type="Const" version="opset1">
			<data element_type="i64" shape="" offset="5362210" size="8" />
			<rt_info>
				<attribute name="precise" version="0" />
			</rt_info>
			<output>
				<port id="0" precision="I64" />
			</output>
		</layer>
		<layer id="170" name="Gather_19996" type="Gather" version="opset8">
			<data batch_dims="0" />
			<input>
				<port id="0" precision="I64">
					<dim>4</dim>
				</port>
				<port id="1" precision="I64">
					<dim>2</dim>
				</port>
				<port id="2" precision="I64" />
			</input>
			<output>
				<port id="3" precision="I64">
					<dim>2</dim>
				</port>
			</output>
		</layer>
		<layer id="171" name="Constant_19782" type="Const" version="opset1">
			<data element_type="i64" shape="1" offset="21914348" size="8" />
			<rt_info>
				<attribute name="precise" version="0" />
			</rt_info>
			<output>
				<port id="0" precision="I64">
					<dim>1</dim>
				</port>
			</output>
		</layer>
		<layer id="172" name="Constant_818" type="Const" version="opset1">
			<data element_type="i64" shape="" offset="5362210" size="8" />
			<rt_info>
				<attribute name="precise" version="0" />
			</rt_info>
			<output>
				<port id="0" precision="I64" />
			</output>
		</layer>
		<layer id="173" name="/encoder/encoders/encoders.0/self_attn/Gather_5" type="Gather" version="opset8">
			<data batch_dims="0" />
			<input>
				<port id="0" precision="I64">
					<dim>4</dim>
				</port>
				<port id="1" precision="I64">
					<dim>1</dim>
				</port>
				<port id="2" precision="I64" />
			</input>
			<output>
				<port id="3" precision="I64" names="/encoder/encoders/encoders.0/self_attn/Gather_5_output_0">
					<dim>1</dim>
				</port>
			</output>
		</layer>
		<layer id="174" name="Constant_19731" type="Const" version="opset1">
			<data element_type="i64" shape="1" offset="21318308" size="8" />
			<rt_info>
				<attribute name="precise" version="0" />
			</rt_info>
			<output>
				<port id="0" precision="I64">
					<dim>1</dim>
				</port>
			</output>
		</layer>
		<layer id="175" name="/encoder/encoders/encoders.0/self_attn/Add_2" type="Add" version="opset1">
			<data auto_broadcast="numpy" />
			<input>
				<port id="0" precision="I64">
					<dim>1</dim>
				</port>
				<port id="1" precision="I64">
					<dim>1</dim>
				</port>
			</input>
			<output>
				<port id="2" precision="I64" names="/encoder/encoders/encoders.0/self_attn/Add_2_output_0,/encoder/encoders/encoders.0/self_attn/Unsqueeze_20_output_0">
					<dim>1</dim>
				</port>
			</output>
		</layer>
		<layer id="176" name="Constant_19779" type="Const" version="opset1">
			<data element_type="i64" shape="1" offset="21914356" size="8" />
			<rt_info>
				<attribute name="precise" version="0" />
			</rt_info>
			<output>
				<port id="0" precision="I64">
					<dim>1</dim>
				</port>
			</output>
		</layer>
		<layer id="177" name="Constant_797" type="Const" version="opset1">
			<data element_type="i64" shape="" offset="5362210" size="8" />
			<rt_info>
				<attribute name="precise" version="0" />
			</rt_info>
			<output>
				<port id="0" precision="I64" />
			</output>
		</layer>
		<layer id="178" name="/encoder/encoders/encoders.0/self_attn/Gather_4" type="Gather" version="opset8">
			<data batch_dims="0" />
			<input>
				<port id="0" precision="I64">
					<dim>4</dim>
				</port>
				<port id="1" precision="I64">
					<dim>1</dim>
				</port>
				<port id="2" precision="I64" />
			</input>
			<output>
				<port id="3" precision="I64" names="/encoder/encoders/encoders.0/self_attn/Gather_4_output_0,/encoder/encoders/encoders.0/self_attn/Unsqueeze_17_output_0,/encoder/encoders/encoders.0/self_attn/Unsqueeze_21_output_0">
					<dim>1</dim>
				</port>
			</output>
		</layer>
		<layer id="179" name="/encoder/encoders/encoders.0/self_attn/Concat_6" type="Concat" version="opset1">
			<data axis="0" />
			<input>
				<port id="0" precision="I64">
					<dim>2</dim>
				</port>
				<port id="1" precision="I64">
					<dim>1</dim>
				</port>
				<port id="2" precision="I64">
					<dim>1</dim>
				</port>
			</input>
			<output>
				<port id="3" precision="I64" names="/encoder/encoders/encoders.0/self_attn/Concat_6_output_0">
					<dim>4</dim>
				</port>
			</output>
		</layer>
		<layer id="180" name="/encoder/encoders/encoders.0/self_attn/Reshape_4" type="Reshape" version="opset1">
			<data special_zero="true" />
			<input>
				<port id="0" precision="FP32">
					<dim>1</dim>
					<dim>12</dim>
					<dim>-1</dim>
					<dim>-1</dim>
				</port>
				<port id="1" precision="I64">
					<dim>4</dim>
				</port>
			</input>
			<output>
				<port id="2" precision="FP32" names="/encoder/encoders/encoders.0/self_attn/Reshape_4_output_0">
					<dim>1</dim>
					<dim>12</dim>
					<dim>-1</dim>
					<dim>-1</dim>
				</port>
			</output>
		</layer>
		<layer id="181" name="Constant_22512" type="Const" version="opset1">
			<data element_type="i64" shape="3" offset="21914364" size="24" />
			<rt_info>
				<attribute name="precise" version="0" />
			</rt_info>
			<output>
				<port id="0" precision="I64">
					<dim>3</dim>
				</port>
			</output>
		</layer>
		<layer id="182" name="Constant_22515" type="Const" version="opset1">
			<data element_type="i64" shape="3" offset="21914388" size="24" />
			<rt_info>
				<attribute name="precise" version="0" />
			</rt_info>
			<output>
				<port id="0" precision="I64">
					<dim>3</dim>
				</port>
			</output>
		</layer>
		<layer id="183" name="Constant_22518" type="Const" version="opset1">
			<data element_type="i64" shape="3" offset="21914412" size="24" />
			<rt_info>
				<attribute name="precise" version="0" />
			</rt_info>
			<output>
				<port id="0" precision="I64">
					<dim>3</dim>
				</port>
			</output>
		</layer>
		<layer id="184" name="/encoder/encoders/encoders.0/self_attn/Slice" type="StridedSlice" version="opset1">
			<data begin_mask="1, 1, 0" end_mask="1, 1, 0" new_axis_mask="" shrink_axis_mask="" ellipsis_mask="" />
			<input>
				<port id="0" precision="FP32">
					<dim>1</dim>
					<dim>12</dim>
					<dim>-1</dim>
					<dim>-1</dim>
				</port>
				<port id="1" precision="I64">
					<dim>3</dim>
				</port>
				<port id="2" precision="I64">
					<dim>3</dim>
				</port>
				<port id="3" precision="I64">
					<dim>3</dim>
				</port>
			</input>
			<output>
				<port id="4" precision="FP32" names="/encoder/encoders/encoders.0/self_attn/Slice_output_0">
					<dim>1</dim>
					<dim>12</dim>
					<dim>-1</dim>
					<dim>-1</dim>
				</port>
			</output>
		</layer>
		<layer id="185" name="/encoder/encoders/encoders.0/self_attn/Reshape_5" type="Reshape" version="opset1">
			<data special_zero="true" />
			<input>
				<port id="0" precision="FP32">
					<dim>1</dim>
					<dim>12</dim>
					<dim>-1</dim>
					<dim>-1</dim>
				</port>
				<port id="1" precision="I64">
					<dim>4</dim>
				</port>
			</input>
			<output>
				<port id="2" precision="FP32" names="/encoder/encoders/encoders.0/self_attn/Reshape_5_output_0">
					<dim>1</dim>
					<dim>12</dim>
					<dim>-1</dim>
					<dim>-1</dim>
				</port>
			</output>
		</layer>
		<layer id="186" name="Constant_22525" type="Const" version="opset1">
			<data element_type="i64" shape="4" offset="21914436" size="32" />
			<rt_info>
				<attribute name="precise" version="0" />
			</rt_info>
			<output>
				<port id="0" precision="I64">
					<dim>4</dim>
				</port>
			</output>
		</layer>
		<layer id="187" name="Constant_22526" type="Const" version="opset1">
			<data element_type="i64" shape="4" offset="21914436" size="32" />
			<rt_info>
				<attribute name="precise" version="0" />
			</rt_info>
			<output>
				<port id="0" precision="I64">
					<dim>4</dim>
				</port>
			</output>
		</layer>
		<layer id="188" name="Constant_22522" type="Const" version="opset1">
			<data element_type="i64" shape="1" offset="21914348" size="8" />
			<rt_info>
				<attribute name="precise" version="0" />
			</rt_info>
			<output>
				<port id="0" precision="I64">
					<dim>1</dim>
				</port>
			</output>
		</layer>
		<layer id="189" name="/encoder/encoders/encoders.0/self_attn/Constant_58" type="Const" version="opset1">
			<data element_type="i64" shape="1" offset="6146" size="8" />
			<rt_info>
				<attribute name="precise" version="0" />
			</rt_info>
			<output>
				<port id="0" precision="I64" names="/encoder/encoders/encoders.0/self_attn/Constant_58_output_0">
					<dim>1</dim>
				</port>
			</output>
		</layer>
		<layer id="190" name="/encoder/encoders/encoders.0/self_attn/Constant_59" type="Const" version="opset1">
			<data element_type="i64" shape="1" offset="21914468" size="8" />
			<rt_info>
				<attribute name="precise" version="0" />
			</rt_info>
			<output>
				<port id="0" precision="I64" names="/encoder/encoders/encoders.0/self_attn/Constant_59_output_0">
					<dim>1</dim>
				</port>
			</output>
		</layer>
		<layer id="191" name="Broadcast_910" type="Const" version="opset1">
			<data element_type="i64" shape="1" offset="21318308" size="8" />
			<rt_info>
				<attribute name="precise" version="0" />
			</rt_info>
			<output>
				<port id="0" precision="I64">
					<dim>1</dim>
				</port>
			</output>
		</layer>
		<layer id="192" name="/encoder/encoders/encoders.0/self_attn/Slice_1" type="StridedSlice" version="opset1">
			<data begin_mask="0" end_mask="0" new_axis_mask="" shrink_axis_mask="" ellipsis_mask="" />
			<input>
				<port id="0" precision="I64">
					<dim>4</dim>
				</port>
				<port id="1" precision="I64">
					<dim>1</dim>
				</port>
				<port id="2" precision="I64">
					<dim>1</dim>
				</port>
				<port id="3" precision="I64">
					<dim>1</dim>
				</port>
			</input>
			<output>
				<port id="4" precision="I64" names="/encoder/encoders/encoders.0/self_attn/Slice_1_output_0">
					<dim>1</dim>
				</port>
			</output>
		</layer>
		<layer id="193" name="Constant_917" type="Const" version="opset1">
			<data element_type="i64" shape="1" offset="5362210" size="8" />
			<rt_info>
				<attribute name="precise" version="0" />
			</rt_info>
			<output>
				<port id="0" precision="I64">
					<dim>1</dim>
				</port>
			</output>
		</layer>
		<layer id="194" name="/encoder/encoders/encoders.0/self_attn/Squeeze" type="Squeeze" version="opset1">
			<input>
				<port id="0" precision="I64">
					<dim>1</dim>
				</port>
				<port id="1" precision="I64">
					<dim>1</dim>
				</port>
			</input>
			<output>
				<port id="2" precision="I64" names="/encoder/encoders/encoders.0/self_attn/Squeeze_output_0" />
			</output>
		</layer>
		<layer id="195" name="/encoder/encoders/encoders.0/self_attn/Constant_60" type="Const" version="opset1">
			<data element_type="i64" shape="" offset="21914356" size="8" />
			<rt_info>
				<attribute name="precise" version="0" />
			</rt_info>
			<output>
				<port id="0" precision="I64" names="/encoder/encoders/encoders.0/self_attn/Constant_60_output_0" />
			</output>
		</layer>
		<layer id="196" name="/encoder/encoders/encoders.0/self_attn/Div" type="Divide" version="opset1">
			<data auto_broadcast="numpy" m_pythondiv="true" />
			<input>
				<port id="0" precision="I64" />
				<port id="1" precision="I64" />
			</input>
			<output>
				<port id="2" precision="I64" names="/encoder/encoders/encoders.0/self_attn/Cast_1_output_0,/encoder/encoders/encoders.0/self_attn/Cast_output_0,/encoder/encoders/encoders.0/self_attn/Div_output_0" />
			</output>
		</layer>
		<layer id="197" name="/encoder/encoders/encoders.0/self_attn/Constant_61" type="Const" version="opset1">
			<data element_type="i64" shape="" offset="21318308" size="8" />
			<rt_info>
				<attribute name="precise" version="0" />
			</rt_info>
			<output>
				<port id="0" precision="I64" names="/encoder/encoders/encoders.0/self_attn/Constant_61_output_0" />
			</output>
		</layer>
		<layer id="198" name="/encoder/encoders/encoders.0/self_attn/Add_3" type="Add" version="opset1">
			<data auto_broadcast="numpy" />
			<input>
				<port id="0" precision="I64" />
				<port id="1" precision="I64" />
			</input>
			<output>
				<port id="2" precision="I64" names="/encoder/encoders/encoders.0/self_attn/Add_3_output_0" />
			</output>
		</layer>
		<layer id="199" name="Constant_927" type="Const" version="opset1">
			<data element_type="i64" shape="1" offset="5362210" size="8" />
			<rt_info>
				<attribute name="precise" version="0" />
			</rt_info>
			<output>
				<port id="0" precision="I64">
					<dim>1</dim>
				</port>
			</output>
		</layer>
		<layer id="200" name="/encoder/encoders/encoders.0/self_attn/Unsqueeze_22" type="Unsqueeze" version="opset1">
			<input>
				<port id="0" precision="I64" />
				<port id="1" precision="I64">
					<dim>1</dim>
				</port>
			</input>
			<output>
				<port id="2" precision="I64" names="/encoder/encoders/encoders.0/self_attn/Unsqueeze_22_output_0">
					<dim>1</dim>
				</port>
			</output>
		</layer>
		<layer id="201" name="Constant_22521" type="Const" version="opset1">
			<data element_type="i32" shape="1" offset="2396178" size="4" />
			<rt_info>
				<attribute name="precise" version="0" />
			</rt_info>
			<output>
				<port id="0" precision="I32">
					<dim>1</dim>
				</port>
			</output>
		</layer>
		<layer id="202" name="ScatterUpdate_22527" type="ScatterUpdate" version="opset3">
			<input>
				<port id="0" precision="I64">
					<dim>4</dim>
				</port>
				<port id="1" precision="I64">
					<dim>1</dim>
				</port>
				<port id="2" precision="I64">
					<dim>1</dim>
				</port>
				<port id="3" precision="I32">
					<dim>1</dim>
				</port>
			</input>
			<output>
				<port id="4" precision="I64">
					<dim>4</dim>
				</port>
			</output>
		</layer>
		<layer id="203" name="Constant_22530" type="Const" version="opset1">
			<data element_type="i64" shape="4" offset="21914476" size="32" />
			<rt_info>
				<attribute name="precise" version="0" />
			</rt_info>
			<output>
				<port id="0" precision="I64">
					<dim>4</dim>
				</port>
			</output>
		</layer>
		<layer id="204" name="/encoder/encoders/encoders.0/self_attn/Slice_2" type="StridedSlice" version="opset1">
			<data begin_mask="1, 1, 1, 0" end_mask="1, 1, 1, 0" new_axis_mask="" shrink_axis_mask="" ellipsis_mask="" />
			<input>
				<port id="0" precision="FP32">
					<dim>1</dim>
					<dim>12</dim>
					<dim>-1</dim>
					<dim>-1</dim>
				</port>
				<port id="1" precision="I64">
					<dim>4</dim>
				</port>
				<port id="2" precision="I64">
					<dim>4</dim>
				</port>
				<port id="3" precision="I64">
					<dim>4</dim>
				</port>
			</input>
			<output>
				<port id="4" precision="FP32" names="/encoder/encoders/encoders.0/self_attn/Slice_2_output_0">
					<dim>1</dim>
					<dim>12</dim>
					<dim>-1</dim>
					<dim>-1</dim>
				</port>
			</output>
		</layer>
		<layer id="205" name="/encoder/encoders/encoders.0/self_attn/Add_4" type="Add" version="opset1">
			<data auto_broadcast="numpy" />
			<input>
				<port id="0" precision="FP32">
					<dim>1</dim>
					<dim>12</dim>
					<dim>-1</dim>
					<dim>-1</dim>
				</port>
				<port id="1" precision="FP32">
					<dim>1</dim>
					<dim>12</dim>
					<dim>-1</dim>
					<dim>-1</dim>
				</port>
			</input>
			<output>
				<port id="2" precision="FP32" names="/encoder/encoders/encoders.0/self_attn/Add_4_output_0">
					<dim>1</dim>
					<dim>12</dim>
					<dim>-1</dim>
					<dim>-1</dim>
				</port>
			</output>
		</layer>
		<layer id="206" name="Constant_29201_compressed" type="Const" version="opset1">
			<data element_type="f16" shape="1, 1, 1, 1" offset="21914508" size="2" />
			<output>
				<port id="0" precision="FP16">
					<dim>1</dim>
					<dim>1</dim>
					<dim>1</dim>
					<dim>1</dim>
				</port>
			</output>
		</layer>
		<layer id="207" name="Constant_29201" type="Convert" version="opset1">
			<data destination_type="f32" />
			<rt_info>
				<attribute name="decompression" version="0" />
			</rt_info>
			<input>
				<port id="0" precision="FP16">
					<dim>1</dim>
					<dim>1</dim>
					<dim>1</dim>
					<dim>1</dim>
				</port>
			</input>
			<output>
				<port id="1" precision="FP32">
					<dim>1</dim>
					<dim>1</dim>
					<dim>1</dim>
					<dim>1</dim>
				</port>
			</output>
		</layer>
		<layer id="208" name="/encoder/encoders/encoders.0/self_attn/Div_1" type="Multiply" version="opset1">
			<data auto_broadcast="numpy" />
			<input>
				<port id="0" precision="FP32">
					<dim>1</dim>
					<dim>12</dim>
					<dim>-1</dim>
					<dim>-1</dim>
				</port>
				<port id="1" precision="FP32">
					<dim>1</dim>
					<dim>1</dim>
					<dim>1</dim>
					<dim>1</dim>
				</port>
			</input>
			<output>
				<port id="2" precision="FP32" names="/encoder/encoders/encoders.0/self_attn/Div_1_output_0">
					<dim>1</dim>
					<dim>12</dim>
					<dim>-1</dim>
					<dim>-1</dim>
				</port>
			</output>
		</layer>
		<layer id="209" name="/encoder/encoders/encoders.0/self_attn/Softmax" type="SoftMax" version="opset8">
			<data axis="3" />
			<input>
				<port id="0" precision="FP32">
					<dim>1</dim>
					<dim>12</dim>
					<dim>-1</dim>
					<dim>-1</dim>
				</port>
			</input>
			<output>
				<port id="1" precision="FP32" names="/encoder/encoders/encoders.0/self_attn/Softmax_output_0">
					<dim>1</dim>
					<dim>12</dim>
					<dim>-1</dim>
					<dim>-1</dim>
				</port>
			</output>
		</layer>
		<layer id="210" name="Constant_29202_compressed" type="Const" version="opset1">
			<data element_type="f16" shape="1, 1, 768" offset="21914510" size="1536" />
			<output>
				<port id="0" precision="FP16">
					<dim>1</dim>
					<dim>1</dim>
					<dim>768</dim>
				</port>
			</output>
		</layer>
		<layer id="211" name="Constant_29202" type="Convert" version="opset1">
			<data destination_type="f32" />
			<rt_info>
				<attribute name="decompression" version="0" />
			</rt_info>
			<input>
				<port id="0" precision="FP16">
					<dim>1</dim>
					<dim>1</dim>
					<dim>768</dim>
				</port>
			</input>
			<output>
				<port id="1" precision="FP32">
					<dim>1</dim>
					<dim>1</dim>
					<dim>768</dim>
				</port>
			</output>
		</layer>
		<layer id="212" name="Constant_1041830" type="Const" version="opset1">
			<data element_type="i8" shape="768, 768" offset="21916046" size="589824" />
			<output>
				<port id="0" precision="I8">
					<dim>768</dim>
					<dim>768</dim>
				</port>
			</output>
		</layer>
		<layer id="213" name="Convert_1041831" type="Convert" version="opset1">
			<data destination_type="f32" />
			<input>
				<port id="0" precision="I8">
					<dim>768</dim>
					<dim>768</dim>
				</port>
			</input>
			<output>
				<port id="1" precision="FP32">
					<dim>768</dim>
					<dim>768</dim>
				</port>
			</output>
		</layer>
		<layer id="214" name="Constant_1041832" type="Const" version="opset1">
			<data element_type="f32" shape="768, 1" offset="22505870" size="3072" />
			<output>
				<port id="0" precision="FP32">
					<dim>768</dim>
					<dim>1</dim>
				</port>
			</output>
		</layer>
		<layer id="215" name="/encoder/encoders/encoders.0/self_attn/linear_v/MatMul/fq_weights_1" type="Multiply" version="opset1">
			<data auto_broadcast="numpy" />
			<input>
				<port id="0" precision="FP32">
					<dim>768</dim>
					<dim>768</dim>
				</port>
				<port id="1" precision="FP32">
					<dim>768</dim>
					<dim>1</dim>
				</port>
			</input>
			<output>
				<port id="2" precision="FP32">
					<dim>768</dim>
					<dim>768</dim>
				</port>
			</output>
		</layer>
		<layer id="216" name="/encoder/encoders/encoders.0/self_attn/linear_v/MatMul" type="MatMul" version="opset1">
			<data transpose_a="false" transpose_b="true" />
			<input>
				<port id="0" precision="FP32">
					<dim>1</dim>
					<dim>-1</dim>
					<dim>768</dim>
				</port>
				<port id="1" precision="FP32">
					<dim>768</dim>
					<dim>768</dim>
				</port>
			</input>
			<output>
				<port id="2" precision="FP32" names="/encoder/encoders/encoders.0/self_attn/linear_v/MatMul_output_0">
					<dim>1</dim>
					<dim>-1</dim>
					<dim>768</dim>
				</port>
			</output>
		</layer>
		<layer id="217" name="/encoder/encoders/encoders.0/self_attn/linear_v/Add" type="Add" version="opset1">
			<data auto_broadcast="numpy" />
			<input>
				<port id="0" precision="FP32">
					<dim>1</dim>
					<dim>1</dim>
					<dim>768</dim>
				</port>
				<port id="1" precision="FP32">
					<dim>1</dim>
					<dim>-1</dim>
					<dim>768</dim>
				</port>
			</input>
			<output>
				<port id="2" precision="FP32" names="/encoder/encoders/encoders.0/self_attn/linear_v/Add_output_0">
					<dim>1</dim>
					<dim>-1</dim>
					<dim>768</dim>
				</port>
			</output>
		</layer>
		<layer id="218" name="/encoder/encoders/encoders.0/self_attn/Reshape_2" type="Reshape" version="opset1">
			<data special_zero="true" />
			<input>
				<port id="0" precision="FP32">
					<dim>1</dim>
					<dim>-1</dim>
					<dim>768</dim>
				</port>
				<port id="1" precision="I64">
					<dim>4</dim>
				</port>
			</input>
			<output>
				<port id="2" precision="FP32" names="/encoder/encoders/encoders.0/self_attn/Reshape_2_output_0">
					<dim>1</dim>
					<dim>-1</dim>
					<dim>12</dim>
					<dim>64</dim>
				</port>
			</output>
		</layer>
		<layer id="219" name="Constant_694" type="Const" version="opset1">
			<data element_type="i64" shape="4" offset="5363778" size="32" />
			<output>
				<port id="0" precision="I64">
					<dim>4</dim>
				</port>
			</output>
		</layer>
		<layer id="220" name="/encoder/encoders/encoders.0/self_attn/Transpose" type="Transpose" version="opset1">
			<input>
				<port id="0" precision="FP32">
					<dim>1</dim>
					<dim>-1</dim>
					<dim>12</dim>
					<dim>64</dim>
				</port>
				<port id="1" precision="I64">
					<dim>4</dim>
				</port>
			</input>
			<output>
				<port id="2" precision="FP32" names="/encoder/encoders/encoders.0/self_attn/Transpose_output_0">
					<dim>1</dim>
					<dim>12</dim>
					<dim>-1</dim>
					<dim>64</dim>
				</port>
			</output>
		</layer>
		<layer id="221" name="/encoder/encoders/encoders.0/self_attn/MatMul_2" type="MatMul" version="opset1">
			<data transpose_a="false" transpose_b="false" />
			<input>
				<port id="0" precision="FP32">
					<dim>1</dim>
					<dim>12</dim>
					<dim>-1</dim>
					<dim>-1</dim>
				</port>
				<port id="1" precision="FP32">
					<dim>1</dim>
					<dim>12</dim>
					<dim>-1</dim>
					<dim>64</dim>
				</port>
			</input>
			<output>
				<port id="2" precision="FP32" names="/encoder/encoders/encoders.0/self_attn/MatMul_2_output_0">
					<dim>1</dim>
					<dim>12</dim>
					<dim>-1</dim>
					<dim>64</dim>
				</port>
			</output>
		</layer>
		<layer id="222" name="Constant_1048" type="Const" version="opset1">
			<data element_type="i64" shape="4" offset="5363778" size="32" />
			<output>
				<port id="0" precision="I64">
					<dim>4</dim>
				</port>
			</output>
		</layer>
		<layer id="223" name="/encoder/encoders/encoders.0/self_attn/Transpose_5" type="Transpose" version="opset1">
			<input>
				<port id="0" precision="FP32">
					<dim>1</dim>
					<dim>12</dim>
					<dim>-1</dim>
					<dim>64</dim>
				</port>
				<port id="1" precision="I64">
					<dim>4</dim>
				</port>
			</input>
			<output>
				<port id="2" precision="FP32" names="/encoder/encoders/encoders.0/self_attn/Transpose_5_output_0">
					<dim>1</dim>
					<dim>-1</dim>
					<dim>12</dim>
					<dim>64</dim>
				</port>
			</output>
		</layer>
		<layer id="224" name="/encoder/encoders/encoders.0/self_attn/Shape_8" type="ShapeOf" version="opset3">
			<data output_type="i64" />
			<input>
				<port id="0" precision="FP32">
					<dim>1</dim>
					<dim>12</dim>
					<dim>-1</dim>
					<dim>64</dim>
				</port>
			</input>
			<output>
				<port id="1" precision="I64" names="/encoder/encoders/encoders.0/self_attn/Shape_8_output_0">
					<dim>4</dim>
				</port>
			</output>
		</layer>
		<layer id="225" name="Constant_19785" type="Const" version="opset1">
			<data element_type="i64" shape="1" offset="5362210" size="8" />
			<rt_info>
				<attribute name="precise" version="0" />
			</rt_info>
			<output>
				<port id="0" precision="I64">
					<dim>1</dim>
				</port>
			</output>
		</layer>
		<layer id="226" name="Constant_1044" type="Const" version="opset1">
			<data element_type="i64" shape="" offset="5362210" size="8" />
			<rt_info>
				<attribute name="precise" version="0" />
			</rt_info>
			<output>
				<port id="0" precision="I64" />
			</output>
		</layer>
		<layer id="227" name="/encoder/encoders/encoders.0/self_attn/Gather_6" type="Gather" version="opset8">
			<data batch_dims="0" />
			<input>
				<port id="0" precision="I64">
					<dim>4</dim>
				</port>
				<port id="1" precision="I64">
					<dim>1</dim>
				</port>
				<port id="2" precision="I64" />
			</input>
			<output>
				<port id="3" precision="I64" names="/encoder/encoders/encoders.0/self_attn/Gather_6_output_0,/encoder/encoders/encoders.0/self_attn/Unsqueeze_23_output_0">
					<dim>1</dim>
				</port>
			</output>
		</layer>
		<layer id="228" name="/encoder/encoders/encoders.0/self_attn/Constant_67" type="Const" version="opset1">
			<data element_type="i64" shape="1" offset="6146" size="8" />
			<rt_info>
				<attribute name="precise" version="0" />
			</rt_info>
			<output>
				<port id="0" precision="I64" names="/encoder/encoders/encoders.0/self_attn/Constant_67_output_0">
					<dim>1</dim>
				</port>
			</output>
		</layer>
		<layer id="229" name="/encoder/encoders/encoders.0/self_attn/Constant_68" type="Const" version="opset1">
			<data element_type="i64" shape="1" offset="22508942" size="8" />
			<rt_info>
				<attribute name="precise" version="0" />
			</rt_info>
			<output>
				<port id="0" precision="I64" names="/encoder/encoders/encoders.0/self_attn/Constant_68_output_0">
					<dim>1</dim>
				</port>
			</output>
		</layer>
		<layer id="230" name="/encoder/encoders/encoders.0/self_attn/Concat_7" type="Concat" version="opset1">
			<data axis="0" />
			<input>
				<port id="0" precision="I64">
					<dim>1</dim>
				</port>
				<port id="1" precision="I64">
					<dim>1</dim>
				</port>
				<port id="2" precision="I64">
					<dim>1</dim>
				</port>
			</input>
			<output>
				<port id="3" precision="I64" names="/encoder/encoders/encoders.0/self_attn/Concat_7_output_0">
					<dim>3</dim>
				</port>
			</output>
		</layer>
		<layer id="231" name="/encoder/encoders/encoders.0/self_attn/Reshape_6" type="Reshape" version="opset1">
			<data special_zero="true" />
			<input>
				<port id="0" precision="FP32">
					<dim>1</dim>
					<dim>-1</dim>
					<dim>12</dim>
					<dim>64</dim>
				</port>
				<port id="1" precision="I64">
					<dim>3</dim>
				</port>
			</input>
			<output>
				<port id="2" precision="FP32" names="/encoder/encoders/encoders.0/self_attn/Reshape_6_output_0">
					<dim>1</dim>
					<dim>-1</dim>
					<dim>768</dim>
				</port>
			</output>
		</layer>
		<layer id="232" name="/encoder/encoders/encoders.0/self_attn/Reshape_6_0_0/nncf_smooth_quant/scale" type="Const" version="opset1">
			<data element_type="f32" shape="1, 1, 768" offset="22508950" size="3072" />
			<output>
				<port id="0" precision="FP32">
					<dim>1</dim>
					<dim>1</dim>
					<dim>768</dim>
				</port>
			</output>
		</layer>
		<layer id="233" name="/encoder/encoders/encoders.0/self_attn/Reshape_6_0_0/nncf_smooth_quant" type="Multiply" version="opset1">
			<data auto_broadcast="numpy" />
			<input>
				<port id="0" precision="FP32">
					<dim>1</dim>
					<dim>-1</dim>
					<dim>768</dim>
				</port>
				<port id="1" precision="FP32">
					<dim>1</dim>
					<dim>1</dim>
					<dim>768</dim>
				</port>
			</input>
			<output>
				<port id="2" precision="FP32">
					<dim>1</dim>
					<dim>-1</dim>
					<dim>768</dim>
				</port>
			</output>
		</layer>
		<layer id="234" name="/encoder/encoders/encoders.0/self_attn/Reshape_6_0_0/nncf_smooth_quant/fq_output_0/input_low" type="Const" version="opset1">
			<data element_type="f32" shape="" offset="22512022" size="4" />
			<output>
				<port id="0" precision="FP32" />
			</output>
		</layer>
		<layer id="235" name="/encoder/encoders/encoders.0/self_attn/Reshape_6_0_0/nncf_smooth_quant/fq_output_0/input_high" type="Const" version="opset1">
			<data element_type="f32" shape="" offset="22512026" size="4" />
			<output>
				<port id="0" precision="FP32" />
			</output>
		</layer>
		<layer id="236" name="/encoder/encoders/encoders.0/self_attn/Reshape_6_0_0/nncf_smooth_quant/fq_output_0/output_low" type="Const" version="opset1">
			<data element_type="f32" shape="" offset="22512022" size="4" />
			<output>
				<port id="0" precision="FP32" />
			</output>
		</layer>
		<layer id="237" name="/encoder/encoders/encoders.0/self_attn/Reshape_6_0_0/nncf_smooth_quant/fq_output_0/output_high" type="Const" version="opset1">
			<data element_type="f32" shape="" offset="22512026" size="4" />
			<output>
				<port id="0" precision="FP32" />
			</output>
		</layer>
		<layer id="238" name="/encoder/encoders/encoders.0/self_attn/Reshape_6_0_0/nncf_smooth_quant/fq_output_0" type="FakeQuantize" version="opset1">
			<data levels="256" auto_broadcast="numpy" />
			<input>
				<port id="0" precision="FP32">
					<dim>1</dim>
					<dim>-1</dim>
					<dim>768</dim>
				</port>
				<port id="1" precision="FP32" />
				<port id="2" precision="FP32" />
				<port id="3" precision="FP32" />
				<port id="4" precision="FP32" />
			</input>
			<output>
				<port id="5" precision="FP32">
					<dim>1</dim>
					<dim>-1</dim>
					<dim>768</dim>
				</port>
			</output>
		</layer>
		<layer id="239" name="Constant_1041835" type="Const" version="opset1">
			<data element_type="i8" shape="768, 768" offset="22512030" size="589824" />
			<output>
				<port id="0" precision="I8">
					<dim>768</dim>
					<dim>768</dim>
				</port>
			</output>
		</layer>
		<layer id="240" name="Convert_1041836" type="Convert" version="opset1">
			<data destination_type="f32" />
			<input>
				<port id="0" precision="I8">
					<dim>768</dim>
					<dim>768</dim>
				</port>
			</input>
			<output>
				<port id="1" precision="FP32">
					<dim>768</dim>
					<dim>768</dim>
				</port>
			</output>
		</layer>
		<layer id="241" name="Constant_1041837" type="Const" version="opset1">
			<data element_type="f32" shape="768, 1" offset="23101854" size="3072" />
			<output>
				<port id="0" precision="FP32">
					<dim>768</dim>
					<dim>1</dim>
				</port>
			</output>
		</layer>
		<layer id="242" name="/encoder/encoders/encoders.0/self_attn/linear_out/MatMul/fq_weights_1" type="Multiply" version="opset1">
			<data auto_broadcast="numpy" />
			<input>
				<port id="0" precision="FP32">
					<dim>768</dim>
					<dim>768</dim>
				</port>
				<port id="1" precision="FP32">
					<dim>768</dim>
					<dim>1</dim>
				</port>
			</input>
			<output>
				<port id="2" precision="FP32">
					<dim>768</dim>
					<dim>768</dim>
				</port>
			</output>
		</layer>
		<layer id="243" name="/encoder/encoders/encoders.0/self_attn/linear_out/MatMul" type="MatMul" version="opset1">
			<data transpose_a="false" transpose_b="true" />
			<input>
				<port id="0" precision="FP32">
					<dim>1</dim>
					<dim>-1</dim>
					<dim>768</dim>
				</port>
				<port id="1" precision="FP32">
					<dim>768</dim>
					<dim>768</dim>
				</port>
			</input>
			<output>
				<port id="2" precision="FP32" names="/encoder/encoders/encoders.0/self_attn/linear_out/MatMul_output_0">
					<dim>1</dim>
					<dim>-1</dim>
					<dim>768</dim>
				</port>
			</output>
		</layer>
		<layer id="244" name="/encoder/encoders/encoders.0/self_attn/linear_out/Add" type="Add" version="opset1">
			<data auto_broadcast="numpy" />
			<input>
				<port id="0" precision="FP32">
					<dim>1</dim>
					<dim>1</dim>
					<dim>768</dim>
				</port>
				<port id="1" precision="FP32">
					<dim>1</dim>
					<dim>-1</dim>
					<dim>768</dim>
				</port>
			</input>
			<output>
				<port id="2" precision="FP32" names="/encoder/encoders/encoders.0/self_attn/linear_out/Add_output_0">
					<dim>1</dim>
					<dim>-1</dim>
					<dim>768</dim>
				</port>
			</output>
		</layer>
		<layer id="245" name="/encoder/encoders/encoders.0/Add_1" type="Add" version="opset1">
			<data auto_broadcast="numpy" />
			<input>
				<port id="0" precision="FP32">
					<dim>1</dim>
					<dim>-1</dim>
					<dim>768</dim>
				</port>
				<port id="1" precision="FP32">
					<dim>1</dim>
					<dim>-1</dim>
					<dim>768</dim>
				</port>
			</input>
			<output>
				<port id="2" precision="FP32" names="/encoder/encoders/encoders.0/Add_1_output_0">
					<dim>1</dim>
					<dim>-1</dim>
					<dim>768</dim>
				</port>
			</output>
		</layer>
		<layer id="246" name="Constant_1060" type="Const" version="opset1">
			<data element_type="i64" shape="1" offset="6146" size="8" />
			<output>
				<port id="0" precision="I64">
					<dim>1</dim>
				</port>
			</output>
		</layer>
		<layer id="247" name="/encoder/encoders/encoders.0/norm_conv/Div" type="MVN" version="opset6">
			<data eps="9.999999960041972e-13" normalize_variance="true" eps_mode="INSIDE_SQRT" />
			<input>
				<port id="0" precision="FP32">
					<dim>1</dim>
					<dim>-1</dim>
					<dim>768</dim>
				</port>
				<port id="1" precision="I64">
					<dim>1</dim>
				</port>
			</input>
			<output>
				<port id="2" precision="FP32" names="/encoder/encoders/encoders.0/norm_conv/Div_output_0">
					<dim>1</dim>
					<dim>-1</dim>
					<dim>768</dim>
				</port>
			</output>
		</layer>
		<layer id="248" name="Constant_29204_compressed" type="Const" version="opset1">
			<data element_type="f16" shape="1, 1, 768" offset="23104926" size="1536" />
			<output>
				<port id="0" precision="FP16">
					<dim>1</dim>
					<dim>1</dim>
					<dim>768</dim>
				</port>
			</output>
		</layer>
		<layer id="249" name="Constant_29204" type="Convert" version="opset1">
			<data destination_type="f32" />
			<rt_info>
				<attribute name="decompression" version="0" />
			</rt_info>
			<input>
				<port id="0" precision="FP16">
					<dim>1</dim>
					<dim>1</dim>
					<dim>768</dim>
				</port>
			</input>
			<output>
				<port id="1" precision="FP32">
					<dim>1</dim>
					<dim>1</dim>
					<dim>768</dim>
				</port>
			</output>
		</layer>
		<layer id="250" name="/encoder/encoders/encoders.0/norm_conv/Mul" type="Multiply" version="opset1">
			<data auto_broadcast="numpy" />
			<input>
				<port id="0" precision="FP32">
					<dim>1</dim>
					<dim>-1</dim>
					<dim>768</dim>
				</port>
				<port id="1" precision="FP32">
					<dim>1</dim>
					<dim>1</dim>
					<dim>768</dim>
				</port>
			</input>
			<output>
				<port id="2" precision="FP32" names="/encoder/encoders/encoders.0/norm_conv/Mul_output_0">
					<dim>1</dim>
					<dim>-1</dim>
					<dim>768</dim>
				</port>
			</output>
		</layer>
		<layer id="251" name="Constant_29205_compressed" type="Const" version="opset1">
			<data element_type="f16" shape="1, 1, 768" offset="23106462" size="1536" />
			<output>
				<port id="0" precision="FP16">
					<dim>1</dim>
					<dim>1</dim>
					<dim>768</dim>
				</port>
			</output>
		</layer>
		<layer id="252" name="Constant_29205" type="Convert" version="opset1">
			<data destination_type="f32" />
			<rt_info>
				<attribute name="decompression" version="0" />
			</rt_info>
			<input>
				<port id="0" precision="FP16">
					<dim>1</dim>
					<dim>1</dim>
					<dim>768</dim>
				</port>
			</input>
			<output>
				<port id="1" precision="FP32">
					<dim>1</dim>
					<dim>1</dim>
					<dim>768</dim>
				</port>
			</output>
		</layer>
		<layer id="253" name="/encoder/encoders/encoders.0/norm_conv/Add_1" type="Add" version="opset1">
			<data auto_broadcast="numpy" />
			<input>
				<port id="0" precision="FP32">
					<dim>1</dim>
					<dim>-1</dim>
					<dim>768</dim>
				</port>
				<port id="1" precision="FP32">
					<dim>1</dim>
					<dim>1</dim>
					<dim>768</dim>
				</port>
			</input>
			<output>
				<port id="2" precision="FP32" names="/encoder/encoders/encoders.0/norm_conv/Add_1_output_0">
					<dim>1</dim>
					<dim>-1</dim>
					<dim>768</dim>
				</port>
			</output>
		</layer>
		<layer id="254" name="/encoder/encoders/encoders.0/norm_conv/Add_1/fq_output_0/input_low" type="Const" version="opset1">
			<data element_type="f32" shape="" offset="23107998" size="4" />
			<output>
				<port id="0" precision="FP32" />
			</output>
		</layer>
		<layer id="255" name="/encoder/encoders/encoders.0/norm_conv/Add_1/fq_output_0/input_high" type="Const" version="opset1">
			<data element_type="f32" shape="" offset="23108002" size="4" />
			<output>
				<port id="0" precision="FP32" />
			</output>
		</layer>
		<layer id="256" name="/encoder/encoders/encoders.0/norm_conv/Add_1/fq_output_0/output_low" type="Const" version="opset1">
			<data element_type="f32" shape="" offset="23107998" size="4" />
			<output>
				<port id="0" precision="FP32" />
			</output>
		</layer>
		<layer id="257" name="/encoder/encoders/encoders.0/norm_conv/Add_1/fq_output_0/output_high" type="Const" version="opset1">
			<data element_type="f32" shape="" offset="23108002" size="4" />
			<output>
				<port id="0" precision="FP32" />
			</output>
		</layer>
		<layer id="258" name="/encoder/encoders/encoders.0/norm_conv/Add_1/fq_output_0" type="FakeQuantize" version="opset1">
			<data levels="256" auto_broadcast="numpy" />
			<input>
				<port id="0" precision="FP32">
					<dim>1</dim>
					<dim>-1</dim>
					<dim>768</dim>
				</port>
				<port id="1" precision="FP32" />
				<port id="2" precision="FP32" />
				<port id="3" precision="FP32" />
				<port id="4" precision="FP32" />
			</input>
			<output>
				<port id="5" precision="FP32">
					<dim>1</dim>
					<dim>-1</dim>
					<dim>768</dim>
				</port>
			</output>
		</layer>
		<layer id="259" name="Constant_1073" type="Const" version="opset1">
			<data element_type="i64" shape="3" offset="23108006" size="24" />
			<output>
				<port id="0" precision="I64">
					<dim>3</dim>
				</port>
			</output>
		</layer>
		<layer id="260" name="/encoder/encoders/encoders.0/conv_module/Transpose" type="Transpose" version="opset1">
			<input>
				<port id="0" precision="FP32">
					<dim>1</dim>
					<dim>-1</dim>
					<dim>768</dim>
				</port>
				<port id="1" precision="I64">
					<dim>3</dim>
				</port>
			</input>
			<output>
				<port id="2" precision="FP32" names="/encoder/encoders/encoders.0/conv_module/Transpose_output_0">
					<dim>1</dim>
					<dim>768</dim>
					<dim>-1</dim>
				</port>
			</output>
		</layer>
		<layer id="261" name="Constant_1041840" type="Const" version="opset1">
			<data element_type="i8" shape="1536, 768, 1" offset="23108030" size="1179648" />
			<output>
				<port id="0" precision="I8">
					<dim>1536</dim>
					<dim>768</dim>
					<dim>1</dim>
				</port>
			</output>
		</layer>
		<layer id="262" name="Convert_1041841" type="Convert" version="opset1">
			<data destination_type="f32" />
			<input>
				<port id="0" precision="I8">
					<dim>1536</dim>
					<dim>768</dim>
					<dim>1</dim>
				</port>
			</input>
			<output>
				<port id="1" precision="FP32">
					<dim>1536</dim>
					<dim>768</dim>
					<dim>1</dim>
				</port>
			</output>
		</layer>
		<layer id="263" name="Constant_1041842" type="Const" version="opset1">
			<data element_type="f32" shape="1536, 1, 1" offset="24287678" size="6144" />
			<output>
				<port id="0" precision="FP32">
					<dim>1536</dim>
					<dim>1</dim>
					<dim>1</dim>
				</port>
			</output>
		</layer>
		<layer id="264" name="/encoder/encoders/encoders.0/conv_module/pointwise_cov1/Conv/WithoutBiases/fq_weights_1" type="Multiply" version="opset1">
			<data auto_broadcast="numpy" />
			<input>
				<port id="0" precision="FP32">
					<dim>1536</dim>
					<dim>768</dim>
					<dim>1</dim>
				</port>
				<port id="1" precision="FP32">
					<dim>1536</dim>
					<dim>1</dim>
					<dim>1</dim>
				</port>
			</input>
			<output>
				<port id="2" precision="FP32">
					<dim>1536</dim>
					<dim>768</dim>
					<dim>1</dim>
				</port>
			</output>
		</layer>
		<layer id="265" name="/encoder/encoders/encoders.0/conv_module/pointwise_cov1/Conv/WithoutBiases" type="Convolution" version="opset1">
			<data strides="1" dilations="1" pads_begin="0" pads_end="0" auto_pad="explicit" />
			<input>
				<port id="0" precision="FP32">
					<dim>1</dim>
					<dim>768</dim>
					<dim>-1</dim>
				</port>
				<port id="1" precision="FP32">
					<dim>1536</dim>
					<dim>768</dim>
					<dim>1</dim>
				</port>
			</input>
			<output>
				<port id="2" precision="FP32">
					<dim>1</dim>
					<dim>1536</dim>
					<dim>-1</dim>
				</port>
			</output>
		</layer>
		<layer id="266" name="Reshape_1087_compressed" type="Const" version="opset1">
			<data element_type="f16" shape="1, 1536, 1" offset="24293822" size="3072" />
			<output>
				<port id="0" precision="FP16">
					<dim>1</dim>
					<dim>1536</dim>
					<dim>1</dim>
				</port>
			</output>
		</layer>
		<layer id="267" name="Reshape_1087" type="Convert" version="opset1">
			<data destination_type="f32" />
			<rt_info>
				<attribute name="decompression" version="0" />
			</rt_info>
			<input>
				<port id="0" precision="FP16">
					<dim>1</dim>
					<dim>1536</dim>
					<dim>1</dim>
				</port>
			</input>
			<output>
				<port id="1" precision="FP32">
					<dim>1</dim>
					<dim>1536</dim>
					<dim>1</dim>
				</port>
			</output>
		</layer>
		<layer id="268" name="/encoder/encoders/encoders.0/conv_module/pointwise_cov1/Conv" type="Add" version="opset1">
			<data auto_broadcast="numpy" />
			<input>
				<port id="0" precision="FP32">
					<dim>1</dim>
					<dim>1536</dim>
					<dim>-1</dim>
				</port>
				<port id="1" precision="FP32">
					<dim>1</dim>
					<dim>1536</dim>
					<dim>1</dim>
				</port>
			</input>
			<output>
				<port id="2" precision="FP32" names="/encoder/encoders/encoders.0/conv_module/pointwise_cov1/Conv_output_0">
					<dim>1</dim>
					<dim>1536</dim>
					<dim>-1</dim>
				</port>
			</output>
		</layer>
		<layer id="269" name="Constant_1091" type="Const" version="opset1">
			<data element_type="i64" shape="" offset="21318308" size="8" />
			<output>
				<port id="0" precision="I64" />
			</output>
		</layer>
		<layer id="270" name="/encoder/encoders/encoders.0/conv_module/Split" type="Split" version="opset1">
			<data num_splits="2" />
			<input>
				<port id="0" precision="FP32">
					<dim>1</dim>
					<dim>1536</dim>
					<dim>-1</dim>
				</port>
				<port id="1" precision="I64" />
			</input>
			<output>
				<port id="2" precision="FP32" names="/encoder/encoders/encoders.0/conv_module/Split_output_0">
					<dim>1</dim>
					<dim>768</dim>
					<dim>-1</dim>
				</port>
				<port id="3" precision="FP32" names="/encoder/encoders/encoders.0/conv_module/Split_output_1">
					<dim>1</dim>
					<dim>768</dim>
					<dim>-1</dim>
				</port>
			</output>
		</layer>
		<layer id="271" name="/encoder/encoders/encoders.0/conv_module/Sigmoid" type="Sigmoid" version="opset1">
			<input>
				<port id="0" precision="FP32">
					<dim>1</dim>
					<dim>768</dim>
					<dim>-1</dim>
				</port>
			</input>
			<output>
				<port id="1" precision="FP32" names="/encoder/encoders/encoders.0/conv_module/Sigmoid_output_0">
					<dim>1</dim>
					<dim>768</dim>
					<dim>-1</dim>
				</port>
			</output>
		</layer>
		<layer id="272" name="/encoder/encoders/encoders.0/conv_module/Mul" type="Multiply" version="opset1">
			<data auto_broadcast="numpy" />
			<input>
				<port id="0" precision="FP32">
					<dim>1</dim>
					<dim>768</dim>
					<dim>-1</dim>
				</port>
				<port id="1" precision="FP32">
					<dim>1</dim>
					<dim>768</dim>
					<dim>-1</dim>
				</port>
			</input>
			<output>
				<port id="2" precision="FP32" names="/encoder/encoders/encoders.0/conv_module/Mul_output_0">
					<dim>1</dim>
					<dim>768</dim>
					<dim>-1</dim>
				</port>
			</output>
		</layer>
		<layer id="273" name="/encoder/encoders/encoders.0/conv_module/Mul/fq_output_0/input_low" type="Const" version="opset1">
			<data element_type="f32" shape="1, 768, 1" offset="24296894" size="3072" />
			<output>
				<port id="0" precision="FP32">
					<dim>1</dim>
					<dim>768</dim>
					<dim>1</dim>
				</port>
			</output>
		</layer>
		<layer id="274" name="/encoder/encoders/encoders.0/conv_module/Mul/fq_output_0/input_high" type="Const" version="opset1">
			<data element_type="f32" shape="1, 768, 1" offset="24299966" size="3072" />
			<output>
				<port id="0" precision="FP32">
					<dim>1</dim>
					<dim>768</dim>
					<dim>1</dim>
				</port>
			</output>
		</layer>
		<layer id="275" name="/encoder/encoders/encoders.0/conv_module/Mul/fq_output_0/output_low" type="Const" version="opset1">
			<data element_type="f32" shape="1, 768, 1" offset="24296894" size="3072" />
			<output>
				<port id="0" precision="FP32">
					<dim>1</dim>
					<dim>768</dim>
					<dim>1</dim>
				</port>
			</output>
		</layer>
		<layer id="276" name="/encoder/encoders/encoders.0/conv_module/Mul/fq_output_0/output_high" type="Const" version="opset1">
			<data element_type="f32" shape="1, 768, 1" offset="24299966" size="3072" />
			<output>
				<port id="0" precision="FP32">
					<dim>1</dim>
					<dim>768</dim>
					<dim>1</dim>
				</port>
			</output>
		</layer>
		<layer id="277" name="/encoder/encoders/encoders.0/conv_module/Mul/fq_output_0" type="FakeQuantize" version="opset1">
			<data levels="256" auto_broadcast="numpy" />
			<input>
				<port id="0" precision="FP32">
					<dim>1</dim>
					<dim>768</dim>
					<dim>-1</dim>
				</port>
				<port id="1" precision="FP32">
					<dim>1</dim>
					<dim>768</dim>
					<dim>1</dim>
				</port>
				<port id="2" precision="FP32">
					<dim>1</dim>
					<dim>768</dim>
					<dim>1</dim>
				</port>
				<port id="3" precision="FP32">
					<dim>1</dim>
					<dim>768</dim>
					<dim>1</dim>
				</port>
				<port id="4" precision="FP32">
					<dim>1</dim>
					<dim>768</dim>
					<dim>1</dim>
				</port>
			</input>
			<output>
				<port id="5" precision="FP32">
					<dim>1</dim>
					<dim>768</dim>
					<dim>-1</dim>
				</port>
			</output>
		</layer>
		<layer id="278" name="Constant_1041845" type="Const" version="opset1">
			<data element_type="i8" shape="768, 1, 1, 31" offset="24303038" size="23808" />
			<output>
				<port id="0" precision="I8">
					<dim>768</dim>
					<dim>1</dim>
					<dim>1</dim>
					<dim>31</dim>
				</port>
			</output>
		</layer>
		<layer id="279" name="Convert_1041846" type="Convert" version="opset1">
			<data destination_type="f32" />
			<input>
				<port id="0" precision="I8">
					<dim>768</dim>
					<dim>1</dim>
					<dim>1</dim>
					<dim>31</dim>
				</port>
			</input>
			<output>
				<port id="1" precision="FP32">
					<dim>768</dim>
					<dim>1</dim>
					<dim>1</dim>
					<dim>31</dim>
				</port>
			</output>
		</layer>
		<layer id="280" name="Constant_1041847" type="Const" version="opset1">
			<data element_type="f32" shape="768, 1, 1, 1" offset="24326846" size="3072" />
			<output>
				<port id="0" precision="FP32">
					<dim>768</dim>
					<dim>1</dim>
					<dim>1</dim>
					<dim>1</dim>
				</port>
			</output>
		</layer>
		<layer id="281" name="/encoder/encoders/encoders.0/conv_module/depthwise_conv/Conv/WithoutBiases/fq_weights_1" type="Multiply" version="opset1">
			<data auto_broadcast="numpy" />
			<input>
				<port id="0" precision="FP32">
					<dim>768</dim>
					<dim>1</dim>
					<dim>1</dim>
					<dim>31</dim>
				</port>
				<port id="1" precision="FP32">
					<dim>768</dim>
					<dim>1</dim>
					<dim>1</dim>
					<dim>1</dim>
				</port>
			</input>
			<output>
				<port id="2" precision="FP32">
					<dim>768</dim>
					<dim>1</dim>
					<dim>1</dim>
					<dim>31</dim>
				</port>
			</output>
		</layer>
		<layer id="282" name="/encoder/encoders/encoders.0/conv_module/depthwise_conv/Conv/WithoutBiases" type="GroupConvolution" version="opset1">
			<data strides="1" pads_begin="15" pads_end="15" dilations="1" auto_pad="explicit" />
			<input>
				<port id="0" precision="FP32">
					<dim>1</dim>
					<dim>768</dim>
					<dim>-1</dim>
				</port>
				<port id="1" precision="FP32">
					<dim>768</dim>
					<dim>1</dim>
					<dim>1</dim>
					<dim>31</dim>
				</port>
			</input>
			<output>
				<port id="2" precision="FP32">
					<dim>1</dim>
					<dim>768</dim>
					<dim>-1</dim>
				</port>
			</output>
		</layer>
		<layer id="283" name="Reshape_1154_compressed" type="Const" version="opset1">
			<data element_type="f16" shape="1, 768, 1" offset="24329918" size="1536" />
			<output>
				<port id="0" precision="FP16">
					<dim>1</dim>
					<dim>768</dim>
					<dim>1</dim>
				</port>
			</output>
		</layer>
		<layer id="284" name="Reshape_1154" type="Convert" version="opset1">
			<data destination_type="f32" />
			<rt_info>
				<attribute name="decompression" version="0" />
			</rt_info>
			<input>
				<port id="0" precision="FP16">
					<dim>1</dim>
					<dim>768</dim>
					<dim>1</dim>
				</port>
			</input>
			<output>
				<port id="1" precision="FP32">
					<dim>1</dim>
					<dim>768</dim>
					<dim>1</dim>
				</port>
			</output>
		</layer>
		<layer id="285" name="/encoder/encoders/encoders.0/conv_module/depthwise_conv/Conv" type="Add" version="opset1">
			<data auto_broadcast="numpy" />
			<input>
				<port id="0" precision="FP32">
					<dim>1</dim>
					<dim>768</dim>
					<dim>-1</dim>
				</port>
				<port id="1" precision="FP32">
					<dim>1</dim>
					<dim>768</dim>
					<dim>1</dim>
				</port>
			</input>
			<output>
				<port id="2" precision="FP32" names="/encoder/encoders/encoders.0/conv_module/depthwise_conv/Conv_output_0">
					<dim>1</dim>
					<dim>768</dim>
					<dim>-1</dim>
				</port>
			</output>
		</layer>
		<layer id="286" name="/encoder/encoders/encoders.0/conv_module/activation/Mul" type="Swish" version="opset4">
			<input>
				<port id="0" precision="FP32">
					<dim>1</dim>
					<dim>768</dim>
					<dim>-1</dim>
				</port>
			</input>
			<output>
				<port id="1" precision="FP32" names="/encoder/encoders/encoders.0/conv_module/activation/Mul_output_0">
					<dim>1</dim>
					<dim>768</dim>
					<dim>-1</dim>
				</port>
			</output>
		</layer>
		<layer id="287" name="/encoder/encoders/encoders.0/conv_module/activation/Mul/fq_output_0/input_low" type="Const" version="opset1">
			<data element_type="f32" shape="" offset="24331454" size="4" />
			<output>
				<port id="0" precision="FP32" />
			</output>
		</layer>
		<layer id="288" name="/encoder/encoders/encoders.0/conv_module/activation/Mul/fq_output_0/input_high" type="Const" version="opset1">
			<data element_type="f32" shape="" offset="24331458" size="4" />
			<output>
				<port id="0" precision="FP32" />
			</output>
		</layer>
		<layer id="289" name="/encoder/encoders/encoders.0/conv_module/activation/Mul/fq_output_0/output_low" type="Const" version="opset1">
			<data element_type="f32" shape="" offset="24331454" size="4" />
			<output>
				<port id="0" precision="FP32" />
			</output>
		</layer>
		<layer id="290" name="/encoder/encoders/encoders.0/conv_module/activation/Mul/fq_output_0/output_high" type="Const" version="opset1">
			<data element_type="f32" shape="" offset="24331458" size="4" />
			<output>
				<port id="0" precision="FP32" />
			</output>
		</layer>
		<layer id="291" name="/encoder/encoders/encoders.0/conv_module/activation/Mul/fq_output_0" type="FakeQuantize" version="opset1">
			<data levels="256" auto_broadcast="numpy" />
			<input>
				<port id="0" precision="FP32">
					<dim>1</dim>
					<dim>768</dim>
					<dim>-1</dim>
				</port>
				<port id="1" precision="FP32" />
				<port id="2" precision="FP32" />
				<port id="3" precision="FP32" />
				<port id="4" precision="FP32" />
			</input>
			<output>
				<port id="5" precision="FP32">
					<dim>1</dim>
					<dim>768</dim>
					<dim>-1</dim>
				</port>
			</output>
		</layer>
		<layer id="292" name="Constant_1041850" type="Const" version="opset1">
			<data element_type="i8" shape="768, 768, 1" offset="24331462" size="589824" />
			<output>
				<port id="0" precision="I8">
					<dim>768</dim>
					<dim>768</dim>
					<dim>1</dim>
				</port>
			</output>
		</layer>
		<layer id="293" name="Convert_1041851" type="Convert" version="opset1">
			<data destination_type="f32" />
			<input>
				<port id="0" precision="I8">
					<dim>768</dim>
					<dim>768</dim>
					<dim>1</dim>
				</port>
			</input>
			<output>
				<port id="1" precision="FP32">
					<dim>768</dim>
					<dim>768</dim>
					<dim>1</dim>
				</port>
			</output>
		</layer>
		<layer id="294" name="Constant_1041852" type="Const" version="opset1">
			<data element_type="f32" shape="768, 1, 1" offset="24921286" size="3072" />
			<output>
				<port id="0" precision="FP32">
					<dim>768</dim>
					<dim>1</dim>
					<dim>1</dim>
				</port>
			</output>
		</layer>
		<layer id="295" name="/encoder/encoders/encoders.0/conv_module/pointwise_cov2/Conv/WithoutBiases/fq_weights_1" type="Multiply" version="opset1">
			<data auto_broadcast="numpy" />
			<input>
				<port id="0" precision="FP32">
					<dim>768</dim>
					<dim>768</dim>
					<dim>1</dim>
				</port>
				<port id="1" precision="FP32">
					<dim>768</dim>
					<dim>1</dim>
					<dim>1</dim>
				</port>
			</input>
			<output>
				<port id="2" precision="FP32">
					<dim>768</dim>
					<dim>768</dim>
					<dim>1</dim>
				</port>
			</output>
		</layer>
		<layer id="296" name="/encoder/encoders/encoders.0/conv_module/pointwise_cov2/Conv/WithoutBiases" type="Convolution" version="opset1">
			<data strides="1" dilations="1" pads_begin="0" pads_end="0" auto_pad="explicit" />
			<input>
				<port id="0" precision="FP32">
					<dim>1</dim>
					<dim>768</dim>
					<dim>-1</dim>
				</port>
				<port id="1" precision="FP32">
					<dim>768</dim>
					<dim>768</dim>
					<dim>1</dim>
				</port>
			</input>
			<output>
				<port id="2" precision="FP32">
					<dim>1</dim>
					<dim>768</dim>
					<dim>-1</dim>
				</port>
			</output>
		</layer>
		<layer id="297" name="Reshape_1172_compressed" type="Const" version="opset1">
			<data element_type="f16" shape="1, 768, 1" offset="24924358" size="1536" />
			<output>
				<port id="0" precision="FP16">
					<dim>1</dim>
					<dim>768</dim>
					<dim>1</dim>
				</port>
			</output>
		</layer>
		<layer id="298" name="Reshape_1172" type="Convert" version="opset1">
			<data destination_type="f32" />
			<rt_info>
				<attribute name="decompression" version="0" />
			</rt_info>
			<input>
				<port id="0" precision="FP16">
					<dim>1</dim>
					<dim>768</dim>
					<dim>1</dim>
				</port>
			</input>
			<output>
				<port id="1" precision="FP32">
					<dim>1</dim>
					<dim>768</dim>
					<dim>1</dim>
				</port>
			</output>
		</layer>
		<layer id="299" name="/encoder/encoders/encoders.0/conv_module/pointwise_cov2/Conv" type="Add" version="opset1">
			<data auto_broadcast="numpy" />
			<input>
				<port id="0" precision="FP32">
					<dim>1</dim>
					<dim>768</dim>
					<dim>-1</dim>
				</port>
				<port id="1" precision="FP32">
					<dim>1</dim>
					<dim>768</dim>
					<dim>1</dim>
				</port>
			</input>
			<output>
				<port id="2" precision="FP32" names="/encoder/encoders/encoders.0/conv_module/pointwise_cov2/Conv_output_0">
					<dim>1</dim>
					<dim>768</dim>
					<dim>-1</dim>
				</port>
			</output>
		</layer>
		<layer id="300" name="Constant_1176" type="Const" version="opset1">
			<data element_type="i64" shape="3" offset="23108006" size="24" />
			<output>
				<port id="0" precision="I64">
					<dim>3</dim>
				</port>
			</output>
		</layer>
		<layer id="301" name="/encoder/encoders/encoders.0/conv_module/Transpose_1" type="Transpose" version="opset1">
			<input>
				<port id="0" precision="FP32">
					<dim>1</dim>
					<dim>768</dim>
					<dim>-1</dim>
				</port>
				<port id="1" precision="I64">
					<dim>3</dim>
				</port>
			</input>
			<output>
				<port id="2" precision="FP32" names="/encoder/encoders/encoders.0/conv_module/Transpose_1_output_0">
					<dim>1</dim>
					<dim>-1</dim>
					<dim>768</dim>
				</port>
			</output>
		</layer>
		<layer id="302" name="/encoder/encoders/encoders.0/Add_2" type="Add" version="opset1">
			<data auto_broadcast="numpy" />
			<input>
				<port id="0" precision="FP32">
					<dim>1</dim>
					<dim>-1</dim>
					<dim>768</dim>
				</port>
				<port id="1" precision="FP32">
					<dim>1</dim>
					<dim>-1</dim>
					<dim>768</dim>
				</port>
			</input>
			<output>
				<port id="2" precision="FP32" names="/encoder/encoders/encoders.0/Add_2_output_0">
					<dim>1</dim>
					<dim>-1</dim>
					<dim>768</dim>
				</port>
			</output>
		</layer>
		<layer id="303" name="Constant_29208_compressed" type="Const" version="opset1">
			<data element_type="f16" shape="1, 1, 3072" offset="24925894" size="6144" />
			<output>
				<port id="0" precision="FP16">
					<dim>1</dim>
					<dim>1</dim>
					<dim>3072</dim>
				</port>
			</output>
		</layer>
		<layer id="304" name="Constant_29208" type="Convert" version="opset1">
			<data destination_type="f32" />
			<rt_info>
				<attribute name="decompression" version="0" />
			</rt_info>
			<input>
				<port id="0" precision="FP16">
					<dim>1</dim>
					<dim>1</dim>
					<dim>3072</dim>
				</port>
			</input>
			<output>
				<port id="1" precision="FP32">
					<dim>1</dim>
					<dim>1</dim>
					<dim>3072</dim>
				</port>
			</output>
		</layer>
		<layer id="305" name="Constant_1179" type="Const" version="opset1">
			<data element_type="i64" shape="1" offset="6146" size="8" />
			<output>
				<port id="0" precision="I64">
					<dim>1</dim>
				</port>
			</output>
		</layer>
		<layer id="306" name="/encoder/encoders/encoders.0/norm_ff/Div" type="MVN" version="opset6">
			<data eps="9.999999960041972e-13" normalize_variance="true" eps_mode="INSIDE_SQRT" />
			<input>
				<port id="0" precision="FP32">
					<dim>1</dim>
					<dim>-1</dim>
					<dim>768</dim>
				</port>
				<port id="1" precision="I64">
					<dim>1</dim>
				</port>
			</input>
			<output>
				<port id="2" precision="FP32" names="/encoder/encoders/encoders.0/norm_ff/Div_output_0">
					<dim>1</dim>
					<dim>-1</dim>
					<dim>768</dim>
				</port>
			</output>
		</layer>
		<layer id="307" name="Constant_29206_compressed" type="Const" version="opset1">
			<data element_type="f16" shape="1, 1, 768" offset="24932038" size="1536" />
			<output>
				<port id="0" precision="FP16">
					<dim>1</dim>
					<dim>1</dim>
					<dim>768</dim>
				</port>
			</output>
		</layer>
		<layer id="308" name="Constant_29206" type="Convert" version="opset1">
			<data destination_type="f32" />
			<rt_info>
				<attribute name="decompression" version="0" />
			</rt_info>
			<input>
				<port id="0" precision="FP16">
					<dim>1</dim>
					<dim>1</dim>
					<dim>768</dim>
				</port>
			</input>
			<output>
				<port id="1" precision="FP32">
					<dim>1</dim>
					<dim>1</dim>
					<dim>768</dim>
				</port>
			</output>
		</layer>
		<layer id="309" name="/encoder/encoders/encoders.0/norm_ff/Mul" type="Multiply" version="opset1">
			<data auto_broadcast="numpy" />
			<input>
				<port id="0" precision="FP32">
					<dim>1</dim>
					<dim>-1</dim>
					<dim>768</dim>
				</port>
				<port id="1" precision="FP32">
					<dim>1</dim>
					<dim>1</dim>
					<dim>768</dim>
				</port>
			</input>
			<output>
				<port id="2" precision="FP32" names="/encoder/encoders/encoders.0/norm_ff/Mul_output_0">
					<dim>1</dim>
					<dim>-1</dim>
					<dim>768</dim>
				</port>
			</output>
		</layer>
		<layer id="310" name="Constant_29207_compressed" type="Const" version="opset1">
			<data element_type="f16" shape="1, 1, 768" offset="24933574" size="1536" />
			<output>
				<port id="0" precision="FP16">
					<dim>1</dim>
					<dim>1</dim>
					<dim>768</dim>
				</port>
			</output>
		</layer>
		<layer id="311" name="Constant_29207" type="Convert" version="opset1">
			<data destination_type="f32" />
			<rt_info>
				<attribute name="decompression" version="0" />
			</rt_info>
			<input>
				<port id="0" precision="FP16">
					<dim>1</dim>
					<dim>1</dim>
					<dim>768</dim>
				</port>
			</input>
			<output>
				<port id="1" precision="FP32">
					<dim>1</dim>
					<dim>1</dim>
					<dim>768</dim>
				</port>
			</output>
		</layer>
		<layer id="312" name="/encoder/encoders/encoders.0/norm_ff/Add_1" type="Add" version="opset1">
			<data auto_broadcast="numpy" />
			<input>
				<port id="0" precision="FP32">
					<dim>1</dim>
					<dim>-1</dim>
					<dim>768</dim>
				</port>
				<port id="1" precision="FP32">
					<dim>1</dim>
					<dim>1</dim>
					<dim>768</dim>
				</port>
			</input>
			<output>
				<port id="2" precision="FP32" names="/encoder/encoders/encoders.0/norm_ff/Add_1_output_0">
					<dim>1</dim>
					<dim>-1</dim>
					<dim>768</dim>
				</port>
			</output>
		</layer>
		<layer id="313" name="/encoder/encoders/encoders.0/norm_ff/Add_1_0_0/nncf_smooth_quant/scale" type="Const" version="opset1">
			<data element_type="f32" shape="1, 1, 768" offset="24935110" size="3072" />
			<output>
				<port id="0" precision="FP32">
					<dim>1</dim>
					<dim>1</dim>
					<dim>768</dim>
				</port>
			</output>
		</layer>
		<layer id="314" name="/encoder/encoders/encoders.0/norm_ff/Add_1_0_0/nncf_smooth_quant" type="Multiply" version="opset1">
			<data auto_broadcast="numpy" />
			<input>
				<port id="0" precision="FP32">
					<dim>1</dim>
					<dim>-1</dim>
					<dim>768</dim>
				</port>
				<port id="1" precision="FP32">
					<dim>1</dim>
					<dim>1</dim>
					<dim>768</dim>
				</port>
			</input>
			<output>
				<port id="2" precision="FP32">
					<dim>1</dim>
					<dim>-1</dim>
					<dim>768</dim>
				</port>
			</output>
		</layer>
		<layer id="315" name="/encoder/encoders/encoders.0/norm_ff/Add_1_0_0/nncf_smooth_quant/fq_output_0/input_low" type="Const" version="opset1">
			<data element_type="f32" shape="" offset="24938182" size="4" />
			<output>
				<port id="0" precision="FP32" />
			</output>
		</layer>
		<layer id="316" name="/encoder/encoders/encoders.0/norm_ff/Add_1_0_0/nncf_smooth_quant/fq_output_0/input_high" type="Const" version="opset1">
			<data element_type="f32" shape="" offset="24938186" size="4" />
			<output>
				<port id="0" precision="FP32" />
			</output>
		</layer>
		<layer id="317" name="/encoder/encoders/encoders.0/norm_ff/Add_1_0_0/nncf_smooth_quant/fq_output_0/output_low" type="Const" version="opset1">
			<data element_type="f32" shape="" offset="24938182" size="4" />
			<output>
				<port id="0" precision="FP32" />
			</output>
		</layer>
		<layer id="318" name="/encoder/encoders/encoders.0/norm_ff/Add_1_0_0/nncf_smooth_quant/fq_output_0/output_high" type="Const" version="opset1">
			<data element_type="f32" shape="" offset="24938186" size="4" />
			<output>
				<port id="0" precision="FP32" />
			</output>
		</layer>
		<layer id="319" name="/encoder/encoders/encoders.0/norm_ff/Add_1_0_0/nncf_smooth_quant/fq_output_0" type="FakeQuantize" version="opset1">
			<data levels="256" auto_broadcast="numpy" />
			<input>
				<port id="0" precision="FP32">
					<dim>1</dim>
					<dim>-1</dim>
					<dim>768</dim>
				</port>
				<port id="1" precision="FP32" />
				<port id="2" precision="FP32" />
				<port id="3" precision="FP32" />
				<port id="4" precision="FP32" />
			</input>
			<output>
				<port id="5" precision="FP32">
					<dim>1</dim>
					<dim>-1</dim>
					<dim>768</dim>
				</port>
			</output>
		</layer>
		<layer id="320" name="Constant_1041855" type="Const" version="opset1">
			<data element_type="i8" shape="3072, 768" offset="24938190" size="2359296" />
			<output>
				<port id="0" precision="I8">
					<dim>3072</dim>
					<dim>768</dim>
				</port>
			</output>
		</layer>
		<layer id="321" name="Convert_1041856" type="Convert" version="opset1">
			<data destination_type="f32" />
			<input>
				<port id="0" precision="I8">
					<dim>3072</dim>
					<dim>768</dim>
				</port>
			</input>
			<output>
				<port id="1" precision="FP32">
					<dim>3072</dim>
					<dim>768</dim>
				</port>
			</output>
		</layer>
		<layer id="322" name="Constant_1041857" type="Const" version="opset1">
			<data element_type="f32" shape="3072, 1" offset="27297486" size="12288" />
			<output>
				<port id="0" precision="FP32">
					<dim>3072</dim>
					<dim>1</dim>
				</port>
			</output>
		</layer>
		<layer id="323" name="/encoder/encoders/encoders.0/feed_forward/w_1/MatMul/fq_weights_1" type="Multiply" version="opset1">
			<data auto_broadcast="numpy" />
			<input>
				<port id="0" precision="FP32">
					<dim>3072</dim>
					<dim>768</dim>
				</port>
				<port id="1" precision="FP32">
					<dim>3072</dim>
					<dim>1</dim>
				</port>
			</input>
			<output>
				<port id="2" precision="FP32">
					<dim>3072</dim>
					<dim>768</dim>
				</port>
			</output>
		</layer>
		<layer id="324" name="/encoder/encoders/encoders.0/feed_forward/w_1/MatMul" type="MatMul" version="opset1">
			<data transpose_a="false" transpose_b="true" />
			<input>
				<port id="0" precision="FP32">
					<dim>1</dim>
					<dim>-1</dim>
					<dim>768</dim>
				</port>
				<port id="1" precision="FP32">
					<dim>3072</dim>
					<dim>768</dim>
				</port>
			</input>
			<output>
				<port id="2" precision="FP32" names="/encoder/encoders/encoders.0/feed_forward/w_1/MatMul_output_0">
					<dim>1</dim>
					<dim>-1</dim>
					<dim>3072</dim>
				</port>
			</output>
		</layer>
		<layer id="325" name="/encoder/encoders/encoders.0/feed_forward/w_1/Add" type="Add" version="opset1">
			<data auto_broadcast="numpy" />
			<input>
				<port id="0" precision="FP32">
					<dim>1</dim>
					<dim>1</dim>
					<dim>3072</dim>
				</port>
				<port id="1" precision="FP32">
					<dim>1</dim>
					<dim>-1</dim>
					<dim>3072</dim>
				</port>
			</input>
			<output>
				<port id="2" precision="FP32" names="/encoder/encoders/encoders.0/feed_forward/w_1/Add_output_0">
					<dim>1</dim>
					<dim>-1</dim>
					<dim>3072</dim>
				</port>
			</output>
		</layer>
		<layer id="326" name="/encoder/encoders/encoders.0/feed_forward/Relu" type="ReLU" version="opset1">
			<input>
				<port id="0" precision="FP32">
					<dim>1</dim>
					<dim>-1</dim>
					<dim>3072</dim>
				</port>
			</input>
			<output>
				<port id="1" precision="FP32" names="/encoder/encoders/encoders.0/feed_forward/Relu_output_0">
					<dim>1</dim>
					<dim>-1</dim>
					<dim>3072</dim>
				</port>
			</output>
		</layer>
		<layer id="327" name="/encoder/encoders/encoders.0/feed_forward/Relu_0_0/nncf_smooth_quant/scale" type="Const" version="opset1">
			<data element_type="f32" shape="1, 1, 3072" offset="27309774" size="12288" />
			<output>
				<port id="0" precision="FP32">
					<dim>1</dim>
					<dim>1</dim>
					<dim>3072</dim>
				</port>
			</output>
		</layer>
		<layer id="328" name="/encoder/encoders/encoders.0/feed_forward/Relu_0_0/nncf_smooth_quant" type="Multiply" version="opset1">
			<data auto_broadcast="numpy" />
			<input>
				<port id="0" precision="FP32">
					<dim>1</dim>
					<dim>-1</dim>
					<dim>3072</dim>
				</port>
				<port id="1" precision="FP32">
					<dim>1</dim>
					<dim>1</dim>
					<dim>3072</dim>
				</port>
			</input>
			<output>
				<port id="2" precision="FP32">
					<dim>1</dim>
					<dim>-1</dim>
					<dim>3072</dim>
				</port>
			</output>
		</layer>
		<layer id="329" name="/encoder/encoders/encoders.0/feed_forward/Relu_0_0/nncf_smooth_quant/fq_output_0/input_low" type="Const" version="opset1">
			<data element_type="f32" shape="" offset="2396178" size="4" />
			<output>
				<port id="0" precision="FP32" />
			</output>
		</layer>
		<layer id="330" name="/encoder/encoders/encoders.0/feed_forward/Relu_0_0/nncf_smooth_quant/fq_output_0/input_high" type="Const" version="opset1">
			<data element_type="f32" shape="" offset="27322062" size="4" />
			<output>
				<port id="0" precision="FP32" />
			</output>
		</layer>
		<layer id="331" name="/encoder/encoders/encoders.0/feed_forward/Relu_0_0/nncf_smooth_quant/fq_output_0/output_low" type="Const" version="opset1">
			<data element_type="f32" shape="" offset="2396178" size="4" />
			<output>
				<port id="0" precision="FP32" />
			</output>
		</layer>
		<layer id="332" name="/encoder/encoders/encoders.0/feed_forward/Relu_0_0/nncf_smooth_quant/fq_output_0/output_high" type="Const" version="opset1">
			<data element_type="f32" shape="" offset="27322062" size="4" />
			<output>
				<port id="0" precision="FP32" />
			</output>
		</layer>
		<layer id="333" name="/encoder/encoders/encoders.0/feed_forward/Relu_0_0/nncf_smooth_quant/fq_output_0" type="FakeQuantize" version="opset1">
			<data levels="256" auto_broadcast="numpy" />
			<input>
				<port id="0" precision="FP32">
					<dim>1</dim>
					<dim>-1</dim>
					<dim>3072</dim>
				</port>
				<port id="1" precision="FP32" />
				<port id="2" precision="FP32" />
				<port id="3" precision="FP32" />
				<port id="4" precision="FP32" />
			</input>
			<output>
				<port id="5" precision="FP32">
					<dim>1</dim>
					<dim>-1</dim>
					<dim>3072</dim>
				</port>
			</output>
		</layer>
		<layer id="334" name="Constant_1041860" type="Const" version="opset1">
			<data element_type="i8" shape="768, 3072" offset="27322066" size="2359296" />
			<output>
				<port id="0" precision="I8">
					<dim>768</dim>
					<dim>3072</dim>
				</port>
			</output>
		</layer>
		<layer id="335" name="Convert_1041861" type="Convert" version="opset1">
			<data destination_type="f32" />
			<input>
				<port id="0" precision="I8">
					<dim>768</dim>
					<dim>3072</dim>
				</port>
			</input>
			<output>
				<port id="1" precision="FP32">
					<dim>768</dim>
					<dim>3072</dim>
				</port>
			</output>
		</layer>
		<layer id="336" name="Constant_1041862" type="Const" version="opset1">
			<data element_type="f32" shape="768, 1" offset="29681362" size="3072" />
			<output>
				<port id="0" precision="FP32">
					<dim>768</dim>
					<dim>1</dim>
				</port>
			</output>
		</layer>
		<layer id="337" name="Multiply_28373/fq_weights_1" type="Multiply" version="opset1">
			<data auto_broadcast="numpy" />
			<input>
				<port id="0" precision="FP32">
					<dim>768</dim>
					<dim>3072</dim>
				</port>
				<port id="1" precision="FP32">
					<dim>768</dim>
					<dim>1</dim>
				</port>
			</input>
			<output>
				<port id="2" precision="FP32">
					<dim>768</dim>
					<dim>3072</dim>
				</port>
			</output>
		</layer>
		<layer id="338" name="Multiply_28373" type="MatMul" version="opset1">
			<data transpose_a="false" transpose_b="true" />
			<input>
				<port id="0" precision="FP32">
					<dim>1</dim>
					<dim>-1</dim>
					<dim>3072</dim>
				</port>
				<port id="1" precision="FP32">
					<dim>768</dim>
					<dim>3072</dim>
				</port>
			</input>
			<output>
				<port id="2" precision="FP32">
					<dim>1</dim>
					<dim>-1</dim>
					<dim>768</dim>
				</port>
			</output>
		</layer>
		<layer id="339" name="Constant_29209_compressed" type="Const" version="opset1">
			<data element_type="f16" shape="1, 1, 768" offset="29684434" size="1536" />
			<output>
				<port id="0" precision="FP16">
					<dim>1</dim>
					<dim>1</dim>
					<dim>768</dim>
				</port>
			</output>
		</layer>
		<layer id="340" name="Constant_29209" type="Convert" version="opset1">
			<data destination_type="f32" />
			<rt_info>
				<attribute name="decompression" version="0" />
			</rt_info>
			<input>
				<port id="0" precision="FP16">
					<dim>1</dim>
					<dim>1</dim>
					<dim>768</dim>
				</port>
			</input>
			<output>
				<port id="1" precision="FP32">
					<dim>1</dim>
					<dim>1</dim>
					<dim>768</dim>
				</port>
			</output>
		</layer>
		<layer id="341" name="/encoder/encoders/encoders.0/Mul_1" type="Add" version="opset1">
			<data auto_broadcast="numpy" />
			<input>
				<port id="0" precision="FP32">
					<dim>1</dim>
					<dim>-1</dim>
					<dim>768</dim>
				</port>
				<port id="1" precision="FP32">
					<dim>1</dim>
					<dim>1</dim>
					<dim>768</dim>
				</port>
			</input>
			<output>
				<port id="2" precision="FP32" names="/encoder/encoders/encoders.0/Mul_1_output_0">
					<dim>1</dim>
					<dim>-1</dim>
					<dim>768</dim>
				</port>
			</output>
		</layer>
		<layer id="342" name="/encoder/encoders/encoders.0/Add_3" type="Add" version="opset1">
			<data auto_broadcast="numpy" />
			<input>
				<port id="0" precision="FP32">
					<dim>1</dim>
					<dim>-1</dim>
					<dim>768</dim>
				</port>
				<port id="1" precision="FP32">
					<dim>1</dim>
					<dim>-1</dim>
					<dim>768</dim>
				</port>
			</input>
			<output>
				<port id="2" precision="FP32" names="/encoder/encoders/encoders.0/Add_3_output_0">
					<dim>1</dim>
					<dim>-1</dim>
					<dim>768</dim>
				</port>
			</output>
		</layer>
		<layer id="343" name="Constant_1200" type="Const" version="opset1">
			<data element_type="i64" shape="1" offset="6146" size="8" />
			<output>
				<port id="0" precision="I64">
					<dim>1</dim>
				</port>
			</output>
		</layer>
		<layer id="344" name="/encoder/encoders/encoders.0/norm_final/Div" type="MVN" version="opset6">
			<data eps="9.999999960041972e-13" normalize_variance="true" eps_mode="INSIDE_SQRT" />
			<input>
				<port id="0" precision="FP32">
					<dim>1</dim>
					<dim>-1</dim>
					<dim>768</dim>
				</port>
				<port id="1" precision="I64">
					<dim>1</dim>
				</port>
			</input>
			<output>
				<port id="2" precision="FP32" names="/encoder/encoders/encoders.0/norm_final/Div_output_0">
					<dim>1</dim>
					<dim>-1</dim>
					<dim>768</dim>
				</port>
			</output>
		</layer>
		<layer id="345" name="Constant_29210_compressed" type="Const" version="opset1">
			<data element_type="f16" shape="1, 1, 768" offset="29685970" size="1536" />
			<output>
				<port id="0" precision="FP16">
					<dim>1</dim>
					<dim>1</dim>
					<dim>768</dim>
				</port>
			</output>
		</layer>
		<layer id="346" name="Constant_29210" type="Convert" version="opset1">
			<data destination_type="f32" />
			<rt_info>
				<attribute name="decompression" version="0" />
			</rt_info>
			<input>
				<port id="0" precision="FP16">
					<dim>1</dim>
					<dim>1</dim>
					<dim>768</dim>
				</port>
			</input>
			<output>
				<port id="1" precision="FP32">
					<dim>1</dim>
					<dim>1</dim>
					<dim>768</dim>
				</port>
			</output>
		</layer>
		<layer id="347" name="/encoder/encoders/encoders.0/norm_final/Mul" type="Multiply" version="opset1">
			<data auto_broadcast="numpy" />
			<input>
				<port id="0" precision="FP32">
					<dim>1</dim>
					<dim>-1</dim>
					<dim>768</dim>
				</port>
				<port id="1" precision="FP32">
					<dim>1</dim>
					<dim>1</dim>
					<dim>768</dim>
				</port>
			</input>
			<output>
				<port id="2" precision="FP32" names="/encoder/encoders/encoders.0/norm_final/Mul_output_0">
					<dim>1</dim>
					<dim>-1</dim>
					<dim>768</dim>
				</port>
			</output>
		</layer>
		<layer id="348" name="Constant_29211_compressed" type="Const" version="opset1">
			<data element_type="f16" shape="1, 1, 768" offset="29687506" size="1536" />
			<output>
				<port id="0" precision="FP16">
					<dim>1</dim>
					<dim>1</dim>
					<dim>768</dim>
				</port>
			</output>
		</layer>
		<layer id="349" name="Constant_29211" type="Convert" version="opset1">
			<data destination_type="f32" />
			<rt_info>
				<attribute name="decompression" version="0" />
			</rt_info>
			<input>
				<port id="0" precision="FP16">
					<dim>1</dim>
					<dim>1</dim>
					<dim>768</dim>
				</port>
			</input>
			<output>
				<port id="1" precision="FP32">
					<dim>1</dim>
					<dim>1</dim>
					<dim>768</dim>
				</port>
			</output>
		</layer>
		<layer id="350" name="/encoder/encoders/encoders.0/norm_final/Add_1" type="Add" version="opset1">
			<data auto_broadcast="numpy" />
			<input>
				<port id="0" precision="FP32">
					<dim>1</dim>
					<dim>-1</dim>
					<dim>768</dim>
				</port>
				<port id="1" precision="FP32">
					<dim>1</dim>
					<dim>1</dim>
					<dim>768</dim>
				</port>
			</input>
			<output>
				<port id="2" precision="FP32" names="/encoder/encoders/encoders.0/norm_final/Add_1_output_0">
					<dim>1</dim>
					<dim>-1</dim>
					<dim>768</dim>
				</port>
			</output>
		</layer>
		<layer id="351" name="Constant_29214_compressed" type="Const" version="opset1">
			<data element_type="f16" shape="1, 1, 3072" offset="29689042" size="6144" />
			<output>
				<port id="0" precision="FP16">
					<dim>1</dim>
					<dim>1</dim>
					<dim>3072</dim>
				</port>
			</output>
		</layer>
		<layer id="352" name="Constant_29214" type="Convert" version="opset1">
			<data destination_type="f32" />
			<rt_info>
				<attribute name="decompression" version="0" />
			</rt_info>
			<input>
				<port id="0" precision="FP16">
					<dim>1</dim>
					<dim>1</dim>
					<dim>3072</dim>
				</port>
			</input>
			<output>
				<port id="1" precision="FP32">
					<dim>1</dim>
					<dim>1</dim>
					<dim>3072</dim>
				</port>
			</output>
		</layer>
		<layer id="353" name="Constant_1213" type="Const" version="opset1">
			<data element_type="i64" shape="1" offset="6146" size="8" />
			<output>
				<port id="0" precision="I64">
					<dim>1</dim>
				</port>
			</output>
		</layer>
		<layer id="354" name="/encoder/encoders/encoders.1/norm_ff_macaron/Div" type="MVN" version="opset6">
			<data eps="9.999999960041972e-13" normalize_variance="true" eps_mode="INSIDE_SQRT" />
			<input>
				<port id="0" precision="FP32">
					<dim>1</dim>
					<dim>-1</dim>
					<dim>768</dim>
				</port>
				<port id="1" precision="I64">
					<dim>1</dim>
				</port>
			</input>
			<output>
				<port id="2" precision="FP32" names="/encoder/encoders/encoders.1/norm_ff_macaron/Div_output_0">
					<dim>1</dim>
					<dim>-1</dim>
					<dim>768</dim>
				</port>
			</output>
		</layer>
		<layer id="355" name="Constant_29212_compressed" type="Const" version="opset1">
			<data element_type="f16" shape="1, 1, 768" offset="29695186" size="1536" />
			<output>
				<port id="0" precision="FP16">
					<dim>1</dim>
					<dim>1</dim>
					<dim>768</dim>
				</port>
			</output>
		</layer>
		<layer id="356" name="Constant_29212" type="Convert" version="opset1">
			<data destination_type="f32" />
			<rt_info>
				<attribute name="decompression" version="0" />
			</rt_info>
			<input>
				<port id="0" precision="FP16">
					<dim>1</dim>
					<dim>1</dim>
					<dim>768</dim>
				</port>
			</input>
			<output>
				<port id="1" precision="FP32">
					<dim>1</dim>
					<dim>1</dim>
					<dim>768</dim>
				</port>
			</output>
		</layer>
		<layer id="357" name="/encoder/encoders/encoders.1/norm_ff_macaron/Mul" type="Multiply" version="opset1">
			<data auto_broadcast="numpy" />
			<input>
				<port id="0" precision="FP32">
					<dim>1</dim>
					<dim>-1</dim>
					<dim>768</dim>
				</port>
				<port id="1" precision="FP32">
					<dim>1</dim>
					<dim>1</dim>
					<dim>768</dim>
				</port>
			</input>
			<output>
				<port id="2" precision="FP32" names="/encoder/encoders/encoders.1/norm_ff_macaron/Mul_output_0">
					<dim>1</dim>
					<dim>-1</dim>
					<dim>768</dim>
				</port>
			</output>
		</layer>
		<layer id="358" name="Constant_29213_compressed" type="Const" version="opset1">
			<data element_type="f16" shape="1, 1, 768" offset="29696722" size="1536" />
			<output>
				<port id="0" precision="FP16">
					<dim>1</dim>
					<dim>1</dim>
					<dim>768</dim>
				</port>
			</output>
		</layer>
		<layer id="359" name="Constant_29213" type="Convert" version="opset1">
			<data destination_type="f32" />
			<rt_info>
				<attribute name="decompression" version="0" />
			</rt_info>
			<input>
				<port id="0" precision="FP16">
					<dim>1</dim>
					<dim>1</dim>
					<dim>768</dim>
				</port>
			</input>
			<output>
				<port id="1" precision="FP32">
					<dim>1</dim>
					<dim>1</dim>
					<dim>768</dim>
				</port>
			</output>
		</layer>
		<layer id="360" name="/encoder/encoders/encoders.1/norm_ff_macaron/Add_1" type="Add" version="opset1">
			<data auto_broadcast="numpy" />
			<input>
				<port id="0" precision="FP32">
					<dim>1</dim>
					<dim>-1</dim>
					<dim>768</dim>
				</port>
				<port id="1" precision="FP32">
					<dim>1</dim>
					<dim>1</dim>
					<dim>768</dim>
				</port>
			</input>
			<output>
				<port id="2" precision="FP32" names="/encoder/encoders/encoders.1/norm_ff_macaron/Add_1_output_0">
					<dim>1</dim>
					<dim>-1</dim>
					<dim>768</dim>
				</port>
			</output>
		</layer>
		<layer id="361" name="/encoder/encoders/encoders.1/norm_ff_macaron/Add_1_0_0/nncf_smooth_quant/scale" type="Const" version="opset1">
			<data element_type="f32" shape="1, 1, 768" offset="29698258" size="3072" />
			<output>
				<port id="0" precision="FP32">
					<dim>1</dim>
					<dim>1</dim>
					<dim>768</dim>
				</port>
			</output>
		</layer>
…
		<edge from-layer="3142" from-port="2" to-layer="3143" to-port="0" />
		<edge from-layer="3143" from-port="1" to-layer="3145" to-port="0" />
		<edge from-layer="3144" from-port="0" to-layer="3145" to-port="1" />
		<edge from-layer="3145" from-port="2" to-layer="3150" to-port="0" />
		<edge from-layer="3146" from-port="0" to-layer="3150" to-port="1" />
		<edge from-layer="3147" from-port="0" to-layer="3150" to-port="2" />
		<edge from-layer="3148" from-port="0" to-layer="3150" to-port="3" />
		<edge from-layer="3149" from-port="0" to-layer="3150" to-port="4" />
		<edge from-layer="3150" from-port="5" to-layer="3155" to-port="0" />
		<edge from-layer="3151" from-port="0" to-layer="3152" to-port="0" />
		<edge from-layer="3152" from-port="1" to-layer="3154" to-port="0" />
		<edge from-layer="3153" from-port="0" to-layer="3154" to-port="1" />
		<edge from-layer="3154" from-port="2" to-layer="3155" to-port="1" />
		<edge from-layer="3155" from-port="2" to-layer="3158" to-port="0" />
		<edge from-layer="3156" from-port="0" to-layer="3157" to-port="0" />
		<edge from-layer="3157" from-port="1" to-layer="3158" to-port="1" />
		<edge from-layer="3158" from-port="2" to-layer="3159" to-port="1" />
		<edge from-layer="3159" from-port="2" to-layer="3161" to-port="0" />
		<edge from-layer="3160" from-port="0" to-layer="3161" to-port="1" />
		<edge from-layer="3161" from-port="2" to-layer="3164" to-port="0" />
		<edge from-layer="3162" from-port="0" to-layer="3163" to-port="0" />
		<edge from-layer="3163" from-port="1" to-layer="3164" to-port="1" />
		<edge from-layer="3164" from-port="2" to-layer="3167" to-port="0" />
		<edge from-layer="3165" from-port="0" to-layer="3166" to-port="0" />
		<edge from-layer="3166" from-port="1" to-layer="3167" to-port="1" />
		<edge from-layer="3167" from-port="2" to-layer="3171" to-port="0" />
		<edge from-layer="3167" from-port="2" to-layer="3207" to-port="0" />
		<edge from-layer="3168" from-port="0" to-layer="3169" to-port="0" />
		<edge from-layer="3169" from-port="1" to-layer="3190" to-port="0" />
		<edge from-layer="3170" from-port="0" to-layer="3171" to-port="1" />
		<edge from-layer="3171" from-port="2" to-layer="3174" to-port="0" />
		<edge from-layer="3172" from-port="0" to-layer="3173" to-port="0" />
		<edge from-layer="3173" from-port="1" to-layer="3174" to-port="1" />
		<edge from-layer="3174" from-port="2" to-layer="3177" to-port="0" />
		<edge from-layer="3175" from-port="0" to-layer="3176" to-port="0" />
		<edge from-layer="3176" from-port="1" to-layer="3177" to-port="1" />
		<edge from-layer="3177" from-port="2" to-layer="3179" to-port="0" />
		<edge from-layer="3178" from-port="0" to-layer="3179" to-port="1" />
		<edge from-layer="3179" from-port="2" to-layer="3184" to-port="0" />
		<edge from-layer="3180" from-port="0" to-layer="3184" to-port="1" />
		<edge from-layer="3181" from-port="0" to-layer="3184" to-port="2" />
		<edge from-layer="3182" from-port="0" to-layer="3184" to-port="3" />
		<edge from-layer="3183" from-port="0" to-layer="3184" to-port="4" />
		<edge from-layer="3184" from-port="5" to-layer="3189" to-port="0" />
		<edge from-layer="3185" from-port="0" to-layer="3186" to-port="0" />
		<edge from-layer="3186" from-port="1" to-layer="3188" to-port="0" />
		<edge from-layer="3187" from-port="0" to-layer="3188" to-port="1" />
		<edge from-layer="3188" from-port="2" to-layer="3189" to-port="1" />
		<edge from-layer="3189" from-port="2" to-layer="3190" to-port="1" />
		<edge from-layer="3190" from-port="2" to-layer="3191" to-port="0" />
		<edge from-layer="3191" from-port="1" to-layer="3193" to-port="0" />
		<edge from-layer="3192" from-port="0" to-layer="3193" to-port="1" />
		<edge from-layer="3193" from-port="2" to-layer="3198" to-port="0" />
		<edge from-layer="3194" from-port="0" to-layer="3198" to-port="1" />
		<edge from-layer="3195" from-port="0" to-layer="3198" to-port="2" />
		<edge from-layer="3196" from-port="0" to-layer="3198" to-port="3" />
		<edge from-layer="3197" from-port="0" to-layer="3198" to-port="4" />
		<edge from-layer="3198" from-port="5" to-layer="3203" to-port="0" />
		<edge from-layer="3199" from-port="0" to-layer="3200" to-port="0" />
		<edge from-layer="3200" from-port="1" to-layer="3202" to-port="0" />
		<edge from-layer="3201" from-port="0" to-layer="3202" to-port="1" />
		<edge from-layer="3202" from-port="2" to-layer="3203" to-port="1" />
		<edge from-layer="3203" from-port="2" to-layer="3206" to-port="0" />
		<edge from-layer="3204" from-port="0" to-layer="3205" to-port="0" />
		<edge from-layer="3205" from-port="1" to-layer="3206" to-port="1" />
		<edge from-layer="3206" from-port="2" to-layer="3207" to-port="1" />
		<edge from-layer="3207" from-port="2" to-layer="3375" to-port="0" />
		<edge from-layer="3207" from-port="2" to-layer="3213" to-port="0" />
		<edge from-layer="3208" from-port="0" to-layer="3209" to-port="0" />
		<edge from-layer="3209" from-port="1" to-layer="3374" to-port="0" />
		<edge from-layer="3210" from-port="0" to-layer="3211" to-port="0" />
		<edge from-layer="3211" from-port="1" to-layer="3232" to-port="0" />
		<edge from-layer="3212" from-port="0" to-layer="3213" to-port="1" />
		<edge from-layer="3213" from-port="2" to-layer="3216" to-port="0" />
		<edge from-layer="3214" from-port="0" to-layer="3215" to-port="0" />
		<edge from-layer="3215" from-port="1" to-layer="3216" to-port="1" />
		<edge from-layer="3216" from-port="2" to-layer="3219" to-port="0" />
		<edge from-layer="3217" from-port="0" to-layer="3218" to-port="0" />
		<edge from-layer="3218" from-port="1" to-layer="3219" to-port="1" />
		<edge from-layer="3219" from-port="2" to-layer="3233" to-port="0" />
		<edge from-layer="3219" from-port="2" to-layer="3221" to-port="0" />
		<edge from-layer="3220" from-port="0" to-layer="3221" to-port="1" />
		<edge from-layer="3221" from-port="2" to-layer="3226" to-port="0" />
		<edge from-layer="3222" from-port="0" to-layer="3226" to-port="1" />
		<edge from-layer="3223" from-port="0" to-layer="3226" to-port="2" />
		<edge from-layer="3224" from-port="0" to-layer="3226" to-port="3" />
		<edge from-layer="3225" from-port="0" to-layer="3226" to-port="4" />
		<edge from-layer="3226" from-port="5" to-layer="3346" to-port="0" />
		<edge from-layer="3226" from-port="5" to-layer="3258" to-port="0" />
		<edge from-layer="3226" from-port="5" to-layer="3231" to-port="0" />
		<edge from-layer="3227" from-port="0" to-layer="3228" to-port="0" />
		<edge from-layer="3228" from-port="1" to-layer="3230" to-port="0" />
		<edge from-layer="3229" from-port="0" to-layer="3230" to-port="1" />
		<edge from-layer="3230" from-port="2" to-layer="3231" to-port="1" />
		<edge from-layer="3231" from-port="2" to-layer="3232" to-port="1" />
		<edge from-layer="3232" from-port="2" to-layer="3241" to-port="0" />
		<edge from-layer="3233" from-port="1" to-layer="3236" to-port="0" />
		<edge from-layer="3234" from-port="0" to-layer="3236" to-port="1" />
		<edge from-layer="3235" from-port="0" to-layer="3236" to-port="2" />
		<edge from-layer="3236" from-port="3" to-layer="3240" to-port="0" />
		<edge from-layer="3237" from-port="0" to-layer="3240" to-port="1" />
		<edge from-layer="3238" from-port="0" to-layer="3240" to-port="2" />
		<edge from-layer="3239" from-port="0" to-layer="3240" to-port="3" />
		<edge from-layer="3240" from-port="4" to-layer="3348" to-port="1" />
		<edge from-layer="3240" from-port="4" to-layer="3241" to-port="1" />
		<edge from-layer="3240" from-port="4" to-layer="3265" to-port="1" />
		<edge from-layer="3241" from-port="2" to-layer="3244" to-port="0" />
		<edge from-layer="3241" from-port="2" to-layer="3273" to-port="0" />
		<edge from-layer="3242" from-port="0" to-layer="3243" to-port="0" />
		<edge from-layer="3243" from-port="1" to-layer="3244" to-port="1" />
		<edge from-layer="3244" from-port="2" to-layer="3249" to-port="0" />
		<edge from-layer="3245" from-port="0" to-layer="3249" to-port="1" />
		<edge from-layer="3246" from-port="0" to-layer="3249" to-port="2" />
		<edge from-layer="3247" from-port="0" to-layer="3249" to-port="3" />
		<edge from-layer="3248" from-port="0" to-layer="3249" to-port="4" />
		<edge from-layer="3249" from-port="5" to-layer="3251" to-port="0" />
		<edge from-layer="3250" from-port="0" to-layer="3251" to-port="1" />
		<edge from-layer="3251" from-port="2" to-layer="3268" to-port="0" />
		<edge from-layer="3252" from-port="0" to-layer="3253" to-port="0" />
		<edge from-layer="3253" from-port="1" to-layer="3259" to-port="0" />
		<edge from-layer="3254" from-port="0" to-layer="3255" to-port="0" />
		<edge from-layer="3255" from-port="1" to-layer="3257" to-port="0" />
		<edge from-layer="3256" from-port="0" to-layer="3257" to-port="1" />
		<edge from-layer="3257" from-port="2" to-layer="3258" to-port="1" />
		<edge from-layer="3258" from-port="2" to-layer="3259" to-port="1" />
		<edge from-layer="3259" from-port="2" to-layer="3264" to-port="0" />
		<edge from-layer="3260" from-port="0" to-layer="3264" to-port="1" />
		<edge from-layer="3261" from-port="0" to-layer="3264" to-port="2" />
		<edge from-layer="3262" from-port="0" to-layer="3264" to-port="3" />
		<edge from-layer="3263" from-port="0" to-layer="3264" to-port="4" />
		<edge from-layer="3264" from-port="5" to-layer="3265" to-port="0" />
		<edge from-layer="3265" from-port="2" to-layer="3267" to-port="0" />
		<edge from-layer="3266" from-port="0" to-layer="3267" to-port="1" />
		<edge from-layer="3267" from-port="2" to-layer="3268" to-port="1" />
		<edge from-layer="3268" from-port="2" to-layer="3335" to-port="0" />
		<edge from-layer="3269" from-port="0" to-layer="3270" to-port="0" />
		<edge from-layer="3270" from-port="1" to-layer="3296" to-port="0" />
		<edge from-layer="3271" from-port="0" to-layer="3272" to-port="0" />
		<edge from-layer="3272" from-port="1" to-layer="3273" to-port="1" />
		<edge from-layer="3273" from-port="2" to-layer="3278" to-port="0" />
		<edge from-layer="3274" from-port="0" to-layer="3278" to-port="1" />
		<edge from-layer="3275" from-port="0" to-layer="3278" to-port="2" />
		<edge from-layer="3276" from-port="0" to-layer="3278" to-port="3" />
		<edge from-layer="3277" from-port="0" to-layer="3278" to-port="4" />
		<edge from-layer="3278" from-port="5" to-layer="3280" to-port="0" />
		<edge from-layer="3279" from-port="0" to-layer="3280" to-port="1" />
		<edge from-layer="3280" from-port="2" to-layer="3289" to-port="0" />
		<edge from-layer="3281" from-port="0" to-layer="3282" to-port="0" />
		<edge from-layer="3282" from-port="1" to-layer="3284" to-port="0" />
		<edge from-layer="3283" from-port="0" to-layer="3284" to-port="1" />
		<edge from-layer="3284" from-port="2" to-layer="3285" to-port="1" />
		<edge from-layer="3285" from-port="2" to-layer="3286" to-port="0" />
		<edge from-layer="3286" from-port="2" to-layer="3288" to-port="0" />
		<edge from-layer="3287" from-port="0" to-layer="3288" to-port="1" />
		<edge from-layer="3288" from-port="2" to-layer="3289" to-port="1" />
		<edge from-layer="3289" from-port="2" to-layer="3297" to-port="1" />
		<edge from-layer="3289" from-port="2" to-layer="3290" to-port="0" />
		<edge from-layer="3290" from-port="1" to-layer="3293" to-port="0" />
		<edge from-layer="3290" from-port="1" to-layer="3300" to-port="0" />
		<edge from-layer="3290" from-port="1" to-layer="3303" to-port="0" />
		<edge from-layer="3290" from-port="1" to-layer="3322" to-port="0" />
		<edge from-layer="3290" from-port="1" to-layer="3315" to-port="1" />
		<edge from-layer="3290" from-port="1" to-layer="3308" to-port="0" />
		<edge from-layer="3291" from-port="0" to-layer="3293" to-port="1" />
		<edge from-layer="3292" from-port="0" to-layer="3293" to-port="2" />
		<edge from-layer="3293" from-port="3" to-layer="3295" to-port="0" />
		<edge from-layer="3294" from-port="0" to-layer="3295" to-port="1" />
		<edge from-layer="3295" from-port="2" to-layer="3296" to-port="1" />
		<edge from-layer="3296" from-port="2" to-layer="3297" to-port="0" />
		<edge from-layer="3297" from-port="2" to-layer="3310" to-port="0" />
		<edge from-layer="3298" from-port="0" to-layer="3300" to-port="1" />
		<edge from-layer="3299" from-port="0" to-layer="3300" to-port="2" />
		<edge from-layer="3300" from-port="3" to-layer="3309" to-port="0" />
		<edge from-layer="3301" from-port="0" to-layer="3303" to-port="1" />
		<edge from-layer="3302" from-port="0" to-layer="3303" to-port="2" />
		<edge from-layer="3303" from-port="3" to-layer="3305" to-port="0" />
		<edge from-layer="3304" from-port="0" to-layer="3305" to-port="1" />
		<edge from-layer="3305" from-port="2" to-layer="3309" to-port="1" />
		<edge from-layer="3306" from-port="0" to-layer="3308" to-port="1" />
		<edge from-layer="3307" from-port="0" to-layer="3308" to-port="2" />
		<edge from-layer="3308" from-port="3" to-layer="3309" to-port="2" />
		<edge from-layer="3309" from-port="3" to-layer="3310" to-port="1" />
		<edge from-layer="3310" from-port="2" to-layer="3314" to-port="0" />
		<edge from-layer="3311" from-port="0" to-layer="3314" to-port="1" />
		<edge from-layer="3312" from-port="0" to-layer="3314" to-port="2" />
		<edge from-layer="3313" from-port="0" to-layer="3314" to-port="3" />
		<edge from-layer="3314" from-port="4" to-layer="3315" to-port="0" />
		<edge from-layer="3315" from-port="2" to-layer="3334" to-port="0" />
		<edge from-layer="3316" from-port="0" to-layer="3334" to-port="1" />
		<edge from-layer="3317" from-port="0" to-layer="3332" to-port="0" />
		<edge from-layer="3318" from-port="0" to-layer="3332" to-port="1" />
		<edge from-layer="3319" from-port="0" to-layer="3322" to-port="1" />
		<edge from-layer="3320" from-port="0" to-layer="3322" to-port="2" />
		<edge from-layer="3321" from-port="0" to-layer="3322" to-port="3" />
		<edge from-layer="3322" from-port="4" to-layer="3324" to-port="0" />
		<edge from-layer="3323" from-port="0" to-layer="3324" to-port="1" />
		<edge from-layer="3324" from-port="2" to-layer="3326" to-port="0" />
		<edge from-layer="3325" from-port="0" to-layer="3326" to-port="1" />
		<edge from-layer="3326" from-port="2" to-layer="3328" to-port="0" />
		<edge from-layer="3327" from-port="0" to-layer="3328" to-port="1" />
		<edge from-layer="3328" from-port="2" to-layer="3330" to-port="0" />
		<edge from-layer="3329" from-port="0" to-layer="3330" to-port="1" />
		<edge from-layer="3330" from-port="2" to-layer="3332" to-port="2" />
		<edge from-layer="3331" from-port="0" to-layer="3332" to-port="3" />
		<edge from-layer="3332" from-port="4" to-layer="3334" to-port="2" />
		<edge from-layer="3333" from-port="0" to-layer="3334" to-port="3" />
		<edge from-layer="3334" from-port="4" to-layer="3335" to-port="1" />
		<edge from-layer="3335" from-port="2" to-layer="3338" to-port="0" />
		<edge from-layer="3336" from-port="0" to-layer="3337" to-port="0" />
		<edge from-layer="3337" from-port="1" to-layer="3338" to-port="1" />
		<edge from-layer="3338" from-port="2" to-layer="3339" to-port="0" />
		<edge from-layer="3339" from-port="1" to-layer="3351" to-port="0" />
		<edge from-layer="3340" from-port="0" to-layer="3341" to-port="0" />
		<edge from-layer="3341" from-port="1" to-layer="3347" to-port="0" />
		<edge from-layer="3342" from-port="0" to-layer="3343" to-port="0" />
		<edge from-layer="3343" from-port="1" to-layer="3345" to-port="0" />
		<edge from-layer="3344" from-port="0" to-layer="3345" to-port="1" />
		<edge from-layer="3345" from-port="2" to-layer="3346" to-port="1" />
		<edge from-layer="3346" from-port="2" to-layer="3347" to-port="1" />
		<edge from-layer="3347" from-port="2" to-layer="3348" to-port="0" />
		<edge from-layer="3348" from-port="2" to-layer="3350" to-port="0" />
		<edge from-layer="3349" from-port="0" to-layer="3350" to-port="1" />
		<edge from-layer="3350" from-port="2" to-layer="3354" to-port="0" />
		<edge from-layer="3350" from-port="2" to-layer="3351" to-port="1" />
		<edge from-layer="3351" from-port="2" to-layer="3353" to-port="0" />
		<edge from-layer="3352" from-port="0" to-layer="3353" to-port="1" />
		<edge from-layer="3353" from-port="2" to-layer="3361" to-port="0" />
		<edge from-layer="3354" from-port="1" to-layer="3357" to-port="0" />
		<edge from-layer="3355" from-port="0" to-layer="3357" to-port="1" />
		<edge from-layer="3356" from-port="0" to-layer="3357" to-port="2" />
		<edge from-layer="3357" from-port="3" to-layer="3360" to-port="0" />
		<edge from-layer="3358" from-port="0" to-layer="3360" to-port="1" />
		<edge from-layer="3359" from-port="0" to-layer="3360" to-port="2" />
		<edge from-layer="3360" from-port="3" to-layer="3361" to-port="1" />
		<edge from-layer="3361" from-port="2" to-layer="3363" to-port="0" />
		<edge from-layer="3362" from-port="0" to-layer="3363" to-port="1" />
		<edge from-layer="3363" from-port="2" to-layer="3368" to-port="0" />
		<edge from-layer="3364" from-port="0" to-layer="3368" to-port="1" />
		<edge from-layer="3365" from-port="0" to-layer="3368" to-port="2" />
		<edge from-layer="3366" from-port="0" to-layer="3368" to-port="3" />
		<edge from-layer="3367" from-port="0" to-layer="3368" to-port="4" />
		<edge from-layer="3368" from-port="5" to-layer="3373" to-port="0" />
		<edge from-layer="3369" from-port="0" to-layer="3370" to-port="0" />
		<edge from-layer="3370" from-port="1" to-layer="3372" to-port="0" />
		<edge from-layer="3371" from-port="0" to-layer="3372" to-port="1" />
		<edge from-layer="3372" from-port="2" to-layer="3373" to-port="1" />
		<edge from-layer="3373" from-port="2" to-layer="3374" to-port="1" />
		<edge from-layer="3374" from-port="2" to-layer="3375" to-port="1" />
		<edge from-layer="3375" from-port="2" to-layer="3432" to-port="0" />
		<edge from-layer="3375" from-port="2" to-layer="3377" to-port="0" />
		<edge from-layer="3376" from-port="0" to-layer="3377" to-port="1" />
		<edge from-layer="3377" from-port="2" to-layer="3380" to-port="0" />
		<edge from-layer="3378" from-port="0" to-layer="3379" to-port="0" />
		<edge from-layer="3379" from-port="1" to-layer="3380" to-port="1" />
		<edge from-layer="3380" from-port="2" to-layer="3383" to-port="0" />
		<edge from-layer="3381" from-port="0" to-layer="3382" to-port="0" />
		<edge from-layer="3382" from-port="1" to-layer="3383" to-port="1" />
		<edge from-layer="3383" from-port="2" to-layer="3388" to-port="0" />
		<edge from-layer="3384" from-port="0" to-layer="3388" to-port="1" />
		<edge from-layer="3385" from-port="0" to-layer="3388" to-port="2" />
		<edge from-layer="3386" from-port="0" to-layer="3388" to-port="3" />
		<edge from-layer="3387" from-port="0" to-layer="3388" to-port="4" />
		<edge from-layer="3388" from-port="5" to-layer="3390" to-port="0" />
		<edge from-layer="3389" from-port="0" to-layer="3390" to-port="1" />
		<edge from-layer="3390" from-port="2" to-layer="3395" to-port="0" />
		<edge from-layer="3391" from-port="0" to-layer="3392" to-port="0" />
		<edge from-layer="3392" from-port="1" to-layer="3394" to-port="0" />
		<edge from-layer="3393" from-port="0" to-layer="3394" to-port="1" />
		<edge from-layer="3394" from-port="2" to-layer="3395" to-port="1" />
		<edge from-layer="3395" from-port="2" to-layer="3398" to-port="0" />
		<edge from-layer="3396" from-port="0" to-layer="3397" to-port="0" />
		<edge from-layer="3397" from-port="1" to-layer="3398" to-port="1" />
		<edge from-layer="3398" from-port="2" to-layer="3400" to-port="0" />
		<edge from-layer="3399" from-port="0" to-layer="3400" to-port="1" />
		<edge from-layer="3400" from-port="3" to-layer="3401" to-port="0" />
		<edge from-layer="3400" from-port="2" to-layer="3402" to-port="0" />
		<edge from-layer="3401" from-port="1" to-layer="3402" to-port="1" />
		<edge from-layer="3402" from-port="2" to-layer="3407" to-port="0" />
		<edge from-layer="3403" from-port="0" to-layer="3407" to-port="1" />
		<edge from-layer="3404" from-port="0" to-layer="3407" to-port="2" />
		<edge from-layer="3405" from-port="0" to-layer="3407" to-port="3" />
		<edge from-layer="3406" from-port="0" to-layer="3407" to-port="4" />
		<edge from-layer="3407" from-port="5" to-layer="3412" to-port="0" />
		<edge from-layer="3408" from-port="0" to-layer="3409" to-port="0" />
		<edge from-layer="3409" from-port="1" to-layer="3411" to-port="0" />
		<edge from-layer="3410" from-port="0" to-layer="3411" to-port="1" />
		<edge from-layer="3411" from-port="2" to-layer="3412" to-port="1" />
		<edge from-layer="3412" from-port="2" to-layer="3415" to-port="0" />
		<edge from-layer="3413" from-port="0" to-layer="3414" to-port="0" />
		<edge from-layer="3414" from-port="1" to-layer="3415" to-port="1" />
		<edge from-layer="3415" from-port="2" to-layer="3416" to-port="0" />
		<edge from-layer="3416" from-port="1" to-layer="3421" to-port="0" />
		<edge from-layer="3417" from-port="0" to-layer="3421" to-port="1" />
		<edge from-layer="3418" from-port="0" to-layer="3421" to-port="2" />
		<edge from-layer="3419" from-port="0" to-layer="3421" to-port="3" />
		<edge from-layer="3420" from-port="0" to-layer="3421" to-port="4" />
		<edge from-layer="3421" from-port="5" to-layer="3426" to-port="0" />
		<edge from-layer="3422" from-port="0" to-layer="3423" to-port="0" />
		<edge from-layer="3423" from-port="1" to-layer="3425" to-port="0" />
		<edge from-layer="3424" from-port="0" to-layer="3425" to-port="1" />
		<edge from-layer="3425" from-port="2" to-layer="3426" to-port="1" />
		<edge from-layer="3426" from-port="2" to-layer="3429" to-port="0" />
		<edge from-layer="3427" from-port="0" to-layer="3428" to-port="0" />
		<edge from-layer="3428" from-port="1" to-layer="3429" to-port="1" />
		<edge from-layer="3429" from-port="2" to-layer="3431" to-port="0" />
		<edge from-layer="3430" from-port="0" to-layer="3431" to-port="1" />
		<edge from-layer="3431" from-port="2" to-layer="3432" to-port="1" />
		<edge from-layer="3432" from-port="2" to-layer="3472" to-port="0" />
		<edge from-layer="3432" from-port="2" to-layer="3436" to-port="0" />
		<edge from-layer="3433" from-port="0" to-layer="3434" to-port="0" />
		<edge from-layer="3434" from-port="1" to-layer="3455" to-port="0" />
		<edge from-layer="3435" from-port="0" to-layer="3436" to-port="1" />
		<edge from-layer="3436" from-port="2" to-layer="3439" to-port="0" />
		<edge from-layer="3437" from-port="0" to-layer="3438" to-port="0" />
		<edge from-layer="3438" from-port="1" to-layer="3439" to-port="1" />
		<edge from-layer="3439" from-port="2" to-layer="3442" to-port="0" />
		<edge from-layer="3440" from-port="0" to-layer="3441" to-port="0" />
		<edge from-layer="3441" from-port="1" to-layer="3442" to-port="1" />
		<edge from-layer="3442" from-port="2" to-layer="3444" to-port="0" />
		<edge from-layer="3443" from-port="0" to-layer="3444" to-port="1" />
		<edge from-layer="3444" from-port="2" to-layer="3449" to-port="0" />
		<edge from-layer="3445" from-port="0" to-layer="3449" to-port="1" />
		<edge from-layer="3446" from-port="0" to-layer="3449" to-port="2" />
		<edge from-layer="3447" from-port="0" to-layer="3449" to-port="3" />
		<edge from-layer="3448" from-port="0" to-layer="3449" to-port="4" />
		<edge from-layer="3449" from-port="5" to-layer="3454" to-port="0" />
		<edge from-layer="3450" from-port="0" to-layer="3451" to-port="0" />
		<edge from-layer="3451" from-port="1" to-layer="3453" to-port="0" />
		<edge from-layer="3452" from-port="0" to-layer="3453" to-port="1" />
		<edge from-layer="3453" from-port="2" to-layer="3454" to-port="1" />
		<edge from-layer="3454" from-port="2" to-layer="3455" to-port="1" />
		<edge from-layer="3455" from-port="2" to-layer="3456" to-port="0" />
		<edge from-layer="3456" from-port="1" to-layer="3458" to-port="0" />
		<edge from-layer="3457" from-port="0" to-layer="3458" to-port="1" />
		<edge from-layer="3458" from-port="2" to-layer="3463" to-port="0" />
		<edge from-layer="3459" from-port="0" to-layer="3463" to-port="1" />
		<edge from-layer="3460" from-port="0" to-layer="3463" to-port="2" />
		<edge from-layer="3461" from-port="0" to-layer="3463" to-port="3" />
		<edge from-layer="3462" from-port="0" to-layer="3463" to-port="4" />
		<edge from-layer="3463" from-port="5" to-layer="3468" to-port="0" />
		<edge from-layer="3464" from-port="0" to-layer="3465" to-port="0" />
		<edge from-layer="3465" from-port="1" to-layer="3467" to-port="0" />
		<edge from-layer="3466" from-port="0" to-layer="3467" to-port="1" />
		<edge from-layer="3467" from-port="2" to-layer="3468" to-port="1" />
		<edge from-layer="3468" from-port="2" to-layer="3471" to-port="0" />
		<edge from-layer="3469" from-port="0" to-layer="3470" to-port="0" />
		<edge from-layer="3470" from-port="1" to-layer="3471" to-port="1" />
		<edge from-layer="3471" from-port="2" to-layer="3472" to-port="1" />
		<edge from-layer="3472" from-port="2" to-layer="3474" to-port="0" />
		<edge from-layer="3473" from-port="0" to-layer="3474" to-port="1" />
		<edge from-layer="3474" from-port="2" to-layer="3477" to-port="0" />
		<edge from-layer="3475" from-port="0" to-layer="3476" to-port="0" />
		<edge from-layer="3476" from-port="1" to-layer="3477" to-port="1" />
		<edge from-layer="3477" from-port="2" to-layer="3480" to-port="0" />
		<edge from-layer="3478" from-port="0" to-layer="3479" to-port="0" />
		<edge from-layer="3479" from-port="1" to-layer="3480" to-port="1" />
		<edge from-layer="3480" from-port="2" to-layer="3520" to-port="0" />
		<edge from-layer="3480" from-port="2" to-layer="3484" to-port="0" />
		<edge from-layer="3481" from-port="0" to-layer="3482" to-port="0" />
		<edge from-layer="3482" from-port="1" to-layer="3503" to-port="0" />
		<edge from-layer="3483" from-port="0" to-layer="3484" to-port="1" />
		<edge from-layer="3484" from-port="2" to-layer="3487" to-port="0" />
		<edge from-layer="3485" from-port="0" to-layer="3486" to-port="0" />
		<edge from-layer="3486" from-port="1" to-layer="3487" to-port="1" />
		<edge from-layer="3487" from-port="2" to-layer="3490" to-port="0" />
		<edge from-layer="3488" from-port="0" to-layer="3489" to-port="0" />
		<edge from-layer="3489" from-port="1" to-layer="3490" to-port="1" />
		<edge from-layer="3490" from-port="2" to-layer="3492" to-port="0" />
		<edge from-layer="3491" from-port="0" to-layer="3492" to-port="1" />
		<edge from-layer="3492" from-port="2" to-layer="3497" to-port="0" />
		<edge from-layer="3493" from-port="0" to-layer="3497" to-port="1" />
		<edge from-layer="3494" from-port="0" to-layer="3497" to-port="2" />
		<edge from-layer="3495" from-port="0" to-layer="3497" to-port="3" />
		<edge from-layer="3496" from-port="0" to-layer="3497" to-port="4" />
		<edge from-layer="3497" from-port="5" to-layer="3502" to-port="0" />
		<edge from-layer="3498" from-port="0" to-layer="3499" to-port="0" />
		<edge from-layer="3499" from-port="1" to-layer="3501" to-port="0" />
		<edge from-layer="3500" from-port="0" to-layer="3501" to-port="1" />
		<edge from-layer="3501" from-port="2" to-layer="3502" to-port="1" />
		<edge from-layer="3502" from-port="2" to-layer="3503" to-port="1" />
		<edge from-layer="3503" from-port="2" to-layer="3504" to-port="0" />
		<edge from-layer="3504" from-port="1" to-layer="3506" to-port="0" />
		<edge from-layer="3505" from-port="0" to-layer="3506" to-port="1" />
		<edge from-layer="3506" from-port="2" to-layer="3511" to-port="0" />
		<edge from-layer="3507" from-port="0" to-layer="3511" to-port="1" />
		<edge from-layer="3508" from-port="0" to-layer="3511" to-port="2" />
		<edge from-layer="3509" from-port="0" to-layer="3511" to-port="3" />
		<edge from-layer="3510" from-port="0" to-layer="3511" to-port="4" />
		<edge from-layer="3511" from-port="5" to-layer="3516" to-port="0" />
		<edge from-layer="3512" from-port="0" to-layer="3513" to-port="0" />
		<edge from-layer="3513" from-port="1" to-layer="3515" to-port="0" />
		<edge from-layer="3514" from-port="0" to-layer="3515" to-port="1" />
		<edge from-layer="3515" from-port="2" to-layer="3516" to-port="1" />
		<edge from-layer="3516" from-port="2" to-layer="3519" to-port="0" />
		<edge from-layer="3517" from-port="0" to-layer="3518" to-port="0" />
		<edge from-layer="3518" from-port="1" to-layer="3519" to-port="1" />
		<edge from-layer="3519" from-port="2" to-layer="3520" to-port="1" />
		<edge from-layer="3520" from-port="2" to-layer="3526" to-port="0" />
		<edge from-layer="3520" from-port="2" to-layer="3688" to-port="0" />
		<edge from-layer="3521" from-port="0" to-layer="3522" to-port="0" />
		<edge from-layer="3522" from-port="1" to-layer="3687" to-port="0" />
		<edge from-layer="3523" from-port="0" to-layer="3524" to-port="0" />
		<edge from-layer="3524" from-port="1" to-layer="3545" to-port="0" />
		<edge from-layer="3525" from-port="0" to-layer="3526" to-port="1" />
		<edge from-layer="3526" from-port="2" to-layer="3529" to-port="0" />
		<edge from-layer="3527" from-port="0" to-layer="3528" to-port="0" />
		<edge from-layer="3528" from-port="1" to-layer="3529" to-port="1" />
		<edge from-layer="3529" from-port="2" to-layer="3532" to-port="0" />
		<edge from-layer="3530" from-port="0" to-layer="3531" to-port="0" />
		<edge from-layer="3531" from-port="1" to-layer="3532" to-port="1" />
		<edge from-layer="3532" from-port="2" to-layer="3534" to-port="0" />
		<edge from-layer="3532" from-port="2" to-layer="3546" to-port="0" />
		<edge from-layer="3533" from-port="0" to-layer="3534" to-port="1" />
		<edge from-layer="3534" from-port="2" to-layer="3539" to-port="0" />
		<edge from-layer="3535" from-port="0" to-layer="3539" to-port="1" />
		<edge from-layer="3536" from-port="0" to-layer="3539" to-port="2" />
		<edge from-layer="3537" from-port="0" to-layer="3539" to-port="3" />
		<edge from-layer="3538" from-port="0" to-layer="3539" to-port="4" />
		<edge from-layer="3539" from-port="5" to-layer="3571" to-port="0" />
		<edge from-layer="3539" from-port="5" to-layer="3659" to-port="0" />
		<edge from-layer="3539" from-port="5" to-layer="3544" to-port="0" />
		<edge from-layer="3540" from-port="0" to-layer="3541" to-port="0" />
		<edge from-layer="3541" from-port="1" to-layer="3543" to-port="0" />
		<edge from-layer="3542" from-port="0" to-layer="3543" to-port="1" />
		<edge from-layer="3543" from-port="2" to-layer="3544" to-port="1" />
		<edge from-layer="3544" from-port="2" to-layer="3545" to-port="1" />
		<edge from-layer="3545" from-port="2" to-layer="3554" to-port="0" />
		<edge from-layer="3546" from-port="1" to-layer="3549" to-port="0" />
		<edge from-layer="3547" from-port="0" to-layer="3549" to-port="1" />
		<edge from-layer="3548" from-port="0" to-layer="3549" to-port="2" />
		<edge from-layer="3549" from-port="3" to-layer="3553" to-port="0" />
		<edge from-layer="3550" from-port="0" to-layer="3553" to-port="1" />
		<edge from-layer="3551" from-port="0" to-layer="3553" to-port="2" />
		<edge from-layer="3552" from-port="0" to-layer="3553" to-port="3" />
		<edge from-layer="3553" from-port="4" to-layer="3554" to-port="1" />
		<edge from-layer="3553" from-port="4" to-layer="3661" to-port="1" />
		<edge from-layer="3553" from-port="4" to-layer="3578" to-port="1" />
		<edge from-layer="3554" from-port="2" to-layer="3586" to-port="0" />
		<edge from-layer="3554" from-port="2" to-layer="3557" to-port="0" />
		<edge from-layer="3555" from-port="0" to-layer="3556" to-port="0" />
		<edge from-layer="3556" from-port="1" to-layer="3557" to-port="1" />
		<edge from-layer="3557" from-port="2" to-layer="3562" to-port="0" />
		<edge from-layer="3558" from-port="0" to-layer="3562" to-port="1" />
		<edge from-layer="3559" from-port="0" to-layer="3562" to-port="2" />
		<edge from-layer="3560" from-port="0" to-layer="3562" to-port="3" />
		<edge from-layer="3561" from-port="0" to-layer="3562" to-port="4" />
		<edge from-layer="3562" from-port="5" to-layer="3564" to-port="0" />
		<edge from-layer="3563" from-port="0" to-layer="3564" to-port="1" />
		<edge from-layer="3564" from-port="2" to-layer="3581" to-port="0" />
		<edge from-layer="3565" from-port="0" to-layer="3566" to-port="0" />
		<edge from-layer="3566" from-port="1" to-layer="3572" to-port="0" />
		<edge from-layer="3567" from-port="0" to-layer="3568" to-port="0" />
		<edge from-layer="3568" from-port="1" to-layer="3570" to-port="0" />
		<edge from-layer="3569" from-port="0" to-layer="3570" to-port="1" />
		<edge from-layer="3570" from-port="2" to-layer="3571" to-port="1" />
		<edge from-layer="3571" from-port="2" to-layer="3572" to-port="1" />
		<edge from-layer="3572" from-port="2" to-layer="3577" to-port="0" />
		<edge from-layer="3573" from-port="0" to-layer="3577" to-port="1" />
		<edge from-layer="3574" from-port="0" to-layer="3577" to-port="2" />
		<edge from-layer="3575" from-port="0" to-layer="3577" to-port="3" />
		<edge from-layer="3576" from-port="0" to-layer="3577" to-port="4" />
		<edge from-layer="3577" from-port="5" to-layer="3578" to-port="0" />
		<edge from-layer="3578" from-port="2" to-layer="3580" to-port="0" />
		<edge from-layer="3579" from-port="0" to-layer="3580" to-port="1" />
		<edge from-layer="3580" from-port="2" to-layer="3581" to-port="1" />
		<edge from-layer="3581" from-port="2" to-layer="3648" to-port="0" />
		<edge from-layer="3582" from-port="0" to-layer="3583" to-port="0" />
		<edge from-layer="3583" from-port="1" to-layer="3609" to-port="0" />
		<edge from-layer="3584" from-port="0" to-layer="3585" to-port="0" />
		<edge from-layer="3585" from-port="1" to-layer="3586" to-port="1" />
		<edge from-layer="3586" from-port="2" to-layer="3591" to-port="0" />
		<edge from-layer="3587" from-port="0" to-layer="3591" to-port="1" />
		<edge from-layer="3588" from-port="0" to-layer="3591" to-port="2" />
		<edge from-layer="3589" from-port="0" to-layer="3591" to-port="3" />
		<edge from-layer="3590" from-port="0" to-layer="3591" to-port="4" />
		<edge from-layer="3591" from-port="5" to-layer="3593" to-port="0" />
		<edge from-layer="3592" from-port="0" to-layer="3593" to-port="1" />
		<edge from-layer="3593" from-port="2" to-layer="3602" to-port="0" />
		<edge from-layer="3594" from-port="0" to-layer="3595" to-port="0" />
		<edge from-layer="3595" from-port="1" to-layer="3597" to-port="0" />
		<edge from-layer="3596" from-port="0" to-layer="3597" to-port="1" />
		<edge from-layer="3597" from-port="2" to-layer="3598" to-port="1" />
		<edge from-layer="3598" from-port="2" to-layer="3599" to-port="0" />
		<edge from-layer="3599" from-port="2" to-layer="3601" to-port="0" />
		<edge from-layer="3600" from-port="0" to-layer="3601" to-port="1" />
		<edge from-layer="3601" from-port="2" to-layer="3602" to-port="1" />
		<edge from-layer="3602" from-port="2" to-layer="3610" to-port="1" />
		<edge from-layer="3602" from-port="2" to-layer="3603" to-port="0" />
		<edge from-layer="3603" from-port="1" to-layer="3628" to-port="1" />
		<edge from-layer="3603" from-port="1" to-layer="3635" to-port="0" />
		<edge from-layer="3603" from-port="1" to-layer="3613" to-port="0" />
		<edge from-layer="3603" from-port="1" to-layer="3606" to-port="0" />
		<edge from-layer="3603" from-port="1" to-layer="3616" to-port="0" />
		<edge from-layer="3603" from-port="1" to-layer="3621" to-port="0" />
		<edge from-layer="3604" from-port="0" to-layer="3606" to-port="1" />
		<edge from-layer="3605" from-port="0" to-layer="3606" to-port="2" />
		<edge from-layer="3606" from-port="3" to-layer="3608" to-port="0" />
		<edge from-layer="3607" from-port="0" to-layer="3608" to-port="1" />
		<edge from-layer="3608" from-port="2" to-layer="3609" to-port="1" />
		<edge from-layer="3609" from-port="2" to-layer="3610" to-port="0" />
		<edge from-layer="3610" from-port="2" to-layer="3623" to-port="0" />
		<edge from-layer="3611" from-port="0" to-layer="3613" to-port="1" />
		<edge from-layer="3612" from-port="0" to-layer="3613" to-port="2" />
		<edge from-layer="3613" from-port="3" to-layer="3622" to-port="0" />
		<edge from-layer="3614" from-port="0" to-layer="3616" to-port="1" />
		<edge from-layer="3615" from-port="0" to-layer="3616" to-port="2" />
		<edge from-layer="3616" from-port="3" to-layer="3618" to-port="0" />
		<edge from-layer="3617" from-port="0" to-layer="3618" to-port="1" />
		<edge from-layer="3618" from-port="2" to-layer="3622" to-port="1" />
		<edge from-layer="3619" from-port="0" to-layer="3621" to-port="1" />
		<edge from-layer="3620" from-port="0" to-layer="3621" to-port="2" />
		<edge from-layer="3621" from-port="3" to-layer="3622" to-port="2" />
		<edge from-layer="3622" from-port="3" to-layer="3623" to-port="1" />
		<edge from-layer="3623" from-port="2" to-layer="3627" to-port="0" />
		<edge from-layer="3624" from-port="0" to-layer="3627" to-port="1" />
		<edge from-layer="3625" from-port="0" to-layer="3627" to-port="2" />
		<edge from-layer="3626" from-port="0" to-layer="3627" to-port="3" />
		<edge from-layer="3627" from-port="4" to-layer="3628" to-port="0" />
		<edge from-layer="3628" from-port="2" to-layer="3647" to-port="0" />
		<edge from-layer="3629" from-port="0" to-layer="3647" to-port="1" />
		<edge from-layer="3630" from-port="0" to-layer="3645" to-port="0" />
		<edge from-layer="3631" from-port="0" to-layer="3645" to-port="1" />
		<edge from-layer="3632" from-port="0" to-layer="3635" to-port="1" />
		<edge from-layer="3633" from-port="0" to-layer="3635" to-port="2" />
		<edge from-layer="3634" from-port="0" to-layer="3635" to-port="3" />
		<edge from-layer="3635" from-port="4" to-layer="3637" to-port="0" />
		<edge from-layer="3636" from-port="0" to-layer="3637" to-port="1" />
		<edge from-layer="3637" from-port="2" to-layer="3639" to-port="0" />
		<edge from-layer="3638" from-port="0" to-layer="3639" to-port="1" />
		<edge from-layer="3639" from-port="2" to-layer="3641" to-port="0" />
		<edge from-layer="3640" from-port="0" to-layer="3641" to-port="1" />
		<edge from-layer="3641" from-port="2" to-layer="3643" to-port="0" />
		<edge from-layer="3642" from-port="0" to-layer="3643" to-port="1" />
		<edge from-layer="3643" from-port="2" to-layer="3645" to-port="2" />
		<edge from-layer="3644" from-port="0" to-layer="3645" to-port="3" />
		<edge from-layer="3645" from-port="4" to-layer="3647" to-port="2" />
		<edge from-layer="3646" from-port="0" to-layer="3647" to-port="3" />
		<edge from-layer="3647" from-port="4" to-layer="3648" to-port="1" />
		<edge from-layer="3648" from-port="2" to-layer="3651" to-port="0" />
		<edge from-layer="3649" from-port="0" to-layer="3650" to-port="0" />
		<edge from-layer="3650" from-port="1" to-layer="3651" to-port="1" />
		<edge from-layer="3651" from-port="2" to-layer="3652" to-port="0" />
		<edge from-layer="3652" from-port="1" to-layer="3664" to-port="0" />
		<edge from-layer="3653" from-port="0" to-layer="3654" to-port="0" />
		<edge from-layer="3654" from-port="1" to-layer="3660" to-port="0" />
		<edge from-layer="3655" from-port="0" to-layer="3656" to-port="0" />
		<edge from-layer="3656" from-port="1" to-layer="3658" to-port="0" />
		<edge from-layer="3657" from-port="0" to-layer="3658" to-port="1" />
		<edge from-layer="3658" from-port="2" to-layer="3659" to-port="1" />
		<edge from-layer="3659" from-port="2" to-layer="3660" to-port="1" />
		<edge from-layer="3660" from-port="2" to-layer="3661" to-port="0" />
		<edge from-layer="3661" from-port="2" to-layer="3663" to-port="0" />
		<edge from-layer="3662" from-port="0" to-layer="3663" to-port="1" />
		<edge from-layer="3663" from-port="2" to-layer="3664" to-port="1" />
		<edge from-layer="3663" from-port="2" to-layer="3667" to-port="0" />
		<edge from-layer="3664" from-port="2" to-layer="3666" to-port="0" />
		<edge from-layer="3665" from-port="0" to-layer="3666" to-port="1" />
		<edge from-layer="3666" from-port="2" to-layer="3674" to-port="0" />
		<edge from-layer="3667" from-port="1" to-layer="3670" to-port="0" />
		<edge from-layer="3668" from-port="0" to-layer="3670" to-port="1" />
		<edge from-layer="3669" from-port="0" to-layer="3670" to-port="2" />
		<edge from-layer="3670" from-port="3" to-layer="3673" to-port="0" />
		<edge from-layer="3671" from-port="0" to-layer="3673" to-port="1" />
		<edge from-layer="3672" from-port="0" to-layer="3673" to-port="2" />
		<edge from-layer="3673" from-port="3" to-layer="3674" to-port="1" />
		<edge from-layer="3674" from-port="2" to-layer="3676" to-port="0" />
		<edge from-layer="3675" from-port="0" to-layer="3676" to-port="1" />
		<edge from-layer="3676" from-port="2" to-layer="3681" to-port="0" />
		<edge from-layer="3677" from-port="0" to-layer="3681" to-port="1" />
		<edge from-layer="3678" from-port="0" to-layer="3681" to-port="2" />
		<edge from-layer="3679" from-port="0" to-layer="3681" to-port="3" />
		<edge from-layer="3680" from-port="0" to-layer="3681" to-port="4" />
		<edge from-layer="3681" from-port="5" to-layer="3686" to-port="0" />
		<edge from-layer="3682" from-port="0" to-layer="3683" to-port="0" />
		<edge from-layer="3683" from-port="1" to-layer="3685" to-port="0" />
		<edge from-layer="3684" from-port="0" to-layer="3685" to-port="1" />
		<edge from-layer="3685" from-port="2" to-layer="3686" to-port="1" />
		<edge from-layer="3686" from-port="2" to-layer="3687" to-port="1" />
		<edge from-layer="3687" from-port="2" to-layer="3688" to-port="1" />
		<edge from-layer="3688" from-port="2" to-layer="3690" to-port="0" />
		<edge from-layer="3688" from-port="2" to-layer="3745" to-port="0" />
		<edge from-layer="3689" from-port="0" to-layer="3690" to-port="1" />
		<edge from-layer="3690" from-port="2" to-layer="3693" to-port="0" />
		<edge from-layer="3691" from-port="0" to-layer="3692" to-port="0" />
		<edge from-layer="3692" from-port="1" to-layer="3693" to-port="1" />
		<edge from-layer="3693" from-port="2" to-layer="3696" to-port="0" />
		<edge from-layer="3694" from-port="0" to-layer="3695" to-port="0" />
		<edge from-layer="3695" from-port="1" to-layer="3696" to-port="1" />
		<edge from-layer="3696" from-port="2" to-layer="3701" to-port="0" />
		<edge from-layer="3697" from-port="0" to-layer="3701" to-port="1" />
		<edge from-layer="3698" from-port="0" to-layer="3701" to-port="2" />
		<edge from-layer="3699" from-port="0" to-layer="3701" to-port="3" />
		<edge from-layer="3700" from-port="0" to-layer="3701" to-port="4" />
		<edge from-layer="3701" from-port="5" to-layer="3703" to-port="0" />
		<edge from-layer="3702" from-port="0" to-layer="3703" to-port="1" />
		<edge from-layer="3703" from-port="2" to-layer="3708" to-port="0" />
		<edge from-layer="3704" from-port="0" to-layer="3705" to-port="0" />
		<edge from-layer="3705" from-port="1" to-layer="3707" to-port="0" />
		<edge from-layer="3706" from-port="0" to-layer="3707" to-port="1" />
		<edge from-layer="3707" from-port="2" to-layer="3708" to-port="1" />
		<edge from-layer="3708" from-port="2" to-layer="3711" to-port="0" />
		<edge from-layer="3709" from-port="0" to-layer="3710" to-port="0" />
		<edge from-layer="3710" from-port="1" to-layer="3711" to-port="1" />
		<edge from-layer="3711" from-port="2" to-layer="3713" to-port="0" />
		<edge from-layer="3712" from-port="0" to-layer="3713" to-port="1" />
		<edge from-layer="3713" from-port="3" to-layer="3714" to-port="0" />
		<edge from-layer="3713" from-port="2" to-layer="3715" to-port="0" />
		<edge from-layer="3714" from-port="1" to-layer="3715" to-port="1" />
		<edge from-layer="3715" from-port="2" to-layer="3720" to-port="0" />
		<edge from-layer="3716" from-port="0" to-layer="3720" to-port="1" />
		<edge from-layer="3717" from-port="0" to-layer="3720" to-port="2" />
		<edge from-layer="3718" from-port="0" to-layer="3720" to-port="3" />
		<edge from-layer="3719" from-port="0" to-layer="3720" to-port="4" />
		<edge from-layer="3720" from-port="5" to-layer="3725" to-port="0" />
		<edge from-layer="3721" from-port="0" to-layer="3722" to-port="0" />
		<edge from-layer="3722" from-port="1" to-layer="3724" to-port="0" />
		<edge from-layer="3723" from-port="0" to-layer="3724" to-port="1" />
		<edge from-layer="3724" from-port="2" to-layer="3725" to-port="1" />
		<edge from-layer="3725" from-port="2" to-layer="3728" to-port="0" />
		<edge from-layer="3726" from-port="0" to-layer="3727" to-port="0" />
		<edge from-layer="3727" from-port="1" to-layer="3728" to-port="1" />
		<edge from-layer="3728" from-port="2" to-layer="3729" to-port="0" />
		<edge from-layer="3729" from-port="1" to-layer="3734" to-port="0" />
		<edge from-layer="3730" from-port="0" to-layer="3734" to-port="1" />
		<edge from-layer="3731" from-port="0" to-layer="3734" to-port="2" />
		<edge from-layer="3732" from-port="0" to-layer="3734" to-port="3" />
		<edge from-layer="3733" from-port="0" to-layer="3734" to-port="4" />
		<edge from-layer="3734" from-port="5" to-layer="3739" to-port="0" />
		<edge from-layer="3735" from-port="0" to-layer="3736" to-port="0" />
		<edge from-layer="3736" from-port="1" to-layer="3738" to-port="0" />
		<edge from-layer="3737" from-port="0" to-layer="3738" to-port="1" />
		<edge from-layer="3738" from-port="2" to-layer="3739" to-port="1" />
		<edge from-layer="3739" from-port="2" to-layer="3742" to-port="0" />
		<edge from-layer="3740" from-port="0" to-layer="3741" to-port="0" />
		<edge from-layer="3741" from-port="1" to-layer="3742" to-port="1" />
		<edge from-layer="3742" from-port="2" to-layer="3744" to-port="0" />
		<edge from-layer="3743" from-port="0" to-layer="3744" to-port="1" />
		<edge from-layer="3744" from-port="2" to-layer="3745" to-port="1" />
		<edge from-layer="3745" from-port="2" to-layer="3749" to-port="0" />
		<edge from-layer="3745" from-port="2" to-layer="3785" to-port="0" />
		<edge from-layer="3746" from-port="0" to-layer="3747" to-port="0" />
		<edge from-layer="3747" from-port="1" to-layer="3768" to-port="0" />
		<edge from-layer="3748" from-port="0" to-layer="3749" to-port="1" />
		<edge from-layer="3749" from-port="2" to-layer="3752" to-port="0" />
		<edge from-layer="3750" from-port="0" to-layer="3751" to-port="0" />
		<edge from-layer="3751" from-port="1" to-layer="3752" to-port="1" />
		<edge from-layer="3752" from-port="2" to-layer="3755" to-port="0" />
		<edge from-layer="3753" from-port="0" to-layer="3754" to-port="0" />
		<edge from-layer="3754" from-port="1" to-layer="3755" to-port="1" />
		<edge from-layer="3755" from-port="2" to-layer="3757" to-port="0" />
		<edge from-layer="3756" from-port="0" to-layer="3757" to-port="1" />
		<edge from-layer="3757" from-port="2" to-layer="3762" to-port="0" />
		<edge from-layer="3758" from-port="0" to-layer="3762" to-port="1" />
		<edge from-layer="3759" from-port="0" to-layer="3762" to-port="2" />
		<edge from-layer="3760" from-port="0" to-layer="3762" to-port="3" />
		<edge from-layer="3761" from-port="0" to-layer="3762" to-port="4" />
		<edge from-layer="3762" from-port="5" to-layer="3767" to-port="0" />
		<edge from-layer="3763" from-port="0" to-layer="3764" to-port="0" />
		<edge from-layer="3764" from-port="1" to-layer="3766" to-port="0" />
		<edge from-layer="3765" from-port="0" to-layer="3766" to-port="1" />
		<edge from-layer="3766" from-port="2" to-layer="3767" to-port="1" />
		<edge from-layer="3767" from-port="2" to-layer="3768" to-port="1" />
		<edge from-layer="3768" from-port="2" to-layer="3769" to-port="0" />
		<edge from-layer="3769" from-port="1" to-layer="3771" to-port="0" />
		<edge from-layer="3770" from-port="0" to-layer="3771" to-port="1" />
		<edge from-layer="3771" from-port="2" to-layer="3776" to-port="0" />
		<edge from-layer="3772" from-port="0" to-layer="3776" to-port="1" />
		<edge from-layer="3773" from-port="0" to-layer="3776" to-port="2" />
		<edge from-layer="3774" from-port="0" to-layer="3776" to-port="3" />
		<edge from-layer="3775" from-port="0" to-layer="3776" to-port="4" />
		<edge from-layer="3776" from-port="5" to-layer="3781" to-port="0" />
		<edge from-layer="3777" from-port="0" to-layer="3778" to-port="0" />
		<edge from-layer="3778" from-port="1" to-layer="3780" to-port="0" />
		<edge from-layer="3779" from-port="0" to-layer="3780" to-port="1" />
		<edge from-layer="3780" from-port="2" to-layer="3781" to-port="1" />
		<edge from-layer="3781" from-port="2" to-layer="3784" to-port="0" />
		<edge from-layer="3782" from-port="0" to-layer="3783" to-port="0" />
		<edge from-layer="3783" from-port="1" to-layer="3784" to-port="1" />
		<edge from-layer="3784" from-port="2" to-layer="3785" to-port="1" />
		<edge from-layer="3785" from-port="2" to-layer="3787" to-port="0" />
		<edge from-layer="3786" from-port="0" to-layer="3787" to-port="1" />
		<edge from-layer="3787" from-port="2" to-layer="3790" to-port="0" />
		<edge from-layer="3788" from-port="0" to-layer="3789" to-port="0" />
		<edge from-layer="3789" from-port="1" to-layer="3790" to-port="1" />
		<edge from-layer="3790" from-port="2" to-layer="3793" to-port="0" />
		<edge from-layer="3791" from-port="0" to-layer="3792" to-port="0" />
		<edge from-layer="3792" from-port="1" to-layer="3793" to-port="1" />
		<edge from-layer="3793" from-port="2" to-layer="3795" to-port="0" />
		<edge from-layer="3794" from-port="0" to-layer="3795" to-port="1" />
		<edge from-layer="3795" from-port="2" to-layer="3798" to-port="0" />
		<edge from-layer="3796" from-port="0" to-layer="3797" to-port="0" />
		<edge from-layer="3797" from-port="1" to-layer="3798" to-port="1" />
		<edge from-layer="3798" from-port="2" to-layer="3801" to-port="0" />
		<edge from-layer="3799" from-port="0" to-layer="3800" to-port="0" />
		<edge from-layer="3800" from-port="1" to-layer="3801" to-port="1" />
		<edge from-layer="3801" from-port="2" to-layer="3802" to-port="0" />
	</edges>
	<rt_info>
		<Runtime_version value="2024.1.0-15008-f4afc983258-releases/2024/1" />
		<conversion_parameters>
			<input_model value="DIR/encoder.onnx" />
			<is_python_object value="False" />
		</conversion_parameters>
		<nncf>
			<friendly_names_were_updated value="True" />
			<quantization>
				<advanced_parameters value="{}" />
				<fast_bias_correction value="True" />
				<ignored_scope value="None" />
				<model_type value="transformer" />
				<preset value="QuantizationPreset.PERFORMANCE" />
				<subset_size value="300" />
				<target_device value="ANY" />
			</quantization>
		</nncf>
	</rt_info>
</net>
